pretrained/acs_employment.ckpt (torch, 70698 bytes, 28 tensors)

student.0.weight f4 [40, 51]
0	0x3f3fff23	0.7499868
1	0x3ea747d8	0.32672
2	0xbdde622d	-0.10858569
3	0xbf43629f	-0.7632236
4	0xbe988be9	-0.29794243
5	0x3d6f5929	0.05843464
6	0xbea9a8a9	-0.3313649
7	0xbea6c155	-0.32569376
8	0x3de2375f	0.110457174
9	0x3d73a0d5	0.059479553
10	0x3c2df007	0.010616309
11	0x3e0c1c09	0.1368257
12	0x3e1982d6	0.14991316
13	0x3e59e886	0.21280107
14	0x3def8bf0	0.11696613
15	0x3df556c4	0.1197944
16	0x3cf5a68d	0.029986644
17	0x3df2a3a9	0.11847622
18	0x3cb555f4	0.022135712
19	0x3e373277	0.17890345
20	0x3ddd42bf	0.108037464
21	0x3dd6314d	0.10458622
22	0x3d2a7d1e	0.041623227
23	0x3ca404dc	0.020021848
24	0x3da3e9f6	0.08003609
25	0xbdae4006	-0.08508305
26	0x3e4aa9db	0.19791357
27	0x3e724e2e	0.23662636
28	0x3e684aaa	0.22684732
29	0x3ecde83a	0.40216237
30	0x3d173d0e	0.03692346
31	0x3e070515	0.13185532
32	0x3d889224	0.06668499
33	0x3ccd1d64	0.025038429
34	0x3e08975d	0.1333899
35	0x3d841cf9	0.064508386
36	0xbe47eb77	-0.19523416
37	0x3d688684	0.05676891
38	0x3e1d0256	0.15332922
39	0xbe3bfb53	-0.18357591
40	0xbe349e28	-0.17638457
41	0xbc38989d	-0.011266855
42	0x3d1c22bf	0.038119074
43	0x3c97d8e9	0.018536048
44	0xbca8d84d	-0.020610953
45	0x3e12cea5	0.14336641
46	0x3db6fb1f	0.08934616
47	0x3db71199	0.08938903
48	0x3e2713e0	0.16316175
49	0x3e23924d	0.15973778
50	0xbd69b9d9	-0.057062004
51	0xbf5a1ebd	-0.8520315
52	0x3f2281c4	0.63479257
53	0x3d8b86c5	0.068128146
54	0x3f2de47e	0.67926776
55	0x3cc01127	0.023445679
56	0xbe355533	-0.17708282
57	0xbe61e9d3	-0.22061853
58	0x3de961e6	0.11395626
59	0xbe322434	-0.17396623
60	0x3e2e84de	0.17042872
61	0xbe0691e7	-0.13141595
62	0xbe7005c3	-0.23439698
63	0x3ca74482	0.02041841
64	0xbe1faf41	-0.15594198
65	0xbdd8f296	-0.105931446
66	0xbab5ee3d	-0.0013880205
67	0xbd2e1bd4	-0.042507008
68	0x3da59fae	0.08087097
69	0xbd4273ac	-0.047473595
70	0x3cf8e2df	0.030381618
71	0x3c770446	0.015076702
72	0x3e0a62c0	0.13514233
73	0xba8b1fa4	-0.0010614288
74	0x3cb4ce64	0.022071071
75	0x3dcaa974	0.09895602
76	0xbd7eb96c	-0.06218855
77	0xbd9d121d	-0.076694705
78	0xbe26d422	-0.1629186
79	0x3e04053f	0.12892626
80	0x3ec2922a	0.3800214
81	0xbe890fea	-0.26769954
82	0x3d948d90	0.072535634
83	0xbdc629c3	-0.09675934
84	0xbdbb7852	-0.09153809
85	0x3e6ecca3	0.2332025
86	0x3dd27006	0.10275273
87	0xbd62d28b	-0.05537657
88	0x3e91cb85	0.28475586
89	0xbdac25d6	-0.08405654
90	0xbdf8e35e	-0.12152742
91	0xbe649cc6	-0.2232543
92	0x3ef37b41	0.47554973
93	0xba770ef8	-0.0009424533
94	0xbdde3b85	-0.10851196
95	0xbd3b5622	-0.04573644
96	0x3e5f935c	0.21833557
97	0xbda16572	-0.07880677
98	0x3d6196eb	0.055075567
99	0x3a8c22ec	0.001069156
100	0xbd920511	-0.071298726
101	0x3ea99ef4	0.33129084
102	0xbf0d90a4	-0.5529883
103	0xbdc65107	-0.096834235
104	0x3f021a53	0.5082142
105	0x3eb87689	0.36027935
106	0xbe5ed97f	-0.21762656
107	0x3d7a3653	0.061086964
108	0x3f14ce2d	0.581271
109	0xbe004f88	-0.12530339
110	0x3e820684	0.25395596
111	0xbd8d16a2	-0.068890825
112	0xbdb4a61a	-0.08820744
113	0xbf2e9ccc	-0.68208003
114	0x3de2ffe6	0.11083965
115	0x3e0cbdd7	0.13744293
116	0x3da3d350	0.07999289
117	0x3e27f006	0.16400155
118	0xbd75b8eb	-0.059990805
119	0xbcb0377c	-0.021510832
120	0x3e745896	0.23861918
121	0xbe07e9f0	-0.13272834
122	0xbe1a31b3	-0.15058021
123	0xbc8126fb	-0.015765658
124	0xbcdf9de0	-0.02729696
125	0x3d9345d1	0.07191051
126	0x3e02dfd4	0.12780696
127	0x3d7f95f3	0.062398862
128	0x3cdb03a6	0.026735138
129	0x3d4fff39	0.05078051
130	0x3d86baaf	0.06578576
131	0x3e3df67a	0.18551055
132	0x3d544a83	0.051828872
133	0xbd9a7ae5	-0.075429715
134	0xbda31cdd	-0.079644896
135	0xbde9023e	-0.11377381
136	0x3e330272	0.17481402
137	0x3e0bafaf	0.13641237
138	0xbe080804	-0.13284308
139	0x3ded4b0c	0.1158658
140	0xbeecb3d1	-0.4623094
141	0x3dfcac92	0.12337603
142	0x3e3a22bf	0.18177317
143	0xbd5fe8a5	-0.054665226
144	0x3c95c754	0.018283524
145	0x39a427d3	0.0003131019
146	0x3c721e1b	0.0147776855
147	0xbed2a64c	-0.411425
148	0xbddb1b0e	-0.1069852
149	0x3da6e27d	0.08148668
150	0xbd682726	-0.05667796
151	0x3e095c7c	0.13414186
152	0xbf9c037f	-1.2188567
153	0xbf034d8c	-0.512902
154	0x3dfe206b	0.12408527
155	0xbe10f7dd	-0.14157052
156	0x3e0e784f	0.13913082
157	0xbee781e9	-0.452163
158	0x3d6c6322	0.057711728
159	0xbf2ce2ed	-0.6753376
160	0x3e444c38	0.191697
161	0x3c8966e1	0.01677269
162	0xbdac26c9	-0.08405835
163	0x3e4705d5	0.19435818
164	0x3e64219a	0.22278443
165	0xbcfc6b61	-0.030812921
166	0x3e0b3581	0.13594629
167	0xbec8c5a4	-0.39213288
168	0xbea199ca	-0.31562644
169	0x3d9c7a36	0.076404974
170	0x3d50bf6e	0.05096381
171	0x3eb8c11d	0.36084834
172	0x3e8dfa18	0.2772987
173	0x3dc12e68	0.094326794
174	0x3e13228c	0.14368647
175	0x3e89d3bd	0.26919356
176	0x3e1dd8eb	0.15414779
177	0x3ee20f61	0.44152358
178	0x3e657612	0.22408321
179	0x3d058985	0.032601852
180	0x3e224e2a	0.1585013
181	0x3dc6748a	0.09690197
182	0x3e5b1e92	0.2139838
183	0xbe42b094	-0.19012672
184	0x3e0eefa4	0.13958603
185	0x3ee357ca	0.44402915
186	0xbc8a28fc	-0.016865246
187	0x3ccbfc11	0.024900468
188	0x3cf282d7	0.029603405
189	0x3d1a0be7	0.037609007
190	0x3dd68737	0.10475009
191	0x3c69b333	0.014263916
192	0xbeb568c3	-0.3543149
193	0xbe8daa87	-0.27669165
194	0x3e579682	0.21053508
195	0xbeac086a	-0.3360017
196	0xbe71e371	-0.23621918
197	0xbe5cb9ca	-0.21555248
198	0x3caaf660	0.020869434
199	0x3b8713c4	0.0041222293
200	0xbeb992f2	-0.36244923
201	0xbcd491be	-0.025948402
202	0x3e8d2d78	0.27573752
203	0x3e897e72	0.26854283
204	0x3d16c6ad	0.036810566
205	0xbe64ad1b	-0.2233166
206	0xbe70ed4f	-0.23528026
207	0x3e7af627	0.24507962
208	0x3eac15c3	0.33610353
209	0x3dadf9f6	0.08494942
210	0x3f4bc0c7	0.7959103
211	0x3e13b40d	0.14424153
212	0xbf213c8e	-0.62983024
213	0x3eb4a7d9	0.35284308
214	0x3d0f2ff9	0.03495786
215	0x3ea9ac13	0.33139095
216	0x3e3728a1	0.17886592
217	0x3d989f5f	0.074522726
218	0x3deeccae	0.11660133
219	0x3d58d230	0.052934825
220	0x3d6341c6	0.05548265
221	0xbe362fa1	-0.17791606
222	0x3dee8c75	0.11647884
223	0x3c99c981	0.018772842
224	0x3d8aa34b	0.06769427
225	0x3df9e213	0.12201323
226	0x3c0f8c00	0.008761406
227	0x3d92e946	0.071733996
228	0xbdd356ee	-0.10319315
229	0xbdfb96aa	-0.12284596
230	0x3e1b85e2	0.15187791
231	0x3da8a57e	0.0823469
232	0x3d49def4	0.04928489
233	0x3f08bba1	0.534113
234	0x3e3ad78e	0.1824629
235	0xbd24ba82	-0.04021693
236	0x3efd5663	0.4947997
237	0x3d1ba51a	0.03799925
238	0xbe31ab52	-0.1735051
239	0xbc0903cd	-0.008362723
240	0xbc62f0b5	-0.013851334
241	0xbe430654	-0.19045383
242	0xbe122f9e	-0.14275977
243	0x3d2aecde	0.0417298
244	0x3e36993c	0.17831892
245	0x3d098fbf	0.033584353
246	0x3c840dfc	0.01611995
247	0xbd11e8a0	-0.03562224
248	0x3dec27a8	0.11531001
249	0x3d996c52	0.074913636
250	0xbd48013c	-0.048829302
251	0x3d1b02d9	0.037844513
252	0x3d4ba91b	0.04972182
253	0xbe7198ca	-0.2359344
254	0xbec51797	-0.3849456
255	0xbf0e1e2f	-0.55514807

student.0.bias f4 [40]
0	0xbf6d1b91	-0.9262019
1	0xbf2c4d41	-0.6730538
2	0xbf120a52	-0.57047
3	0xbe05ded1	-0.13073279
4	0xbf83f678	-1.0309591
5	0xbf566fe3	-0.83764476
6	0xbf41b9fc	-0.75674415
7	0xbec259b9	-0.37959078
8	0xbedc1c94	-0.42990553
9	0xbeba1cee	-0.36350197
10	0xbf20f75f	-0.6287746
11	0xbf8204c7	-1.0157708
12	0xbe664a60	-0.2248931
13	0xbef5fd26	-0.480447
14	0xbf154b8c	-0.583184
15	0xbf830983	-1.0237278
16	0xbf30f3e1	-0.6912213
17	0xbe6a7786	-0.22897157
18	0xbf104cd4	-0.5636723
19	0xbf2de557	-0.6792807
20	0xbf84aea2	-1.0365794
21	0xbf9a9034	-1.2075257
22	0xbec03e0f	-0.37547347
23	0xbe617569	-0.22017445
24	0xbf1c5256	-0.61063135
25	0xbf03ac49	-0.5143476
26	0xbe9f8a24	-0.3116008
27	0xbde91bed	-0.113822795
28	0xbeb683b7	-0.35647365
29	0xbf32c100	-0.69825745
30	0xbea6bd5d	-0.32566348
31	0xbf3384eb	-0.7012469
32	0xbf2e8dcb	-0.6818511
33	0xbf50613e	-0.8139838
34	0xbef1f8fb	-0.4726027
35	0xbf865a05	-1.0496222
36	0xbf09430e	-0.5361794
37	0xbf0e3a1d	-0.55557424
38	0xbf2dd886	-0.67908514
39	0xbf1b80a2	-0.60743153

student.3.weight f4 [25, 40]
0	0xbcdc3229	-0.026879387
1	0x3c061902	0.008184673
2	0xbdf4f30a	-0.119604185
3	0x3c26fb16	0.0101916995
4	0xbf17d653	-0.5931141
5	0x3d9282ba	0.0715384
6	0xbcfa8dc4	-0.030585177
7	0xbc7f809e	-0.01559463
8	0xbd3f6e8e	-0.046736293
9	0xbcc7af38	-0.024375543
10	0x3c6e6eb4	0.014552761
11	0xbecd83c6	-0.40139598
12	0xbcb412c4	-0.021981604
13	0xbd5887c9	-0.05286387
14	0xbbed45e3	-0.007240997
15	0xbf4dc771	-0.8038245
16	0x3c9e77a9	0.019344168
17	0xbfa735dc	-1.3063312
18	0xbf5c4511	-0.86042887
19	0xbf0bfae8	-0.5467973
20	0xbcd924f8	-0.026506886
21	0xbd2a6a06	-0.041605018
22	0xbceef5e4	-0.029169984
23	0xbde0b7f2	-0.10972585
24	0x3d988641	0.07447482
25	0xbc4fa539	-0.0126736695
26	0xbf6a879d	-0.9161318
27	0xbf9d097b	-1.2268518
28	0xbfb03ed5	-1.3769175
29	0xbd63ca68	-0.05561295
30	0xbef446ab	-0.47710165
31	0xbf7d155e	-0.9886073
32	0xbd165603	-0.03670312
33	0x3c75ff27	0.015014446
34	0xbf5885b8	-0.8457904
35	0xbf596495	-0.849191
36	0x3c84c67e	0.01620793
37	0x3dac15fe	0.08402632
38	0xbf8138c3	-1.0095447
39	0xbef644b2	-0.48099285
40	0x3d87377e	0.06602381
41	0xbf4e99eb	-0.8070361
42	0x3e867498	0.2626083
43	0xbf285772	-0.6575843
44	0x3de0cdfb	0.10976788
45	0xbf100bd4	-0.5626805
46	0xbf3fcd56	-0.7492269
47	0xbf468b62	-0.7755643
48	0x3c100842	0.008791031
49	0xbf17755f	-0.5916347
50	0x3d24b7b0	0.04021424
51	0x3d88e985	0.06685165
52	0xbfbcb695	-1.474322
53	0xbed320c3	-0.41235933
54	0xba2c8bc7	-0.0006582108
55	0x3cc29aa5	0.02375538
56	0x3cf5fbdb	0.03002732
57	0xbc9fd0d2	-0.019508753
58	0x3ca04251	0.019562872
59	0xbf1fa884	-0.6236651
60	0xbe9af098	-0.30261683
61	0xbeb701d4	-0.35743582
62	0xbedd59db	-0.43232617
63	0xbf04ae47	-0.51828426
64	0x3c2d5510	0.0105793625
65	0xbf5435da	-0.8289467
66	0x3d070f80	0.032973766
67	0x3e9ef29c	0.3104447
68	0xbd8184d7	-0.06324165
69	0xbeed0d3e	-0.46299165
70	0xbdb9529d	-0.0904896
71	0x3a9f0098	0.0012130914
72	0xbf353c45	-0.7079509
73	0xbf2e902e	-0.6818875
74	0x3e8f0332	0.27932125
75	0x3cd2785c	0.025692157
76	0xbf4fee89	-0.8122335
77	0x3e297a6e	0.1655061
78	0xbc873f6d	-0.016509736
79	0xbe118639	-0.14211358
80	0x3cb5b112	0.02217916
81	0xbef8ae47	-0.48570463
82	0x3e4d8eee	0.20074055
83	0x3cfa4752	0.030551586
84	0x3e7ccc88	0.24687397
85	0xbf12ae16	-0.57296884
86	0xbff74cf1	-1.9320356
87	0x3ccd1f0a	0.025039215
88	0x3ef76d0a	0.48325378
89	0xbdc21d36	-0.09478228
90	0xbcb16f65	-0.021659562
91	0x3dc725e3	0.09724023
92	0xbe074324	-0.13209206
93	0xbee00b71	-0.4375873
94	0x3d629cd2	0.055325337
95	0x3e8c1061	0.27356246
96	0xbb1fc5f2	-0.002437946
97	0x3d0e1f33	0.034697723
98	0x3dd51e57	0.104061775
99	0xbef2978c	-0.47381246
100	0xbf8f927e	-1.1216581
101	0xbdbe28bc	-0.09285113
102	0xbf754a5c	-0.9581659
103	0xbd797109	-0.060898814
104	0x3dc3b73b	0.09556433
105	0xbfe9bb93	-1.8260368
106	0x3c962e4e	0.018332627
107	0x3e875039	0.26428393
108	0xbb860116	-0.004089485
109	0xbe122360	-0.14271307
110	0x3dc8d6aa	0.09806569
111	0x3d360cfa	0.04444597
112	0xbf29d939	-0.6634708
113	0xbfbfb86a	-1.4978154
114	0x3e8d5293	0.27602062
115	0x3ea5f592	0.32413918
116	0xbf317952	-0.69325745
117	0x3d95c0f6	0.07312195
118	0x3db9c689	0.09071071
119	0x3d33c6da	0.04389081
120	0xbcf7783c	-0.0302087
121	0xbebf998e	-0.3742184
122	0x3ea3c041	0.31982616
123	0xbbaf2663	-0.005345152
124	0x3e9123fa	0.2834776
125	0xbf1a77ff	-0.6033935
126	0xbf8afe91	-1.0858938
127	0x3b0126ca	0.0019706958
128	0x3e6f2a28	0.23355925
129	0xbe6a4412	-0.2287753
130	0x3a804eee	0.0009789148
131	0x3dcaf882	0.0991068
132	0xbf882937	-1.0637578
133	0xbf7acf4d	-0.97972566
134	0x3cd2b182	0.025719408
135	0x3e30bb7f	0.17259024
136	0x3ce53831	0.027980896
137	0xbcd0ea8e	-0.02550247
138	0x3d9cc82d	0.07655368
139	0xbf2845a2	-0.6573125
140	0xbf338c03	-0.70135516
141	0xbe81044c	-0.2519859
142	0xbe097d7a	-0.13426772
143	0x3c72b148	0.014812775
144	0x3d8e5119	0.06949062
145	0xbf8a537a	-1.0806725
146	0x3d547452	0.051868744
147	0x3eea2575	0.45731702
148	0xbd2c8a58	-0.042124122
149	0xbf33ec68	-0.702826
150	0x3d465a65	0.04842605
151	0x3c075d8c	0.008262049
152	0xbe637507	-0.22212611
153	0xbf67eb1b	-0.9059312
154	0xbd4e6949	-0.050393376
155	0x3ea4e5e1	0.32206634
156	0xbf35e47c	-0.71051764
157	0x3d103cf8	0.035214394
158	0x3db44d9b	0.088038646
159	0x3e84cfd8	0.25939822
160	0x3ccfe9a6	0.025379967
161	0xbdcf7f4f	-0.10131704
162	0xbf6661e0	-0.89993095
163	0xbde3442f	-0.11096989
164	0xbf1046eb	-0.5635821
165	0xbe8a68f8	-0.2703321
166	0x3eed6b23	0.463708
167	0xbd8fbf66	-0.07018928
168	0xbed557cc	-0.41668546
169	0x3cce4429	0.025178986
170	0xbd92244a	-0.07135828
171	0xbdafaefc	-0.085782975
172	0xbd12ebaa	-0.035869278
173	0xbd1197e0	-0.03554523
174	0xbf6b5d54	-0.9193928
175	0xbe7b51ef	-0.24542974
176	0x3b2cb25c	0.0026351428
177	0xbc94eab9	-0.01817833
178	0xbd537404	-0.051624313
179	0xbe6d42f9	-0.2317008
180	0x3f0b7829	0.54480225
181	0x3e5a0118	0.2128948
182	0xbb8c719b	-0.0042860038
183	0x3e34d4c2	0.17659286
184	0xbe36b310	-0.17841744
185	0x3d40ee12	0.04710204
186	0xbebb9fe2	-0.36645418
187	0xbe8bf05e	-0.27331823
188	0x3dd06857	0.10176151
189	0x3d9fd3b8	0.07804054
190	0xbd8b22c2	-0.06793739
191	0xbf4cffe1	-0.8007794
192	0x3d54301c	0.051803693
193	0xbbb2e432	-0.005459332
194	0x3e1dabfc	0.15397638
195	0xbdc2c989	-0.09511096
196	0xbd92d3f2	-0.071693316
197	0xbee16da0	-0.4402895
198	0xbd0595b7	-0.032613482
199	0xbe82fcd0	-0.25583506
200	0x3c61adf8	0.013774388
201	0x3c1bf993	0.009519952
202	0xbf0c5d3d	-0.5482977
203	0x3cae445a	0.021272827
204	0xbf07c8cc	-0.53040767
205	0xbe80be89	-0.25145367
206	0x3d28b701	0.04119015
207	0xb9ff61d4	-0.00048710278
208	0xbeb12394	-0.34597456
209	0x3c210652	0.009828167
210	0xbc171102	-0.009220364
211	0xbeda4726	-0.42632407
212	0x3cde402e	0.027130213
213	0x3cd792e4	0.02631516
214	0xbf93d1fe	-1.154846
215	0xbe041db0	-0.1290195
216	0x3c8bd87d	0.017071003
217	0xbefb2ee4	-0.49059212
218	0xbf236c65	-0.6383727
219	0xbd17bb5f	-0.037043925
220	0xbcb77c6b	-0.022398194
221	0x3ceeac35	0.02913485
222	0x3c50ccd2	0.0127441455
223	0x3d96d14a	0.073641375
224	0xbe2617c6	-0.16220006
225	0x3c34b76b	0.011030058
226	0xbf813a53	-1.0095924
227	0xbfb5e5de	-1.4210775
228	0xbf5815d3	-0.844083
229	0x3e057828	0.13034117
230	0xbea74383	-0.32668695
231	0xbf939f2c	-1.153295
232	0x3d3f053c	0.04663585
233	0x3d8d403b	0.068970166
234	0xbf7b9b53	-0.9828388
235	0xbedea9cd	-0.43488923
236	0x3bd32c01	0.0064444547
237	0xbc70bb36	-0.014693072
238	0xbf3b1924	-0.73085237
239	0xbef4de18	-0.47825694
240	0xbf987532	-1.1910765
241	0x3d40573c	0.046958193
242	0xbf5c97c8	-0.861691
243	0xbd184140	-0.037171602
244	0xbf5b0ae5	-0.855635
245	0x3e657c80	0.22410774
246	0xbdc9ff97	-0.09863203
247	0xbd803fd9	-0.06262178
248	0xbf826ea1	-1.0190011
249	0xbe0b3593	-0.13594656
250	0xbfa703cd	-1.3048035
251	0xbf047e66	-0.5175537
252	0x3ceeb84d	0.029140616
253	0x3e7ff5d0	0.24996114
254	0xbdd55d9e	-0.10418247
255	0xbf83dc92	-1.0301688

student.3.bias f4 [25]
0	0x3e60161e	0.21883437
1	0x3e40a01b	0.18811075
2	0x3cd639c8	0.0261506
3	0x3dedc138	0.11609119
4	0x3d903cc8	0.07042843
5	0x3e144fdb	0.14483587
6	0x3e643081	0.22284128
7	0x3e27dccb	0.1639282
8	0x3cf634e2	0.030054513
9	0x3babe508	0.0052458085
10	0x3e1b373d	0.1515779
11	0x3e53e26a	0.20691839
12	0x3db14624	0.086559564
13	0x3dcfc562	0.1014507
14	0x3de54643	0.11195042
15	0xbe2ea8cf	-0.17056583
16	0x3ddbd7c9	0.10734517
17	0x3e56614b	0.20935552
18	0x3e5781e5	0.21045645
19	0x3e025d04	0.12730795
20	0x3e6d1a3e	0.23154542
21	0x3da19d60	0.07891345
22	0x3dfc8d6c	0.123316616
23	0x3e04e49c	0.12977833
24	0xbee67e54	-0.45018256

student.6.weight f4 [15, 25]
0	0x3e2f4564	0.17116314
1	0xbf92f932	-1.1482298
2	0xbf52d872	-0.8236152
3	0xbf41024d	-0.75394136
4	0xbbd96f58	-0.0066355877
5	0x3d91dae6	0.0712183
6	0xbf0de4c4	-0.55427194
7	0x3cf99d98	0.030470654
8	0xbf17a628	-0.5923791
9	0xbbc2383d	-0.0059271143
10	0xbf41600d	-0.75537187
11	0xbed17f33	-0.40917358
12	0x3c40cc3a	0.011767441
13	0xbf78f088	-0.9724202
14	0xbfa3b67b	-1.2790064
15	0xbf0496d3	-0.5179264
16	0xbd5286d9	-0.051398132
17	0xbecb06e9	-0.3965371
18	0x3e51669d	0.204493
19	0x3cf43d53	0.029814398
20	0xbeacda7d	-0.33760443
21	0xbeb1fd5f	-0.3476362
22	0xbdb0d488	-0.08634287
23	0xbf04b9ce	-0.51846015
24	0xbf083edc	-0.53220916
25	0x3e7c9e4d	0.24669762
26	0xbf489e44	-0.78366494
27	0xbf062130	-0.5239439
28	0xbe99c37a	-0.3003195
29	0x3d13c6a7	0.03607812
30	0x3e101e1f	0.1407399
31	0xbe105577	-0.14095102
32	0x3e582ff9	0.2111205
33	0xbec312ad	-0.38100186
34	0xbb233667	-0.0024904252
35	0xbf84f00a	-1.0385754
36	0xbe3b1438	-0.18269432
37	0x3da3b7bb	0.07994028
38	0xbfd11fe7	-1.6337861
39	0xbfa2b023	-1.2710003
40	0xbe74a12c	-0.23889607
41	0xbd052f6d	-0.032515932
42	0xbe09d8f1	-0.13461663
43	0x3e6a4dca	0.22881237
44	0x3dd706ce	0.10499345
45	0xbe34e6e9	-0.1766621
46	0xbf521b89	-0.82073265
47	0xbd642ffe	-0.05570983
48	0xbe503c65	-0.20335539
49	0xbee5e268	-0.44899297
50	0xbdafeea9	-0.08590443
51	0x3cfc49d9	0.030796932
52	0xbc789027	-0.015171087
53	0x3c6ae459	0.014336669
54	0xbef1a3db	-0.47195324
55	0xbf00ab37	-0.50261253
56	0xbf31762a	-0.6932093
57	0xbeeb0a80	-0.45906448
58	0xbc2f394d	-0.010694814
59	0xbf337311	-0.7009745
60	0x3d997a26	0.07494001
61	0xbf213734	-0.6297486
62	0xbf019c81	-0.5062943
63	0x3d3ff6e1	0.0468663
64	0x3d2d31db	0.042283874
65	0xbdf262e9	-0.11835272
66	0xbf3389ba	-0.7013203
67	0x396e29c1	0.00022713003
68	0xbd0e870e	-0.034796767
69	0xbeb569de	-0.35432333
70	0x3bab2d2d	0.005223891
71	0xbcf99f6f	-0.030471532
72	0xbf16450c	-0.5869911
73	0xba34bc5a	-0.00068945216
74	0xbe3326e5	-0.17495306
75	0x3d808fec	0.06277451
76	0x3ce6dbcf	0.028180985
77	0x3c4f1fa4	0.012641821
78	0x3c71f898	0.014768742
79	0xbf235b1d	-0.638109
80	0xbee810d2	-0.45325333
81	0xbfa24e1e	-1.268009
82	0xbec3fe51	-0.38279966
83	0x3bbe8dbd	0.0058152364
84	0xbf4b38d9	-0.7938362
85	0x3d8162da	0.063176826
86	0xbf8962ca	-1.0733273
87	0xbf0696ca	-0.52573836
88	0xbc72acaa	-0.014811674
89	0x3cfd66b0	0.030932754
90	0xbe363c64	-0.17796475
91	0xbfa3454d	-1.2755524
92	0xbba9d073	-0.00518232
93	0x3e0506c4	0.12990862
94	0xbea92e83	-0.33043298
95	0x3c3d6bb9	0.011561328
96	0xbccf5025	-0.02530677
97	0xbf79ca65	-0.97574455
98	0x3c7e751b	0.01553085
99	0xbec91cd5	-0.3927981
100	0x3d6a1c5d	0.057155956
101	0xbfc676cd	-1.5505005
102	0xbfa7d9eb	-1.3113378
103	0xbfa63150	-1.2983799
104	0xbc4067d5	-0.0117435055
105	0xbcedaf78	-0.029014334
106	0xbf8b6a9f	-1.0891913
107	0xbd04df05	-0.03243925
108	0xbf730663	-0.9493162
109	0x3b5644fd	0.0032694929
110	0xbf436e2c	-0.76339984
111	0xbf85ca2d	-1.0452324
112	0xbccf7df1	-0.025328608
113	0xbf403bec	-0.75091434
114	0xbfa5b182	-1.2944796
115	0xbf395b92	-0.7240535
116	0xbdc6e1e5	-0.09711055
117	0xbf9140d4	-1.1347909
118	0x3d2c83ae	0.042117767
119	0xbd039827	-0.032127526
120	0xbf8e8ce7	-1.113675
121	0xbec67cd7	-0.3876712
122	0xbe350553	-0.17677812
123	0xbfb39848	-1.4030848
124	0xbf041fdb	-0.5161111
125	0x3df317d9	0.11869783
126	0xbff9b6b2	-1.9508879
127	0xbf8798f6	-1.0593555
128	0xbf9584e1	-1.1681176
129	0xbacf57d5	-0.0015819023
130	0xbc8d8d48	-0.017279282
131	0xbf2ec78b	-0.6827323
132	0xbd40ee31	-0.047102157
133	0xbf464f82	-0.7746507
134	0xbba3766b	-0.0049884818
135	0xbf0ce150	-0.550313
136	0xbf1257ff	-0.5716552
137	0xbcddc4ff	-0.027071474
138	0xbee27804	-0.4423219
139	0xbf957d16	-1.1678798
140	0xbe925f36	-0.28588265
141	0xbdc13007	-0.094329886
142	0xbf25c8ca	-0.64759505
143	0x3db6f2e0	0.089330435
144	0x3b8e0e9f	0.004335239
145	0xbf3ffee7	-0.74998325
146	0xbe4a6eb2	-0.1976879
147	0xbefe9ebe	-0.49730486
148	0xbf618cb7	-0.8810534
149	0xbefb9d99	-0.49143675
150	0xbb8a5528	-0.004221577
151	0x3d8fe9ec	0.07027039
152	0x3d1181e4	0.035524264
153	0x3c83006a	0.015991408
154	0xbf7626e2	-0.9615308
155	0xbf05e339	-0.5229984
156	0xbe0a0212	-0.13477352
157	0xbf0664cb	-0.5249755
158	0x3d6ba0db	0.05752645
159	0xbf435b5e	-0.7631129
160	0x3d8579ca	0.0651737
161	0xbe2e86e4	-0.17043644
162	0xbf04f1c1	-0.5193139
163	0x3e2b3827	0.16720639
164	0x3ca74d2c	0.02042254
165	0xbda08c14	-0.07839218
166	0xbec6d323	-0.3883296
167	0x3c5d6d05	0.013514762
168	0xbd5398b1	-0.05165929
169	0xbe76d4c6	-0.24104604
170	0x3d06b37d	0.032886017
171	0x3dec2a35	0.11531488
172	0xbebe090a	-0.3711627
173	0xbb920330	-0.0044559464
174	0xbe08a6c7	-0.1334487
175	0x3e8ff3e8	0.28115773
176	0xbf334d7a	-0.70040095
177	0xbf2e8d33	-0.681842
178	0xbeec2222	-0.4611979
179	0x3ca95dec	0.020674668
180	0x3e387a07	0.180153
181	0xbd520ed3	-0.05128367
182	0x3e2d9e15	0.16954835
183	0xbf09e0d5	-0.5385869
184	0x3cbbfb72	0.022947047
185	0xbf160e00	-0.5861511
186	0xbe0bcfd4	-0.13653499
187	0x3e0ff814	0.14059478
188	0xbfb56317	-1.4170865
189	0xbf8876a9	-1.0661212
190	0xbe37082f	-0.17874216
191	0xbc4c7802	-0.012479784
192	0xbe2625df	-0.16225384
193	0x3e89d14b	0.2691749
194	0x3df95dbd	0.12176082
195	0xbdde4895	-0.10853688
196	0xbf1ed5b7	-0.6204485
197	0xbd8cb7f6	-0.06871025
198	0xbeadd330	-0.33950186
199	0xbe87b158	-0.2650249
200	0x3e6e4a37	0.23270498
201	0xbf32d9c4	-0.69863534
202	0xbf1f4e45	-0.62228805
203	0xbe957f4c	-0.29198682
204	0xbc1e05e2	-0.009644957
205	0x3df9ddf4	0.12200537
206	0xbdfd9f71	-0.12383927
207	0x3e31a48a	0.17347923
208	0xbef4df48	-0.478266
209	0x3cbbe978	0.022938475
210	0xbf5aa231	-0.85403734
211	0xbe383468	-0.17988741
212	0x3e03549d	0.12825246
213	0xbfc2e60c	-1.5226455
214	0xbfa2cce5	-1.2718779
215	0x3b18a26f	0.0023290177
216	0xbd2dba4d	-0.042414
217	0xbe2321b9	-0.15930833
218	0x3e2beb8e	0.16789076
219	0x3db60388	0.08887392
220	0xbe3ffecc	-0.18749541
221	0xbf497ca3	-0.78705806
222	0xbddf9a8e	-0.10918151
223	0xbe68c792	-0.2273238
224	0xbed15302	-0.40883642
225	0xbe2bde35	-0.16783984
226	0x3da37a1c	0.07982275
227	0x3d78a121	0.06070054
228	0x3c8ee9a7	0.017445398
229	0xbeb7da52	-0.35908753
230	0xbf4faba8	-0.811213
231	0xbed22f9d	-0.4105195
232	0xbf5e077e	-0.8673018
233	0x3d81cb48	0.06337601
234	0xbe3a311f	-0.181828
235	0x3dc643ee	0.09680925
236	0x3dd66389	0.104682036
237	0xbf314f32	-0.6926147
238	0x3e2fd036	0.1716927
239	0x3e0b3f26	0.13598308
240	0xbd875ace	-0.066091165
241	0xbd1da1ec	-0.0384845
242	0x3d0fb048	0.035080224
243	0xbec98a03	-0.39363107
244	0xbec6b2c2	-0.38808256
245	0xbc5e23c5	-0.013558333
246	0x3e7777f2	0.2416685
247	0xbe9447ad	-0.28960934
248	0x3c954ec4	0.018226035
249	0xbd8b0a46	-0.06789069
250	0x3e671b73	0.22569065
251	0xbf7241db	-0.9463174
252	0xbf3655df	-0.7122478
253	0xbf1ad451	-0.6048022
254	0x3bc0f5bc	0.005888669
255	0x3dd1bc49	0.10240991

student.6.bias f4 [15]
0	0x3ebc1622	0.36735636
1	0x3ecd65dc	0.40116775
2	0x3e9e1159	0.3087261
3	0x3e7631cc	0.24042434
4	0x3e8cf120	0.27527714
5	0x3eaa4f25	0.33263507
6	0x3e9d926d	0.30775777
7	0x3ed77a1c	0.4208535
8	0x3ec39098	0.38196254
9	0x3eca5c89	0.39523724
10	0x3eec6ce2	0.4617682
11	0x3ed8868a	0.42290145
12	0x3f0ecb0a	0.55778563
13	0x3ec29410	0.38003588
14	0x3ec35d45	0.38157097

student.9.weight f4 [1, 15]
0	0x3f0df68d	0.5545433
1	0x3eb0ff3d	0.3456973
2	0xbeb82945	-0.35968986
3	0xbefcf780	-0.49407578
4	0x3f8518ef	1.0398234
5	0x3f4f2c5c	0.8092706
6	0xbe8b1d7f	-0.2717094
7	0x3ea3e2bc	0.32008922
8	0x3ebf3221	0.37342933
9	0xbe4edc63	-0.20201258
10	0x3e96954a	0.29410774
11	0xbe4a3f7d	-0.19750781
12	0x3e478dd3	0.19487695
13	0xbe5e2793	-0.21694784
14	0xbe66fe02	-0.22557834

teacher.model.0.weight f4 [40, 51]
0	0x3f40168d	0.7503441
1	0x3ea7432f	0.32668445
2	0xbddee16d	-0.1088284
3	0xbf436e3a	-0.7634007
4	0xbe989591	-0.2980161
5	0x3d6f2eaf	0.05839413
6	0xbea98ddb	-0.3311604
7	0xbea6c2c7	-0.32570478
8	0x3de21738	0.11039585
9	0x3d73c629	0.059515152
10	0x3c2d6371	0.010582791
11	0x3e0bd4d9	0.13655414
12	0x3e19a94d	0.1500599
13	0x3e5a0af8	0.21293247
14	0x3defaa7d	0.1170244
15	0x3df5368c	0.119732946
16	0x3cf5976c	0.02997943
17	0x3df2d848	0.118576586
18	0x3cb4082a	0.02197655
19	0x3e36eeda	0.17864552
20	0x3ddcbd70	0.1077832
21	0x3dd64b4a	0.10463579
22	0x3d2a8cb0	0.041638076
23	0x3ca35c14	0.019941367
24	0x3da3ac99	0.07991905
25	0xbdae7d1f	-0.08519959
26	0x3e4a771a	0.19771996
27	0x3e72520c	0.23664111
28	0x3e6849c9	0.22684397
29	0x3ecde863	0.4021636
30	0x3d16a134	0.03677483
31	0x3e06fe0b	0.13182847
32	0x3d8892c8	0.06668621
33	0x3ccce6c6	0.025012385
34	0x3e08ad6c	0.13347405
35	0x3d8420fe	0.06451605
36	0xbe4809e1	-0.19535019
37	0x3d696f0b	0.056990664
38	0x3e1cd501	0.1531563
39	0xbe3c323f	-0.18378542
40	0xbe349a8f	-0.17637084
41	0xbc3a4f1f	-0.011371403
42	0x3d1bb6b0	0.03801602
43	0x3c97be2a	0.018523294
44	0xbca7102e	-0.020393457
45	0x3e12ccbb	0.14335911
46	0x3db72b99	0.089438625
47	0x3db70bbe	0.089377865
48	0x3e272c96	0.16325602
49	0x3e238057	0.15966927
50	0xbd69c5c4	-0.05707337
51	0xbf5a0a43	-0.8517191
52	0x3f2284f8	0.63484144
53	0x3d8be4e4	0.06830767
54	0x3f2dcf87	0.67894787
55	0x3cbe890d	0.02325871
56	0xbe358688	-0.17727101
57	0xbe618bdb	-0.22026007
58	0x3dea1909	0.11430556
59	0xbe326492	-0.17421177
60	0x3e2ed1c9	0.17072214
61	0xbe068f62	-0.13140634
62	0xbe6fc4a0	-0.2341485
63	0x3ca6903c	0.020332448
64	0xbe1fc002	-0.15600589
65	0xbdd9418e	-0.10608207
66	0xbacc6a76	-0.0015595693
67	0xbd2f72ce	-0.042834096
68	0x3da5bb71	0.08092392
69	0xbd42eda9	-0.04758993
70	0x3cf7dcc5	0.030256638
71	0x3c76d70f	0.015065922
72	0x3e0a49a7	0.13504659
73	0xbaba9317	-0.001423451
74	0x3cb34d8a	0.02188756
75	0x3dca3976	0.09874241
76	0xbd7f67e7	-0.06235495
77	0xbd9d80b7	-0.07690566
78	0xbe26ee37	-0.16301809
79	0x3e0402a8	0.12891638
80	0x3ec272a2	0.37978083
81	0xbe893d34	-0.26804507
82	0x3d94d532	0.07267226
83	0xbdc6c372	-0.09705247
84	0xbdbc0c32	-0.091820136
85	0x3e6ef856	0.2333692
86	0x3dd323f5	0.10309593
87	0xbd6366ab	-0.055517834
88	0x3e91e0d2	0.28491837
89	0xbdac5f54	-0.0841662
90	0xbdf85352	-0.12125267
91	0xbe64d91e	-0.22348449
92	0x3ef34ce4	0.475196
93	0xba7a3874	-0.00095451553
94	0xbdde8e50	-0.10866988
95	0xbd3b5da2	-0.045743592
96	0x3e5ffa6e	0.21872875
97	0xbda1c0a0	-0.078980684
98	0x3d6034b2	0.054737754
99	0x3a83f826	0.0010068461
100	0xbd92626e	-0.0714768
101	0x3ea9d172	0.33167607
102	0xbf0da923	-0.5533621
103	0xbdc61061	-0.09671093
104	0x3f02231e	0.50834835
105	0x3eb86e76	0.36021775
106	0xbe5f0e19	-0.21782722
107	0x3d7b0a5b	0.061289173
108	0x3f14ce65	0.58127433
109	0xbe000fff	-0.12506102
110	0x3e81e5df	0.2537069
111	0xbd8cb506	-0.06870465
112	0xbdb44c62	-0.08803631
113	0xbf2e9b0d	-0.6820534
114	0x3de3ed18	0.111292064
115	0x3e0cb2bf	0.13740061
116	0x3da3cfdf	0.07998633
117	0x3e276ec2	0.16350845
118	0xbd75da14	-0.06002243
119	0xbcafd632	-0.021464441
120	0x3e74456d	0.23854609
121	0xbe07ec02	-0.13273624
122	0xbe1a5d49	-0.15074648
123	0xbc815a41	-0.015790107
124	0xbcdfb91f	-0.027309952
125	0x3d935e9e	0.07195781
126	0x3e02ddb4	0.12779886
127	0x3d7f580b	0.062339824
128	0x3cdb137d	0.026742691
129	0x3d4fc062	0.05072058
130	0x3d86f8e7	0.06590443
131	0x3e3da4d2	0.18519905
132	0x3d535b34	0.05160065
133	0xbd9a7220	-0.07541299
134	0xbda36a16	-0.07979219
135	0xbde7ba2d	-0.11314807
136	0x3e331c4a	0.1749126
137	0x3e0c1cde	0.13682887
138	0xbe080052	-0.13281372
139	0x3ded1c83	0.11577704
140	0xbeeca584	-0.46220028
141	0x3dfcad97	0.12337797
142	0x3e3a1c69	0.181749
143	0xbd600bf1	-0.05469889
144	0x3c959d79	0.018263565
145	0x39a68129	0.0003175822
146	0x3c73573c	0.014852341
147	0xbed2acce	-0.41147465
148	0xbddb2a98	-0.107014835
149	0x3da7fd09	0.082025595
150	0xbd6878b7	-0.056755748
151	0x3e08ea9a	0.13370743
152	0xbf9bfdc9	-1.2186824
153	0xbf036118	-0.5132003
154	0x3dff019e	0.1245148
155	0xbe10a98b	-0.14127176
156	0x3e0e99ef	0.13925909
157	0xbee7141d	-0.45132533
158	0x3d69c4ef	0.057072576
159	0xbf2ce8d3	-0.6754276
160	0x3e43c12c	0.19116658
161	0x3c8fd3c8	0.01755704
162	0xbdabbd57	-0.08385723
163	0x3e473825	0.19455011
164	0x3e641980	0.22275352
165	0xbcfc2a0b	-0.030781766
166	0x3e0afd02	0.13573077
167	0xbec8b693	-0.39201793
168	0xbea18e11	-0.315537
169	0x3d9c7531	0.0763954
170	0x3d4f89d8	0.050668567
171	0x3eb8d17c	0.36097324
172	0x3e8e0217	0.2773597
173	0x3dc12ee4	0.09432772
174	0x3e134455	0.14381535
175	0x3e89fc63	0.26950368
176	0x3e1de916	0.15420946
177	0x3ee177cc	0.4403671
178	0x3e666c73	0.22502308
179	0x3d05c483	0.03265811
180	0x3e22682e	0.15860054
181	0x3dc6b326	0.097021386
182	0x3e5b40a0	0.21411371
183	0xbe4299da	-0.19004002
184	0x3e0f02bf	0.13965891
185	0x3ee36589	0.44413403
186	0xbc8ce042	-0.017196778
187	0x3ccb544b	0.024820467
188	0x3cf22770	0.02955982
189	0x3d1c85e7	0.038213637
190	0x3dd5a34c	0.10431537
191	0x3c6c9507	0.014439828
192	0xbeb65f1d	-0.3561944
193	0xbe8da32c	-0.27663553
194	0x3e57b29a	0.21064225
195	0xbeabf9fe	-0.33589166
196	0xbe71d397	-0.23615871
197	0xbe5c9b97	-0.21543728
198	0x3ca6d73f	0.02036631
199	0x3b8927b5	0.0041856417
200	0xbeb9859d	-0.3623475
201	0xbcd46cc2	-0.025930766
202	0x3e8d56e4	0.27605355
203	0x3e897b6f	0.26851985
204	0x3d161b11	0.036646906
205	0xbe64a551	-0.22328688
206	0xbe70ee5e	-0.2352843
207	0x3e7ab9c9	0.24484934
208	0x3eac1555	0.33610025
209	0x3dadc22a	0.084842995
210	0x3f4bcb85	0.7960742
211	0x3e13e557	0.14442955
212	0xbf21388f	-0.62976927
213	0x3eb4d137	0.35315868
214	0x3d0ff5a2	0.035146363
215	0x3ea9ac9f	0.33139512
216	0x3e3790b2	0.1792629
217	0x3d98c4f6	0.07459442
218	0x3deed336	0.11661379
219	0x3d58b164	0.052903548
220	0x3d630ba4	0.055431023
221	0xbe356d5c	-0.17717499
222	0x3dee4ad9	0.1163537
223	0x3c9682bd	0.018372888
224	0x3d8a52fa	0.06754108
225	0x3df9f182	0.12204267
226	0x3c0e3979	0.008680695
227	0x3d93c1cc	0.07214698
228	0xbdd3c0b6	-0.10339491
229	0xbdfbfa1c	-0.12303564
230	0x3e1b53d0	0.1516869
231	0x3da8995b	0.08232375
232	0x3d4a304c	0.049362466
233	0x3f08a2c5	0.53373367
234	0x3e3ad4b6	0.18245205
235	0xbd288916	-0.04114636
236	0x3efd6f79	0.4949911
237	0x3d1b69df	0.037942763
238	0xbe31cecd	-0.17364044
239	0xbc077939	-0.008268648
240	0xbc622244	-0.013802115
241	0xbe432441	-0.19056799
242	0xbe121edf	-0.14269589
243	0x3d2b3d5f	0.041806575
244	0x3e368df1	0.17827584
245	0x3d095eb8	0.033537596
246	0x3c8387a3	0.016055888
247	0xbd11ff9c	-0.03564416
248	0x3debce57	0.115139656
249	0x3d9a126e	0.075230464
250	0xbd488af3	-0.048960637
251	0x3d1aa4dc	0.03775488
252	0x3d4d7f93	0.050170492
253	0xbe71ee15	-0.23625977
254	0xbec4ec01	-0.38461307
255	0xbf0e2e70	-0.5553961

teacher.model.0.bias f4 [40]
0	0xbf6d0f67	-0.9260163
1	0xbf2c3618	-0.6727004
2	0xbf12082b	-0.57043713
3	0xbe05fd8e	-0.13085005
4	0xbf83ef32	-1.0307372
5	0xbf56777c	-0.8377607
6	0xbf41b8e8	-0.7567277
7	0xbec24e1c	-0.37950218
8	0xbedbf362	-0.42959124
9	0xbeba2c4c	-0.3636192
10	0xbf20f8a4	-0.62879395
11	0xbf820fc5	-1.0161062
12	0xbe6649f3	-0.22489147
13	0xbef637ad	-0.48089352
14	0xbf153f42	-0.5829965
15	0xbf82f79f	-1.0231818
16	0xbf31080a	-0.6915289
17	0xbe6aa14e	-0.22913095
18	0xbf105a4e	-0.56387794
19	0xbf2deb4f	-0.6793718
20	0xbf849bf9	-1.0360099
21	0xbf9a8bb5	-1.2073885
22	0xbec05628	-0.37565732
23	0xbe616d74	-0.2201441
24	0xbf1c67bd	-0.6109579
25	0xbf03a42f	-0.514224
26	0xbe9f8d31	-0.31162408
27	0xbde9e8ac	-0.11421332
28	0xbeb66152	-0.35621125
29	0xbf32b153	-0.69801825
30	0xbea6d746	-0.32586116
31	0xbf33938d	-0.7014702
32	0xbf2e9807	-0.68200725
33	0xbf5065e7	-0.8140549
34	0xbef1d7f2	-0.47235066
35	0xbf866484	-1.0499425
36	0xbf095694	-0.5364773
37	0xbf0e2ba5	-0.55535346
38	0xbf2dce1d	-0.6789263
39	0xbf1b93cf	-0.60772413

teacher.model.3.weight f4 [25, 40]
0	0xbcde7064	-0.027153201
1	0x3c039605	0.008031373
2	0xbdf54360	-0.119757414
3	0x3c26bf7e	0.010177491
4	0xbf17d8a8	-0.59314966
5	0x3d9213be	0.07132672
6	0xbcfa9600	-0.030589104
7	0xbc8014a7	-0.015634848
8	0xbd3fa158	-0.04678473
9	0xbcc9fa49	-0.024655478
10	0x3c6f0f21	0.014591009
11	0xbecd7923	-0.40131482
12	0xbcb419d5	-0.021984974
13	0xbd587fe9	-0.05285636
14	0xbbf21480	-0.0073876977
15	0xbf4dcba4	-0.80388856
16	0x3c9c5798	0.019084737
17	0xbfa73503	-1.3063053
18	0xbf5c3fb4	-0.86034703
19	0xbf0bfcff	-0.54682916
20	0xbcda25be	-0.026629325
21	0xbd2aaccc	-0.0416687
22	0xbcf0754b	-0.029352805
23	0xbde0fbf9	-0.1098556
24	0x3d98a5dc	0.0745351
25	0xbc50ca1c	-0.012743499
26	0xbf6a94ea	-0.91633475
27	0xbf9d0793	-1.2267936
28	0xbfb03e6b	-1.3769048
29	0xbd6438cb	-0.055718224
30	0xbef44a02	-0.47712713
31	0xbf7d14af	-0.98859686
32	0xbd167662	-0.036733992
33	0x3c734c61	0.014849753
34	0xbf588ca6	-0.8458961
35	0xbf596376	-0.8491739
36	0x3c8582d1	0.01629773
37	0x3dabdd97	0.08391874
38	0xbf813cbb	-1.0096658
39	0xbef63c95	-0.48093095
40	0x3d873aa9	0.066029854
41	0xbf4e97de	-0.8070048
42	0x3e8660eb	0.26245818
43	0xbf284358	-0.6572776
44	0x3de0e1f0	0.10980594
45	0xbf0ffed6	-0.56248224
46	0xbf3fbe9f	-0.7490024
47	0xbf4692c1	-0.7756768
48	0x3c0d20b9	0.008613759
49	0xbf176a0b	-0.59146184
50	0x3d252674	0.040319875
51	0x3d89b052	0.067230836
52	0xbfbcb639	-1.474311
53	0xbed2f3cc	-0.41201627
54	0xb9cc7236	-0.00038995006
55	0x3cc5e306	0.024156105
56	0x3cf82527	0.030291153
57	0xbc9cdbf1	-0.019147845
58	0x3ca04563	0.019564336
59	0xbf1facd0	-0.62373066
60	0xbe9b2ac0	-0.30306053
61	0xbeb6f8d2	-0.3573671
62	0xbedd4cd3	-0.43222675
63	0xbf04b95c	-0.51845336
64	0x3c346e7d	0.011012671
65	0xbf542980	-0.82875824
66	0x3d07a2cc	0.03311424
67	0x3e9e8787	0.30962774
68	0xbd82c683	-0.06385519
69	0xbeed1554	-0.46305335
70	0xbdb8d524	-0.09025028
71	0x3aa455f9	0.0012537829
72	0xbf3529e9	-0.70767075
73	0xbf2e73a2	-0.6814519
74	0x3e8ef4e6	0.27921218
75	0x3cd61132	0.026131246
76	0xbf500c08	-0.8126836
77	0x3e2988f0	0.16556144
78	0xbc85aa07	-0.016316427
79	0xbe1182c8	-0.14210045
80	0x3cb38edb	0.021918705
81	0xbef8b1a7	-0.48573038
82	0x3e4d9593	0.2007659
83	0x3cf6e46b	0.030138215
84	0x3e7cbb5f	0.24680851
85	0xbf12a8a9	-0.57288605
86	0xbff74236	-1.9317081
87	0x3ccd2a0f	0.02504447
88	0x3ef7741d	0.48330775
89	0xbdc1cddf	-0.09463095
90	0xbcb1258a	-0.021624345
91	0x3dc72575	0.09723941
92	0xbe06f981	-0.13181116
93	0xbee02d98	-0.43784785
94	0x3d63f525	0.05565371
95	0x3e8c21d5	0.27369562
96	0xbb2a6006	-0.0025997176
97	0x3d0ed6a4	0.034872666
98	0x3dd5673e	0.104200825
99	0xbef29d31	-0.47385553
100	0xbf8fa661	-1.122265
101	0xbdbe1511	-0.09281362
102	0xbf755630	-0.95834637
103	0xbd78adf7	-0.06071278
104	0x3dc42b22	0.095785394
105	0xbfe9bf7e	-1.8261564
106	0x3c967ba1	0.018369498
107	0x3e86f66c	0.2635988
108	0xbb84113f	-0.004030376
109	0xbe11f7b7	-0.14254652
110	0x3dc9051c	0.09815428
111	0x3d3579ab	0.044305485
112	0xbf29d7d6	-0.66344965
113	0xbfbfad01	-1.4974672
114	0x3e8d41a9	0.27589157
115	0x3ea60bf6	0.32431
116	0xbf318406	-0.69342077
117	0x3d95e9ea	0.07320006
118	0x3dba54d5	0.09098212
119	0x3d33b522	0.043873914
120	0xbcf53f4b	-0.029937407
121	0xbebf8b99	-0.37411192
122	0x3ea3b337	0.31972668
123	0xbbbb908f	-0.00572402
124	0x3e913248	0.28358674
125	0xbf1a8089	-0.6035238
126	0xbf8b11d4	-1.0864816
127	0x3b080d33	0.002075982
128	0x3e6f01fc	0.233406
129	0xbe6a68dc	-0.22891563
130	0x3a702e77	0.0009162197
131	0x3dcb5a08	0.099292815
132	0xbf8828bd	-1.0637432
133	0xbf7ad35b	-0.9797875
134	0x3cd402e9	0.025880294
135	0x3e30d856	0.17270026
136	0x3ce3831c	0.027772479
137	0xbcd1c2c8	-0.025605574
138	0x3d9ce93d	0.07661674
139	0xbf284651	-0.65732294
140	0xbf337095	-0.7009366
141	0xbe810684	-0.25200284
142	0xbe091e37	-0.13390432
143	0x3c78114c	0.015140843
144	0x3d8e21a4	0.0694001
145	0xbf8a5598	-1.0807371
146	0x3d546bae	0.051860504
147	0x3eea2dd6	0.45738095
148	0xbd2e4113	-0.04254253
149	0xbf33ec12	-0.7028209
150	0x3d469025	0.04847731
151	0x3c04246c	0.008065324
152	0xbe633ecd	-0.22191925
153	0xbf680c5e	-0.9064387
154	0xbd4e684a	-0.050392427
155	0x3ea4bb7a	0.32174283
156	0xbf35d7dd	-0.71032506
157	0x3d0e5272	0.034746595
158	0x3db4343f	0.08799028
159	0x3e84cd9f	0.25938126
160	0x3ccff999	0.025387572
161	0xbdcfbcbb	-0.10143419
162	0xbf665ed4	-0.89988446
163	0xbde38eac	-0.11111197
164	0xbf104c70	-0.56366634
165	0xbe8a7ceb	-0.2704843
166	0x3eed5845	0.46356407
167	0xbd8f90ff	-0.07010078
168	0xbed58a2c	-0.4170698
169	0x3ccfefb9	0.025382863
170	0xbd91d050	-0.071198106
171	0xbdaf29ce	-0.085528955
172	0xbd129052	-0.035782166
173	0xbd11b124	-0.035569325
174	0xbf6b6639	-0.91952854
175	0xbe7bc48e	-0.24586698
176	0x3b433167	0.0029784085
177	0xbc96e04e	-0.018417504
178	0xbd529f17	-0.05142125
179	0xbe6d9e8a	-0.23205009
180	0x3f0b7485	0.5447467
181	0x3e5a01b2	0.21289709
182	0xbb86c1a0	-0.0041124374
183	0x3e34c32d	0.17652579
184	0xbe36f96d	-0.17868586
185	0x3d408aac	0.047007248
186	0xbebba41c	-0.36648643
187	0xbe8be5c4	-0.27323735
188	0x3dd00c03	0.10158541
189	0x3d9f69dd	0.07783864
190	0xbd8bda72	-0.068287745
191	0xbf4cfa57	-0.8006949
192	0x3d53ce4b	0.05171041
193	0xbbb2c9d3	-0.005456188
194	0x3e1da236	0.1539391
195	0xbdc2f1d7	-0.095187835
196	0xbd92fd55	-0.071772255
197	0xbee169eb	-0.44026121
198	0xbd04ccd3	-0.032421898
199	0xbe82f995	-0.2558104
200	0x3c5f6f9b	0.013637449
201	0x3c1a4569	0.009415963
202	0xbf0c5d20	-0.548296
203	0x3cb0a949	0.021565096
204	0xbf07d3dc	-0.53057647
205	0xbe80bf97	-0.2514617
206	0x3d29a7c6	0.041419767
207	0xb99a43ff	-0.0002942383
208	0xbeb12368	-0.34597325
209	0x3c22b8b2	0.00993173
210	0xbc18fb98	-0.009337328
211	0xbeda14bb	-0.4259394
212	0x3ce01be6	0.027357053
213	0x3cd66fee	0.02617642
214	0xbf93cf18	-1.1547575
215	0xbe03a97d	-0.12857623
216	0x3c8cd436	0.017191034
217	0xbefb1f5e	-0.4904737
218	0xbf235704	-0.6380465
219	0xbd1733c0	-0.036914587
220	0xbcb6f564	-0.022333808
221	0x3cef9f2b	0.029250702
222	0x3c4edba1	0.012625606
223	0x3d9733b3	0.07382908
224	0xbe260242	-0.16211799
225	0x3c39958e	0.0113271605
226	0xbf8137c3	-1.0095142
227	0xbfb5e1b3	-1.4209503
228	0xbf58297c	-0.844383
229	0x3e059053	0.13043337
230	0xbea75ffb	-0.32690415
231	0xbf93a216	-1.153384
232	0x3d3efc81	0.046627525
233	0x3d8d02a3	0.068852685
234	0xbf7b9df6	-0.98287904
235	0xbede9282	-0.43471152
236	0x3bd2e410	0.0064358786
237	0xbc6d5d93	-0.014487642
238	0xbf3b1c7a	-0.73090327
239	0xbef4dce1	-0.47824767
240	0xbf987559	-1.1910812
241	0x3d3f5867	0.046715166
242	0xbf5ca354	-0.8618672
243	0xbd194b62	-0.037425406
244	0xbf5af821	-0.85534865
245	0x3e6582a4	0.22413117
246	0xbdc9693b	-0.09834524
247	0xbd8123fb	-0.06305691
248	0xbf82732f	-1.0191401
249	0xbe0b05fa	-0.13576499
250	0xbfa70065	-1.3046995
251	0xbf047be4	-0.5175154
252	0x3ced6feb	0.02898403
253	0x3e8007a6	0.25005835
254	0xbdd50e18	-0.10403079
255	0xbf83f445	-1.030892

teacher.model.3.bias f4 [25]
0	0x3e5fbc33	0.21849136
1	0x3e41187a	0.18856993
2	0x3cd67e46	0.026183259
3	0x3ded70ce	0.115937814
4	0x3d8fd5db	0.070232116
5	0x3e1446db	0.14480154
6	0x3e644bc4	0.22294527
7	0x3e27c66d	0.16384287
8	0x3cf441bb	0.029816499
9	0x3bad2bec	0.005284777
10	0x3e1b7fbd	0.15185447
11	0x3e5431e9	0.20722164
12	0x3db0a8ec	0.08625969
13	0x3dced43c	0.10099074
14	0x3de611fc	0.11233899
15	0xbe2e7c9a	-0.17039719
16	0x3ddc9070	0.10769737
17	0x3e561d39	0.20909585
18	0x3e575320	0.21027803
19	0x3e02a387	0.12757693
20	0x3e6d2e7f	0.23162268
21	0x3da1c2ed	0.07898507
22	0x3dfc8e22	0.12331797
23	0x3e04d192	0.1297057
24	0xbee64e18	-0.44981456

teacher.model.6.weight f4 [15, 25]
0	0x3e2f33da	0.17109624
1	0xbf92f820	-1.1481972
2	0xbf52af51	-0.8229876
3	0xbf40eb5c	-0.7535913
4	0xbbd759b1	-0.0065719713
5	0x3d9254cd	0.07145081
6	0xbf0df014	-0.55444455
7	0x3cfa0bc3	0.030523187
8	0xbf17926d	-0.59207803
9	0xbbbf9560	-0.0058466643
10	0xbf416ac9	-0.75553566
11	0xbed16d72	-0.40903813
12	0x3c44709f	0.011989742
13	0xbf78f709	-0.97251946
14	0xbfa3c5c2	-1.2794726
15	0xbf049f45	-0.51805526
16	0xbd528e45	-0.05140521
17	0xbecafd38	-0.39646316
18	0x3e5148de	0.20437953
19	0x3cf5427e	0.029938933
20	0xbeacaac4	-0.33724034
21	0xbeb213af	-0.34780642
22	0xbdb08ccd	-0.086206056
23	0xbf04aea0	-0.51828957
24	0xbf084c10	-0.5324106
25	0x3e7c54ca	0.2464172
26	0xbf48bc1e	-0.78412044
27	0xbf062c8d	-0.5241173
28	0xbe99d234	-0.30043185
29	0x3d145ca7	0.036221173
30	0x3e1031c6	0.14081487
31	0xbe107196	-0.1410583
32	0x3e58208a	0.21106163
33	0xbec303c6	-0.38088816
34	0xbb25eb8c	-0.0025317399
35	0xbf84fad8	-1.0389051
36	0xbe3ae59b	-0.1825165
37	0x3da3da94	0.08000675
38	0xbfd11832	-1.6335509
39	0xbfa2b6a9	-1.2711993
40	0xbe745f2b	-0.23864429
41	0xbd0581e5	-0.03259458
42	0xbe0a2283	-0.13489728
43	0x3e6a0b4d	0.22855873
44	0x3dd70572	0.104990855
45	0xbe35371f	-0.17696808
46	0xbf521d9a	-0.8207642
47	0xbd639d65	-0.055570025
48	0xbe501f93	-0.20324545
49	0xbee5f387	-0.4491236
50	0xbdb002ec	-0.08594307
51	0x3cfaecb8	0.030630454
52	0xbc7481a3	-0.014923486
53	0x3c70639f	0.014672189
54	0xbef1b31a	-0.47206956
55	0xbf008994	-0.5020993
56	0xbf316257	-0.6929068
57	0xbeeaf8e7	-0.45893022
58	0xbc271835	-0.0101986425
59	0xbf3373f4	-0.70098805
60	0x3d990d7b	0.07473274
61	0xbf213984	-0.62978387
62	0xbf018aad	-0.5060223
63	0x3d3f019d	0.046632398
64	0x3d2c68a6	0.042091988
65	0xbdf24fbf	-0.118316166
66	0xbf339c12	-0.7016002
67	0x39dfc21e	0.00042678503
68	0xbd0ea920	-0.03482926
69	0xbeb5a3be	-0.35476488
70	0x3ba4ad0a	0.0050255107
71	0xbcfa86f3	-0.030581927
72	0xbf1640df	-0.58692735
73	0xba4afdc4	-0.00077435025
74	0xbe3311fa	-0.17487326
75	0x3d8009d3	0.06251874
76	0x3ce7e108	0.028305545
77	0x3c5233db	0.012829746
78	0x3c707085	0.014675264
79	0xbf2353df	-0.6379985
80	0xbee81f0f	-0.45336196
81	0xbfa24f54	-1.2680459
82	0xbec40b35	-0.382898
83	0x3bc2da8d	0.0059464634
84	0xbf4b44d2	-0.79401886
85	0x3d815b69	0.06316263
86	0xbf89617a	-1.0732872
87	0xbf0698b6	-0.5257677
88	0xbc74de91	-0.014945642
89	0x3cfc41fc	0.030793183
90	0xbe360979	-0.17777051
91	0xbfa34bf6	-1.2757556
92	0xbba936aa	-0.005163987
93	0x3e04ffd5	0.12988217
94	0xbea9a7bb	-0.3313578
95	0x3c3bcea4	0.011462841
96	0xbccf0817	-0.025272412
97	0xbf79a5aa	-0.9751841
98	0x3c796ac1	0.015223206
99	0xbec91edc	-0.39281356
100	0x3d6a392f	0.05718344
101	0xbfc67e9f	-1.5507392
102	0xbfa7d9b0	-1.3113308
103	0xbfa633fd	-1.2984616
104	0xbc4015b3	-0.0117239235
105	0xbced1a18	-0.028943107
106	0xbf8b6b32	-1.0892088
107	0xbd04db79	-0.032435868
108	0xbf72fe4d	-0.9491928
109	0x3b5902a7	0.0033113153
110	0xbf437ebe	-0.7636527
111	0xbf85cdf8	-1.0453482
112	0xbccde820	-0.0251351
113	0xbf4033d1	-0.75079066
114	0xbfa5bf75	-1.2949053
115	0xbf394d2e	-0.7238339
116	0xbdc76709	-0.09736449
117	0xbf913e75	-1.1347185
118	0x3d2c7e3c	0.042112574
119	0xbd0338d2	-0.03203661
120	0xbf8e8d36	-1.1136844
121	0xbec686a2	-0.38774592
122	0xbe34e3d3	-0.17665033
123	0xbfb3938e	-1.4029405
124	0xbf043382	-0.51641095
125	0x3df2ab7d	0.11849115
126	0xbff9be9f	-1.9511298
127	0xbf8795ca	-1.0592587
128	0xbf9580f4	-1.1679978
129	0xbac98950	-0.0015376005
130	0xbc8ce87a	-0.017200697
131	0xbf2ed8c1	-0.6829949
132	0xbd40c946	-0.04706695
133	0xbf4653bd	-0.77471524
134	0xbba0ef65	-0.0049113506
135	0xbf0ce70f	-0.5504007
136	0xbf1275e3	-0.5721113
137	0xbcdc5338	-0.02689515
138	0xbee2741d	-0.44229212
139	0xbf95947e	-1.1685941
140	0xbe927705	-0.2860643
141	0xbdc1715f	-0.09445452
142	0xbf25c3c8	-0.64751863
143	0x3db667f0	0.08906543
144	0x3b8e23f0	0.00433778
145	0xbf400abb	-0.75016373
146	0xbe4a80e7	-0.19775735
147	0xbefeb5cb	-0.49748072
148	0xbf617af4	-0.88078237
149	0xbefba84a	-0.49151832
150	0xbb8328d3	-0.0040026694
151	0x3d8f7a45	0.07005743
152	0x3d11debf	0.035612818
153	0x3c82e0c7	0.015976323
154	0xbf760fb2	-0.961177
155	0xbf05ca97	-0.5226225
156	0xbe09c4bc	-0.13453954
157	0xbf064d88	-0.52462053
158	0x3d6c8358	0.057742447
159	0xbf435410	-0.76300144
160	0x3d85bcc1	0.065301426
161	0xbe2e4b04	-0.17020804
162	0xbf04db46	-0.51897085
163	0x3e2b187b	0.16708557
164	0x3ca64e41	0.020300986
165	0xbda07a66	-0.07835846
166	0xbec6ec81	-0.38852313
167	0x3c5a32fe	0.013317822
168	0xbd5329ce	-0.05155354
169	0xbe76dfbf	-0.2410879
170	0x3d06d629	0.032919083
171	0x3dec7151	0.11545051
172	0xbebde7fd	-0.37091056
173	0xbb9aa14f	-0.0047189365
174	0xbe084ed4	-0.1331132
175	0x3e8fd865	0.28094783
176	0xbf3377a5	-0.7010444
177	0xbf2e87f6	-0.6817621
178	0xbeec4da0	-0.46152973
179	0x3ca951f8	0.020668969
180	0x3e389757	0.18026482
181	0xbd53dd91	-0.051724974
182	0x3e2d6ac6	0.16935262
183	0xbf09cdf8	-0.5382991
184	0x3cbc25ef	0.022967307
185	0xbf162a5d	-0.5865839
186	0xbe0bf6b3	-0.13668327
187	0x3e0ff1d9	0.14057101
188	0xbfb55b57	-1.41685
189	0xbf888080	-1.0664215
190	0xbe371c8b	-0.17881982
191	0xbc4f3d09	-0.012648829
192	0xbe267c86	-0.1625844
193	0x3e89a6ff	0.2688522
194	0x3df946bc	0.12171695
195	0xbddf6fd6	-0.10910003
196	0xbf1ee779	-0.6207195
197	0xbd8ca0f0	-0.06866634
198	0xbeade8c7	-0.33966658
199	0xbe87ca76	-0.26521653
200	0x3e6de623	0.23232321
201	0xbf330236	-0.6992525
202	0xbf1f5375	-0.6223672
203	0xbe95920a	-0.2921298
204	0xbc1cd45a	-0.009572113
205	0x3df9fc46	0.122063205
206	0xbdfe657a	-0.12421699
207	0x3e318cf1	0.17338921
208	0xbef4b249	-0.4779227
209	0x3cbb12d7	0.022836132
210	0xbf5abc6f	-0.85443777
211	0xbe384d0d	-0.17998143
212	0x3e0352c9	0.12824549
213	0xbfc2dde0	-1.5223961
214	0xbfa2d1e2	-1.2720301
215	0x3b1f0404	0.0024263868
216	0xbd2f1d97	-0.04275283
217	0xbe2347d3	-0.15945368
218	0x3e2b8c04	0.1675263
219	0x3db58adc	0.08864376
220	0xbe4069a7	-0.18790303
221	0xbf497cbd	-0.7870596
222	0xbddef666	-0.108868405
223	0xbe68dc09	-0.22740187
224	0xbed16d01	-0.40903476
225	0xbe2bc3f0	-0.16773963
226	0x3da2e996	0.07954709
227	0x3d79c9c3	0.06098343
228	0x3c916c27	0.017751766
229	0xbeb7ec34	-0.35922396
230	0xbf4f8e15	-0.81076175
231	0xbed235dc	-0.41056716
232	0xbf5e113e	-0.8674506
233	0x3d82dad2	0.06389393
234	0xbe39f1b9	-0.18158616
235	0x3dc67744	0.09690717
236	0x3dd65ad1	0.104665406
237	0xbf31344d	-0.6922043
238	0x3e2f9c43	0.17149453
239	0x3e0b59d8	0.13608491
240	0xbd872365	-0.06598548
241	0xbd1d8d1c	-0.03846465
242	0x3d0fe621	0.035131577
243	0xbec98fbe	-0.3936748
244	0xbec6ed08	-0.38852715
245	0xbc64a4dc	-0.013955321
246	0x3e778a1a	0.24173775
247	0xbe942c99	-0.28940275
248	0x3c936832	0.01799402
249	0xbd8b9c48	-0.06816918
250	0x3e66b397	0.22529446
251	0xbf725f76	-0.9467691
252	0xbf366835	-0.7125276
253	0xbf1ae556	-0.6050619
254	0x3bc274d2	0.005934336
255	0x3dd1e7d2	0.10249294

teacher.model.6.bias f4 [15]
0	0x3ebc1914	0.36737883
1	0x3ecd6341	0.40114787
2	0x3e9e036f	0.30861995
3	0x3e7607e3	0.24026446
4	0x3e8cfde1	0.27537444
5	0x3eaa5826	0.33270377
6	0x3e9daecb	0.3079742
7	0x3ed75c95	0.42062822
8	0x3ec3740a	0.38174468
9	0x3eca41ae	0.39503235
10	0x3eec5a2a	0.4616254
11	0x3ed89010	0.4229741
12	0x3f0ebd76	0.55757844
13	0x3ec2876f	0.37993953
14	0x3ec36825	0.38165393

teacher.model.9.weight f4 [1, 15]
0	0x3f0df306	0.5544895
1	0x3eb10140	0.34571266
2	0xbeb8165f	-0.35954568
3	0xbefce891	-0.49396184
4	0x3f851e73	1.0399917
5	0x3f4f397b	0.80947083
6	0xbe8b25e2	-0.2717734
7	0x3ea3d7ce	0.32000583
8	0x3ebf1ea5	0.37328067
9	0xbe4eb50c	-0.20186251
10	0x3e96894c	0.29401624
11	0xbe4a641e	-0.19764754
12	0x3e4788fe	0.19485852
13	0xbe5e04b3	-0.2168148
14	0xbe671ff1	-0.22570778
