pretrained/adult_pretrained_demographic.ckpt (torch, 98986 bytes, 28 tensors)

student.0.weight f4 [40, 96]
000000 28 46 c4 bc 18 cd 04 3d 15 fc b6 3d 66 41 da 3c
       -0.023959234 0.032422155 0.089347996 0.026642513
000010 22 fe ca 3b 13 07 59 3c 87 bf c4 bd 17 b9 92 bc
       0.006194846 0.0132463155 -0.096068434 -0.017910523
000020 ed c7 f2 3c ce ac 1f 3d d1 04 cb 3c 43 87 62 bd
       0.029636348 0.03898316 0.02478257 -0.055304777
000030 bf cb 47 bc a1 c5 72 3c a5 ce 8f bd a1 12 93 bd
       -0.012194573 0.014817626 -0.07021836 -0.071812876
000040 8f ab 8b bc e1 28 1e 3d 5a 98 8a bd fe 84 92 3d
       -0.017049579 0.038613204 -0.0676734 0.071542725
000050 14 7c 9c bc a0 e3 6d bb b9 b4 9d 3c cc 7c 80 3d
       -0.019102134 -0.0036299005 0.019251214 0.06273803
000060 61 33 de 3b d6 9a bf bd 7d c7 4b bd 3d 4e 26 3d
       0.006781027 -0.093557045 -0.049750794 0.040601958
000070 4c 8d 5e 3d 00 f3 7e 3d 74 eb 81 3d 69 60 52 bd
       0.05433397 0.06224346 0.06343737 -0.051361475
000080 6f cc 88 3c 82 5f c8 bd 28 6d 81 bd 22 b7 c3 bd
       0.016699044 -0.09783842 -0.06319648 -0.09556414
000090 67 42 29 3d ed 28 b7 3c 8b fb 3b 3d d9 94 86 bd
       0.04132309 0.022358382 0.045894187 -0.06571359
0000a0 84 cf 2e 3c 83 9d 63 bd 99 b9 49 bd 83 a7 ce bd
       0.010669593 -0.055570137 -0.049249265 -0.10090544
0000b0 48 bb 01 bd 0c e8 4f bd 08 9f 39 bc df ba 18 bd
       -0.031672746 -0.050758407 -0.01132942 -0.03728759
0000c0 3d 30 44 3d 13 a7 dc 3c 61 92 9a bd fe af 57 bc
       0.047897566 0.026935136 -0.07547451 -0.013164518
0000d0 2f ae 0d 3d f9 8c ce 3d af 78 8d bd da 4e fd 3c
       0.034589943 0.10085482 -0.06907784 0.030921388
0000e0 c7 ff a7 bd cf 92 70 3d b8 0f 81 3d 4b 7c 8d bd
       -0.082030825 0.058733758 0.06301826 -0.069084726
0000f0 17 c4 1f 3d 0f da 51 bc 98 b6 63 ba d6 c3 fe bc
       0.039005365 -0.012808337 -0.00086865714 -0.031099241
000100 8c 4d 30 3d d7 74 42 bd 4b 87 06 3d a8 21 11 bb
       0.043042704 -0.04747471 0.03284387 -0.0022145305
000110 c6 e1 a2 bd 2c b9 b2 bd c0 8e 1e bd 6b 89 8e 3d
       -0.07953219 -0.08726725 -0.038710356 0.06959804
000120 24 c4 8a bd 62 66 7a 3d 02 ac 74 bc 6c 09 1d 3d
       -0.06775692 0.061132796 -0.014933588 0.038339064
000130 f3 f7 cc bc bc 5e 93 3d 49 0e 06 bd 18 6b 82 3d
       -0.025020575 0.071958035 -0.032728467 0.06368083
000140 cf 2d fd bb 7d e1 e2 3b ab 5f aa 3d 07 c7 90 bb
       -0.007726408 0.006923853 0.083190285 -0.004418257
000150 c4 bc c3 bd e3 2d 91 bd c3 0a 50 3d e0 b8 df bc
       -0.095574886 -0.0708883 0.050791513 -0.027309835
000160 be f8 bc bd 9b 2c e3 3c 04 81 46 bd 9b b7 41 3c
       -0.09227131 0.02773123 -0.048462883 0.01182356
000170 6b 5a 1f 3c e2 31 a4 bc 72 88 04 3c af 86 7f 3d
       0.009726147 -0.020043317 0.008089172 0.062384304
000180 aa 4f 56 3c 8f 11 6c 3d f1 e8 b8 bd 3b 8c f6 bc
       0.013080517 0.057633933 -0.09028805 -0.030096164
000190 5d 93 6c bd 46 d2 ec be 71 0b 7a be be 08 23 3e
       -0.057757724 -0.46254176 -0.24418427 0.15921304
0001a0 20 a7 14 3f c7 74 1c be db 3d 0e 3f 56 8f 24 be
       0.5806751 -0.15278922 0.55563134 -0.16070303
0001b0 dc 24 09 bf 7a b5 05 3f 40 15 51 be e4 9f 44 3e
       -0.5357187 0.52230036 -0.20418262 0.19201618
0001c0 d4 09 80 be 52 82 01 bf db 70 3e 3f 72 d8 89 3d
       -0.25007498 -0.5058948 0.74390954 0.06730737
0001d0 78 77 11 3f 51 95 b5 be ee 32 32 3e 35 c7 97 be
       0.5682292 -0.35465482 0.1740224 -0.2964417
0001e0 8f 49 1b 3f e6 ae 08 bf cb 1e ca 3e 3f d3 57 3d
       0.60659117 -0.53391874 0.39476618 0.052691694
0001f0 2c 86 92 be b1 50 8b 3d 5d f8 2a be e4 7f d8 be
       -0.2861799 0.068025 -0.16696306 -0.42285073
000200 47 1a 41 be f9 a1 ed bd 9f 9c 2f bf 21 01 b7 bd
       -0.1885768 -0.116031595 -0.6859836 -0.08935762
000210 3a 4b 54 bf 26 01 af bd e5 a1 70 3e 9a 32 df be
       -0.82927287 -0.08545141 0.23499258 -0.43593293
000220 0a a0 2e 3f c9 2e 95 3e c9 13 63 3f d7 32 15 be
       0.6821295 0.29137257 0.88702065 -0.14570175
000230 26 d8 f8 3e 8e 07 91 be a4 a7 a3 3e 5c e5 9e be
       0.48602408 -0.28326076 0.31963837 -0.31034362
000240 e4 68 2b be db 6a 8a be da 8b db bd 8b e9 05 be
       -0.16739231 -0.2703465 -0.10720034 -0.13077371
000250 1d 4b 8a be 2f 39 b9 bd f7 16 81 be 74 6a c2 3d
       -0.27010432 -0.0904411 -0.25212833 0.094929606
000260 a1 9c a3 3b fa dc cd be 1e 26 5e be 63 69 9f 3e
       0.004993037 -0.40207654 -0.21694228 0.3113509
000270 2b 8d 20 bd 12 b3 5d be 73 65 3b be e6 da 9b 3e
       -0.03919713 -0.21650341 -0.18300419 0.30440444
000280 59 49 33 be 02 de 55 bf a5 8f 9d 3b b2 8f a6 bc
       -0.17508449 -0.8354188 0.0048083835 -0.020332191
000290 ec 90 c9 3d 95 99 4d bf c8 63 8d 3d 2c 62 a0 bd
       0.09842095 -0.8031247 0.069037974 -0.07831225
0002a0 e9 7e 67 bf b9 ea e5 be 59 dc ae bf 12 4b 1b bf
       -0.90428025 -0.44905642 -1.3660995 -0.60661423
0002b0 83 0e c1 be 96 e9 03 be 95 a4 2d 3f 8f bc ae be
       -0.37706384 -0.12882075 0.6782926 -0.34128234
0002c0 95 34 7b bf 91 fc 27 bf c6 78 88 be 7d b2 21 bf
       -0.9812711 -0.6561976 -0.26654643 -0.63162977
0002d0 54 86 04 3b a0 78 8b 3d c9 25 6b 3e 47 ec 0e 3f
       0.0020221667 0.06810117 0.22963633 0.5582928
0002e0 0d 88 e1 3f b4 37 73 be c4 b2 66 bc de 7d a5 3e
       1.7619644 -0.23751718 -0.014080707 0.32322592
0002f0 77 0f 3c bf 67 30 f4 3e a7 37 a5 3e f0 9b b8 bc
       -0.734611 0.47693178 0.32269022 -0.022535294
000300 0d a0 ad bb a6 de f1 3d 6b e5 02 be eb 1c 32 be
       -0.0052986206 0.11810045 -0.12782829 -0.17393844
000310 e4 24 62 be 00 e2 ed 3e c7 f7 c5 bb 6d e0 d1 bd
       -0.22084385 0.46461487 -0.0060415003 -0.10247884
000320 30 6c 7b be 1f 84 08 3f aa f2 49 bf 83 79 8b 3e
       -0.24552989 0.533266 -0.788859 0.27241144
000330 ab 22 18 3c 2c f8 2f 3f 75 fd 32 3f 08 51 e4 3d
       0.009285609 0.68738055 0.69917995 0.11148268
000340 db 7e 20 be 23 17 a5 3e ee 86 14 3f 36 41 09 be
       -0.15673392 0.32244214 0.58018386 -0.13403782
000350 0d 1f fd 3e 54 49 27 be 93 66 f6 3d c5 7a 33 bd
       0.49437752 -0.16336566 0.12031283 -0.043818254
000360 c9 64 f2 3e 59 13 4d 3d 14 cf ce bc 9d cb db 3e
       0.47342518 0.05006728 -0.025245227 0.42928782
000370 c1 3c 5a 3f d1 8c 44 3d 54 47 80 bd a2 b2 ac bd
       0.85248953 0.047985855 -0.06263605 -0.08432509
000380 21 09 5e bc 6c 75 96 3d 68 b0 0c bf 3f 34 93 3d
       -0.013551981 0.07346615 -0.54956675 0.071876995
000390 79 22 25 3f 01 9f 21 bf c1 77 85 3f e6 56 77 be
       0.64505726 -0.63133246 1.0427171 -0.24154243
0003a0 98 61 76 3f 1a 8a 37 3f 34 cc 90 bd da 1e ba 3d
       0.96242666 0.716951 -0.07070199 0.09087916
0003b0 c1 ff dc 3e eb 69 11 3e 18 7e e2 3e 38 22 9d be
       0.43163875 0.14200561 0.44236827 -0.3069017
0003c0 c7 41 ac 3e d8 f4 a1 bd 5e ba ab 3d 76 04 06 bf
       0.33643934 -0.07908028 0.08385156 -0.52350557
0003d0 bd 71 a5 3e a5 c6 6b 3d d7 55 43 bf c8 e1 bb bc
       0.32313338 0.05756249 -0.76302856 -0.02293481
0003e0 ac a1 6b be a9 f9 43 3e 11 35 3c 3d fe ea 37 3e
       -0.23010892 0.19138207 0.045949046 0.17960736
0003f0 6b 0a 39 be cc 7b 32 3d 6e 42 3e bf 65 c5 3e 3d
       -0.1807038 0.043575093 -0.74320114 0.04657497

student.0.bias f4 [40]
000000 f1 2a 1c b9 f3 b2 63 be 42 70 c3 bc d9 a3 af 3d
       -0.00014893316 -0.22236232 -0.02385724 0.08576173
000010 89 0a 5f bd c1 38 9d bd 41 bf e0 3d 24 0b 23 3d
       -0.054453406 -0.076768406 0.10973979 0.039805546
000020 a2 ef be bd 34 86 56 3c 46 4e e1 ba b3 87 76 bd
       -0.0932305 0.01309352 -0.0017189465 -0.060188007
000030 89 86 00 be 15 05 81 bc 27 a2 63 bd 1d ff e7 bc
       -0.12551321 -0.015749494 -0.055574562 -0.02831989
000040 43 48 37 be 9c 8f 4e be d6 8b 3c bd 31 9f ef bd
       -0.1789866 -0.2017197 -0.046031795 -0.11700285
000050 27 45 92 3d 39 20 f1 bd d6 0c eb bc 7d a0 ab 3d
       0.07142096 -0.11773724 -0.028692644 0.0838022
000060 84 ff 9c bd 3a ee 71 bd 12 28 4f 3c 6a e3 8c bd
       -0.07665923 -0.05906508 0.012643831 -0.06879313
000070 91 3b 8d bb f5 a3 14 3d 83 b8 30 bc 23 cb 14 be
       -0.0043100794 0.036289174 -0.0107861785 -0.14530616
000080 f1 9a 72 bd 13 46 2a 3d 87 90 7c bd 0b f0 9c 3d
       -0.059229795 0.041570734 -0.06166127 0.07662972
000090 76 d3 b9 3d 3f 5e 59 bd cf 8c 32 bd a1 76 ad bd
       0.09073536 -0.053068396 -0.043591317 -0.08469892

student.3.weight f4 [25, 40]
000000 d2 3d 34 bc 9b 69 88 be 50 1c 11 3e c3 df a6 3c
       -0.011001067 -0.2664307 0.14170957 0.02037037
000010 9c ce b9 3d 7a bb e0 bb 16 33 ec bd 57 ea 0b 3e
       0.09072611 -0.0068582864 -0.11533181 0.13663612
000020 ca 62 9b be be 15 55 3e ed 9a 21 3e 99 4d 57 be
       -0.30348808 0.20809075 0.15781756 -0.21025695
000030 b4 53 f7 3e 29 6a dd be 53 5f 2e bd 70 11 f2 bd
       0.48306048 -0.43245056 -0.042571377 -0.11819732
000040 32 f7 cb be fc 78 d4 3e ae 40 42 3e 92 d7 61 3e
       -0.39837033 0.41498554 0.18969986 0.2205489
000050 40 91 f7 bd a9 e3 90 3e 56 08 c4 3e 8d db 01 be
       -0.12088251 0.2829869 0.3828761 -0.12681408
000060 91 8a d3 bd 88 4d f4 3e a0 79 75 3e 00 4b 7f 3e
       -0.10329164 0.47715402 0.23972178 0.24930954
000070 3d df cf be 6c aa f7 3d d4 7e b9 3d 35 cf 59 3f
       -0.40600005 0.12093052 0.09057394 0.850818
000080 d7 53 07 3e 75 75 af be de cd b7 be 75 ef b8 be
       0.13215576 -0.342693 -0.35899252 -0.3612019
000090 86 ad 8c be 17 e6 bc 3e 24 95 28 be e6 36 81 3e
       -0.27476138 0.36894295 -0.16463143 0.25237197
0000a0 9f e1 43 3d 70 a8 59 be cd 86 10 3e 29 46 b4 bd
       0.04782259 -0.2125566 0.14113922 -0.088024445
0000b0 51 c3 ca 3d 8b 1e d7 bd 89 1d 99 bd 70 f7 1d be
       0.09900535 -0.105038725 -0.074763365 -0.15426421
0000c0 d2 cb 06 bc b3 d8 ea 3d 0e 3b 3c 3e fe 20 2f be
       -0.0082273055 0.11467113 0.18381903 -0.1710243
0000d0 ae c6 04 3f 75 59 fb be 42 f3 b6 3d e6 78 13 3e
       0.5186566 -0.49091688 0.089331165 0.14401588
0000e0 1f 33 96 be ef 42 2c 3f ed 37 13 3e 76 48 7a 3e
       -0.29335877 0.6728963 0.14376803 0.24441704
0000f0 d8 ea 9d bd 91 83 52 3e c8 4a de 3e 5c 0d d4 bd
       -0.077108085 0.20558001 0.4341643 -0.103541106
000100 8d d9 dc bd 60 b2 18 3f cb f9 0e 3f 96 69 8a 3e
       -0.10783682 0.5964718 0.55849904 0.2703368
000110 b6 08 2f 3e 91 2c c4 bc 8f 7a 4b 3e 8d 13 f7 3e
       0.17093167 -0.023947032 0.19870971 0.48257104
000120 7e fc df 3d b4 8d dc be 76 a6 08 bf 8a 5a 90 be
       0.10936831 -0.4307686 -0.53379 -0.28194076
000130 58 71 6e be f2 07 bf 3e 58 56 9b bd e1 27 53 3e
       -0.23285425 0.3731075 -0.07584828 0.20620681
000140 fe c1 1f 3e 29 7e e2 3d 2a 24 96 be 27 44 b0 bd
       0.15601346 0.110592194 -0.29324466 -0.08606749
000150 ea c7 59 be 4e 70 85 bd 76 4f e0 be aa 2a 1f 3e
       -0.21267667 -0.06515561 -0.43810624 0.15543619
000160 c0 95 d4 3c 96 73 aa be e3 bb 4f bd a8 2c 18 3f
       0.025950313 -0.3329131 -0.050716292 0.5944314
000170 f0 02 b9 be e1 78 91 3e b8 a6 e9 bc ef 70 c8 3c
       -0.36135054 0.28412536 -0.02852188 0.024467913
000180 f9 bc c3 3d 07 cd 8f be fc 38 fd bc 13 a0 9c be
       0.09557528 -0.2808611 -0.030910961 -0.30590877
000190 d5 df 0a bd d2 ae a7 3c 02 b1 df be 4a 47 ce 3d
       -0.03390487 0.020469103 -0.43689734 0.10072191
0001a0 be bb 0d be 8f 70 a6 bc b4 0c 4b be 10 3f 50 be
       -0.13841149 -0.020317344 -0.19829065 -0.20336556
0001b0 fb 8e ca bd 3e 48 f5 bd 28 17 11 3d c8 16 2d bd
       -0.098905526 -0.1197667 0.035422474 -0.042258054
0001c0 a6 05 57 3d 1d b4 49 3e b0 a2 a2 3d 49 ec 57 3f
       0.05249562 0.19697614 0.079411864 0.8434492
0001d0 11 6e bf bd a5 fa 21 bd 49 50 48 3d f0 fa 04 3f
       -0.093471654 -0.039545674 0.04890469 0.519454
0001e0 36 08 8a 3d bb 79 cb 3d ca 22 8a bc 1d 9e 0f 3e
       0.06739847 0.099353276 -0.016862292 0.14025159
0001f0 3d 06 22 be 9f e6 f2 3d 6c 05 8c be 35 4f f5 bd
       -0.15822692 0.11860394 -0.27347887 -0.11977998
000200 af 4f 61 3d 63 27 10 be 5f 47 16 3e ad b0 3a 3f
       0.055007633 -0.14077525 0.14675663 0.72925836
000210 d8 1e 5a bf f0 49 ad 3e ea 01 51 bd 88 a0 32 bd
       -0.85203314 0.33845472 -0.051027216 -0.043610126
000220 82 19 07 3e a0 28 2a bf e6 9a 28 3d ed d0 ab bd
       0.13193324 -0.6646824 0.041163348 -0.08389459
000230 f1 df 30 bc bd 25 82 bd a2 55 4a bf b5 0b 5c bc
       -0.010795579 -0.06354854 -0.79036915 -0.013430526
000240 16 70 9b 3d ae 7b 8b bd 04 70 cc be c7 f4 c2 be
       0.07589738 -0.068106994 -0.3992921 -0.38077375
000250 26 c1 8e be 9b ac 93 bd cd f0 ef 3d 57 69 07 be
       -0.27881736 -0.07210656 0.11715851 -0.13223778
000260 b4 e5 2b 3d 84 cd 83 3e 85 a3 88 3d d7 d9 54 3f
       0.04196711 0.25742733 0.06671814 0.831449
000270 4c 03 30 3e 25 da b2 be f8 43 b5 3d 23 3c dc 3e
       0.17188758 -0.34932056 0.08850855 0.4301463
000280 1b 48 5f bd 6e a4 d3 be a7 07 31 3e d9 5c 0c 3e
       -0.054512125 -0.41336387 0.17288075 0.13707294
000290 5a aa df 3d a6 81 21 3e e6 bc 1f bd 0d fe be 3d
       0.10921164 0.15772113 -0.038998507 0.093258
0002a0 04 d1 7c bd f4 c1 9d 3c 72 59 95 3d 88 df 23 be
       -0.06172277 0.019257523 0.07292451 -0.16003239
0002b0 19 fc ef 3e 96 f2 de be da 55 15 be 7b 90 a8 3d
       0.46872023 -0.43544453 -0.14583531 0.082306825
0002c0 5b 99 59 be 80 64 db 3e 39 37 06 3e 6a 9f 85 3e
       -0.21249907 0.42850113 0.13107003 0.26098186
0002d0 92 27 11 bd 37 1c 2f 3e 5a 8b 16 3f 15 eb b5 bd
       -0.035438128 0.17100607 0.58806384 -0.08882729
0002e0 a1 49 fc bd cf 58 1c 3f 45 2c 33 3e b3 fc 53 3e
       -0.12318731 0.6107301 0.17497356 0.20701866
0002f0 4a f5 0e bf 3c e5 eb bd 10 69 3e 3e 50 0c 1f 3f
       -0.5584303 -0.11518332 0.18594766 0.6212816
000300 21 9a 11 3e bc 84 d4 be 15 e9 90 be 09 48 85 be
       0.14218952 -0.41507518 -0.28302827 -0.2603152
000310 27 06 0d bf b0 88 b0 3e c1 e0 cb bd 32 56 61 3e
       -0.5508751 0.34479284 -0.09954978 0.22005537
000320 74 3e b7 bc 1a 8c 8e be 6e 9a 3f 3e 1f 5f ca 3d
       -0.022368647 -0.27841264 0.18711254 0.09881424
000330 d6 6e 3b 3d 77 d8 1f bd 8e e6 fe bd a2 65 15 3d
       0.04576 -0.039024796 -0.124463186 0.036473878
000340 1e de 89 be c6 e8 13 3e 2b 30 18 3e 6f d9 49 be
       -0.26927274 0.14444265 0.14862125 -0.1971185
000350 e6 7d 0a 3f 00 ec cf be 2f 35 8a 3c e6 e5 ae bc
       0.54098356 -0.4060974 0.016871063 -0.021349858
000360 a6 cc c4 be ff 4c f1 3e 03 3e 1f bc 3a 23 43 3e
       -0.38437384 0.47129056 -0.009719375 0.19056407
000370 45 f3 30 3d a0 1e 7e 3e 47 da 05 3f bf 54 19 3e
       0.04320075 0.2481637 0.5228619 0.14973734
000380 a1 aa c7 bd 71 71 9e 3e d3 1d bf 3e cd a8 be 3e
       -0.09749342 0.30945924 0.37327442 0.3723816
000390 08 96 98 be f7 77 f9 3d 23 c1 23 3e 71 71 23 3f
       -0.29801965 0.121810846 0.15991645 0.6384497
0003a0 41 5d 1a 3e ac 76 d8 be 96 b1 88 be 6a df 7b be
       0.15074636 -0.4227804 -0.26697987 -0.24596944
0003b0 b1 48 a3 be 3b 61 bf 3e f2 e5 39 be 4b 87 83 3e
       -0.31891397 0.37378868 -0.18154123 0.25689158
0003c0 f9 98 17 bc 78 46 28 be 4e 93 f5 3d 8f 57 c3 3d
       -0.00925278 -0.16433132 0.11990987 0.09538185
0003d0 c9 40 e7 3d bf 5e 15 be 94 ca f7 3b de 39 87 bd
       0.11291654 -0.14586924 0.007561991 -0.06602834
0003e0 d9 91 c6 bd c8 e8 6d 3e 22 fe e5 3d 94 b5 b2 be
       -0.09695787 0.2323333 0.112301126 -0.34904158
0003f0 94 56 f6 3e 4b 54 03 bf 94 e2 be bd d6 30 0a 3d
       0.4811293 -0.51300496 -0.0932056 0.03373798

student.3.bias f4 [25]
000000 62 66 92 3d f5 60 71 bc a3 62 9a bb e8 be 63 bd
       0.07148434 -0.014732589 -0.0047114654 -0.055601984
000010 48 8f e4 3c 68 19 a9 3c 0b aa 67 3d 22 b9 8e 3c
       0.027900353 0.020641997 0.05655865 0.017422263
000020 49 7f 61 3c 54 a5 61 bb 03 08 c6 bc 72 4f da ba
       0.013763257 -0.0034430819 -0.024173742 -0.0016655757
000030 67 be 0c bc c4 65 95 bb cf 6c 0a 3d 4a c8 49 3b
       -0.008590317 -0.0045592505 0.033795174 0.0030789548
000040 8e fb eb 3a 4f a0 2b 3d de 48 02 bd 91 72 9a 3d
       0.0018004046 0.04190093 -0.031807773 0.07541383
000050 81 6b df 3c e1 8a 15 be 18 ef 46 3c ac 8e 49 3d
       0.027272942 -0.1460376 0.012141965 0.049208328
000060 fa 09 96 3c
       0.018315304

student.6.weight f4 [15, 25]
000000 15 38 0c bf a4 34 cc be 5f db ce 3e b6 df f4 3e
       -0.54773074 -0.39883912 0.40401742 0.47826928
000010 35 3c e6 be fd 21 1d bf 35 10 12 bf 95 fc cb be
       -0.4496781 -0.61379987 -0.5705598 -0.39841142
000020 a6 24 19 bf f6 80 a3 3e 93 34 bc 3e 9a b6 72 3e
       -0.59821546 0.31934327 0.3675886 0.2370247
000030 e1 bd 01 bf 06 92 b8 be 69 64 9b be d9 11 e4 be
       -0.5068036 -0.36048907 -0.30350044 -0.44544867
000040 f2 df be be 75 71 f5 be 5a 70 0a 3e 02 54 8d be
       -0.37280232 -0.47938123 0.13519421 -0.27603155
000050 34 78 fa be 8d 4c 70 3e 64 ec b7 be 78 33 0f bf
       -0.48919833 0.23466702 -0.3592254 -0.5593791
000060 da 05 a8 be fe 18 3b 3e b9 25 bd 3e 2c 5d ca bd
       -0.32816964 0.18271253 0.36942843 -0.098810524
000070 17 ff ef bd 00 c6 9f 3e c6 1a cb 3e 9b 33 06 3e
       -0.117185764 0.3120575 0.39668864 0.13105623
000080 68 9e db 3e 8f a7 a0 3e 2e ee a1 be 71 49 20 be
       0.42894292 0.31377837 -0.3162703 -0.15653016
000090 e4 24 94 be 24 43 a8 3e c0 dc 26 3f 3e c3 01 3e
       -0.28934395 0.32863724 0.6518059 0.12672135
0000a0 fc 29 ab 3e bf f4 90 3e 6c ac 9b 3e e8 6f 0d be
       0.3343047 0.28311726 0.30404985 -0.1381222
0000b0 48 db 04 3e f3 8b 96 3d a8 57 82 bd 4b 1f a6 3e
       0.12974274 0.07350912 -0.06364375 0.3244575
0000c0 ad 3a 87 3e 96 da 68 3e 6e 95 18 bf 32 fa 04 bf
       0.26411954 0.22739634 -0.5960301 -0.5194427
0000d0 41 82 55 3e 88 12 42 3e d6 59 c7 bd c8 0c fc be
       0.20850469 0.18952382 -0.09733932 -0.492285
0000e0 cf eb 0e bf f8 3b 02 be 6d 9f 27 bf 69 2e c5 3d
       -0.55828565 -0.12718189 -0.6547764 0.09627993
0000f0 82 f1 6f 3e bc c0 61 3e 00 25 13 bf 9a 51 5f bd
       0.23431972 0.22046179 -0.5747833 -0.05452118
000100 f6 e7 24 bf 9e 7d a1 be 5e 1e ae 3c 77 11 60 be
       -0.64416444 -0.3154115 0.021254715 -0.21881662
000110 0d 78 97 3e ad 1a 83 bf 22 7d 55 bf 46 7a 87 3e
       0.2958378 -1.0242516 -0.8339406 0.26460475
000120 48 2b 1f be 5b 9b 33 bf 9a af 2e bf b0 a7 a8 be
       -0.15543854 -0.7015893 -0.68236697 -0.32940435
000130 27 db 18 bf 17 3b 78 3e 97 31 5b 3e 01 f5 1d bf
       -0.597094 0.24241291 0.21405636 -0.6170197
000140 ea 17 ee be 63 58 00 bf cf 18 16 bf 60 5d fc be
       -0.4650262 -0.5013487 -0.58631605 -0.4928999
000150 e2 6a c6 3e 4d 19 c5 3e 9d e7 b6 3e cc 29 e2 be
       0.3875342 0.38495865 0.35723582 -0.44172513
000160 65 f5 f6 be 64 dc bd be 51 22 b3 be 81 83 e4 be
       -0.48234096 -0.37082207 -0.3498712 -0.4463158
000170 bf 9e 30 bf 8d c1 d7 3e 26 67 c3 be 5a 95 fe be
       -0.6899223 0.42139855 -0.38164634 -0.4972332
000180 c1 bb bf 3e 86 8b b4 be 94 d3 91 be 0f 90 04 be
       0.37447932 -0.35262698 -0.28481734 -0.12945579
000190 34 c5 39 3e f0 d2 03 3e 5a 76 3e be 2e 6a 9c be
       0.18141633 0.12873435 -0.18599835 -0.3054976
0001a0 b6 2c a3 3e 47 88 31 3e ae 8b 1d 3d 01 81 63 3e
       0.3187005 0.17337142 0.038463287 0.2221718
0001b0 36 6a 49 3e c6 ef 70 be 3e 00 56 bd ba b9 b0 be
       0.19669423 -0.23528966 -0.052246325 -0.34516698
0001c0 db 96 38 3e 7e 88 aa 3e 23 ce 7f 3e 11 06 5d 3d
       0.18026297 0.3330726 0.24980979 0.053960864
0001d0 43 25 5e 3e d0 3e 3b 3e 6c 5b 77 bd 9c ff 86 3e
       0.21693902 0.1828568 -0.06038992 0.2636689
0001e0 0c 37 3b 3e de 6d 0f be ef 92 cc 3e c2 d9 3c 3e
       0.18282717 -0.14006755 0.3995585 0.18442443
0001f0 fa 9e 99 3d dd 4e 1e bf 54 34 9b be 16 1e f4 3e
       0.075010255 -0.61839086 -0.3031336 0.47679204
000200 01 65 82 3e 63 ab 6b be 4f 78 57 be 78 a3 fe be
       0.25467685 -0.23014598 -0.21041988 -0.49734092
000210 3b f2 f0 be 49 89 0d bf 9a 42 23 3e fc 27 8b 3e
       -0.47059807 -0.55287606 0.15943375 0.27178943
000220 f9 5a 82 3e 3c 69 f1 be f0 ba dd be 78 c1 b5 be
       0.25460032 -0.471506 -0.43306684 -0.35499167
000230 b7 72 eb be fd 0b c0 be 66 68 c9 be a7 5d 7a 3e
       -0.45985958 -0.37509146 -0.39337462 0.24449788
000240 f8 d7 1e bf 39 cb df be a7 8c af 3e e0 4e 90 be
       -0.6204829 -0.43709734 0.34286997 -0.28185177
000250 f9 0d f8 be da 41 ae be db 38 82 3e 7b d5 11 3e
       -0.4844816 -0.34034616 0.25434002 0.14241593
000260 f8 b9 7d bd e8 cc 57 be 09 89 9c 3e 80 d0 94 3e
       -0.06194493 -0.2107426 0.305733 0.29065323
000270 a4 f1 17 3e 0e 5a 78 3e 2c 84 e5 3d 29 09 ba be
       0.14838272 0.24253103 0.112068504 -0.36335114
000280 b4 91 3f be c9 ad b4 be 69 1a 1b 3e f4 22 f2 3e
       -0.18707925 -0.35288838 0.15146793 0.47292292
000290 1b 26 1f 3e 24 33 89 3e 84 73 a8 3e 9f 12 74 3e
       0.1554188 0.2679683 0.3290063 0.23835228
0002a0 f8 be 70 be 84 e1 98 3e ad 15 f1 3d 9e 96 16 be
       -0.23510349 0.29859555 0.117717125 -0.14705893
0002b0 df 6a e8 3e b4 bc 36 3e f0 95 5b 3d 52 3d a6 3e
       0.45394036 0.17845422 0.05360979 0.3246866
0002c0 77 12 49 3e 41 7b cf bd 76 82 79 be f8 a8 97 3e
       0.1963595 -0.10130931 -0.24366173 0.296211
0002d0 02 95 b2 3e 2a 63 86 3e 0f 51 e0 3d 6c d2 5a 3e
       0.3487931 0.2624753 0.10952961 0.21369332
0002e0 21 f5 6e be 6d 20 03 be 8f 9f 7e be 77 c9 59 3e
       -0.23335697 -0.12805338 -0.24865554 0.21268259
0002f0 32 f7 db 3e a0 1c 36 3e 90 83 8c 3e c8 0d 95 3e
       0.42962033 0.17784357 0.27444124 0.29112077
000300 a8 6f 98 3e 6a 0a 97 bd e8 46 85 3d e0 69 db 3d
       0.29772687 -0.07375033 0.06507665 0.107135534
000310 e8 09 93 bd 4d 6e d0 3e d9 92 e7 3d cf d8 9a 3e
       -0.07179624 0.40709153 0.11307306 0.30243537
000320 4d 08 85 3e 99 af 98 3e 97 ea b2 bc 7d d8 83 be
       0.25982895 0.2982147 -0.021840377 -0.25751105
000330 e5 5c 6a 3e ce d2 83 3e 48 a2 1e 3e 8e 1a f7 3e
       0.22886999 0.2574677 0.15491593 0.48262447
000340 f4 ce a9 3e 75 13 85 be f0 55 01 be 77 95 69 be
       0.33165705 -0.25991407 -0.12630439 -0.22810923
000350 59 9e 16 3e 53 ab 0a 3f 51 9b 04 3e 30 9c ca 3e
       0.14708842 0.5416767 0.12949874 0.39572287
000360 ae e2 e6 3e 6d 25 b6 3e b4 55 de bd fe 83 9d 3e
       0.45094818 0.3557543 -0.1085619 0.30764765
000370 6f 8c 81 3e 37 d0 a9 bd e6 d3 9b 3e 0a be 54 3e
       0.25302455 -0.08291667 0.30435103 0.20775619
000380 e8 89 45 3e af 2a e0 be 74 1b ec be af ab 9f 3e
       0.19290888 -0.43782565 -0.46114695 0.31185672
000390 23 b7 94 3e b0 5f c8 be 05 bf 1e bf 93 a5 f7 be
       0.29045972 -0.39135504 -0.6201022 -0.4836851
0003a0 85 60 10 bf 13 1e 1e bf a5 a2 7d 3e 93 98 97 3e
       -0.5639728 -0.6176464 0.24769075 0.29608592
0003b0 01 bc 34 3e 8c 8a fd be 1f b2 72 be 7b f9 17 bf
       0.17649843 -0.49519765 -0.2370076 -0.5936505
0003c0 1a 4c c9 be 72 49 3f be fe e4 92 be b2 43 d9 3e
       -0.39315873 -0.18680361 -0.28690332 0.4243446
0003d0 7a 56 0d bf 9b 45 2b bf f6 64 c3 3e c5 e9 42 be
       -0.5521008 -0.66903085 0.38162965 -0.19034488
0003e0 1c c0 44 bf 90 38 e6 be f9 43 78 3e 29 43 8e 3e
       -0.76855636 -0.4496503 0.2424468 0.27785614
0003f0 02 33 34 be 76 68 86 be 4a f8 db 3e 56 31 d2 3e
       -0.17597583 -0.26251572 0.42962867 0.41053265

student.6.bias f4 [15]
000000 1a b6 26 3e 5a 8f 82 3c e8 d2 55 3e a9 c2 95 3e
       0.16280404 0.015937496 0.20881236 0.29250076
000010 fb 6f da 3c 7f 03 20 3e 44 a1 d6 3c b6 9c c4 3b
       0.026664725 0.15626334 0.026199944 0.0060001267
000020 1a 01 08 3d c2 45 57 3e a4 00 2b 3d 38 9b 90 3c
       0.033204176 0.21022704 0.041748658 0.017652139
000030 b9 70 3c 3e 6b bc 09 3d 74 80 35 3d
       0.18402375 0.033626955 0.044311956

student.9.weight f4 [1, 15]
000000 eb 24 c0 be da 43 97 3e 93 fe 01 bf 97 b1 7f be
       -0.37528166 0.29543954 -0.50779074 -0.24970089
000010 3d 00 af 3e 34 dc dc be ca bf 9f 3e 61 b4 95 3e
       0.3417987 -0.43136752 0.3120101 0.2923918
000020 51 05 91 3e 1c 03 cf be a9 b5 96 3e fb 07 73 3e
       0.2832437 -0.4043206 0.2943547 0.23733513
000030 86 dc f9 be dd f6 b9 3e a6 db a8 3e
       -0.4880106 0.36321154 0.32980078

teacher.model.0.weight f4 [40, 96]
000000 28 46 c4 bc 19 cd 04 3d 15 fc b6 3d 66 41 da 3c
       -0.023959234 0.03242216 0.089347996 0.026642513
000010 22 fe ca 3b 13 07 59 3c 87 bf c4 bd 17 b9 92 bc
       0.006194846 0.0132463155 -0.096068434 -0.017910523
000020 ed c7 f2 3c ce ac 1f 3d d1 04 cb 3c 44 87 62 bd
       0.029636348 0.03898316 0.02478257 -0.05530478
000030 bf cb 47 bc a1 c5 72 3c a5 ce 8f bd a1 12 93 bd
       -0.012194573 0.014817626 -0.07021836 -0.071812876
000040 8f ab 8b bc e2 28 1e 3d 5a 98 8a bd fe 84 92 3d
       -0.017049579 0.038613208 -0.0676734 0.071542725
000050 14 7c 9c bc a0 e3 6d bb b9 b4 9d 3c cc 7c 80 3d
       -0.019102134 -0.0036299005 0.019251214 0.06273803
000060 61 33 de 3b d6 9a bf bd 7d c7 4b bd 3d 4e 26 3d
       0.006781027 -0.093557045 -0.049750794 0.040601958
000070 4c 8d 5e 3d 01 f3 7e 3d 74 eb 81 3d 69 60 52 bd
       0.05433397 0.062243465 0.06343737 -0.051361475
000080 6f cc 88 3c 82 5f c8 bd 28 6d 81 bd 22 b7 c3 bd
       0.016699044 -0.09783842 -0.06319648 -0.09556414
000090 67 42 29 3d ed 28 b7 3c 8b fb 3b 3d d9 94 86 bd
       0.04132309 0.022358382 0.045894187 -0.06571359
0000a0 84 cf 2e 3c 83 9d 63 bd 99 b9 49 bd 83 a7 ce bd
       0.010669593 -0.055570137 -0.049249265 -0.10090544
0000b0 48 bb 01 bd 0d e8 4f bd 08 9f 39 bc df ba 18 bd
       -0.031672746 -0.05075841 -0.01132942 -0.03728759
0000c0 3d 30 44 3d 13 a7 dc 3c 61 92 9a bd fe af 57 bc
       0.047897566 0.026935136 -0.07547451 -0.013164518
0000d0 2f ae 0d 3d f9 8c ce 3d af 78 8d bd da 4e fd 3c
       0.034589943 0.10085482 -0.06907784 0.030921388
0000e0 c7 ff a7 bd cf 92 70 3d b8 0f 81 3d 4b 7c 8d bd
       -0.082030825 0.058733758 0.06301826 -0.069084726
0000f0 17 c4 1f 3d 0f da 51 bc 98 b6 63 ba d6 c3 fe bc
       0.039005365 -0.012808337 -0.00086865714 -0.031099241
000100 8c 4d 30 3d d7 74 42 bd 4b 87 06 3d a8 21 11 bb
       0.043042704 -0.04747471 0.03284387 -0.0022145305
000110 c6 e1 a2 bd 2c b9 b2 bd c0 8e 1e bd 6b 89 8e 3d
       -0.07953219 -0.08726725 -0.038710356 0.06959804
000120 24 c4 8a bd 62 66 7a 3d 02 ac 74 bc 6c 09 1d 3d
       -0.06775692 0.061132796 -0.014933588 0.038339064
000130 f3 f7 cc bc bc 5e 93 3d 49 0e 06 bd 18 6b 82 3d
       -0.025020575 0.071958035 -0.032728467 0.06368083
000140 cf 2d fd bb 7e e1 e2 3b ab 5f aa 3d 07 c7 90 bb
       -0.007726408 0.0069238534 0.083190285 -0.004418257
000150 c4 bc c3 bd e3 2d 91 bd c3 0a 50 3d e1 b8 df bc
       -0.095574886 -0.0708883 0.050791513 -0.027309837
000160 be f8 bc bd 9b 2c e3 3c 05 81 46 bd 9c b7 41 3c
       -0.09227131 0.02773123 -0.048462886 0.011823561
000170 6b 5a 1f 3c e2 31 a4 bc 72 88 04 3c b0 86 7f 3d
       0.009726147 -0.020043317 0.008089172 0.062384307
000180 d9 fe 58 3c 72 b5 6c 3d 92 88 b8 bd d4 f6 f6 bc
       0.013244354 0.057790227 -0.09010424 -0.030146994
000190 e6 f5 6c bd 84 ba ec be 7a c5 79 be 44 0a 23 3e
       -0.057851695 -0.4623605 -0.24391738 0.15921885
0001a0 36 99 14 3f aa 76 1c be 71 3d 0e 3f 5f 8f 24 be
       0.5804628 -0.15279642 0.555625 -0.16070317
0001b0 4e 27 09 bf 65 b2 05 3f 40 15 51 be b8 a4 44 3e
       -0.535756 0.52225333 -0.20418262 0.1920346
0001c0 d4 09 80 be 55 82 01 bf fb 6d 3e 3f 72 d8 89 3d
       -0.25007498 -0.50589496 0.74386567 0.06730737
0001d0 78 77 11 3f 58 95 b5 be 5f 0d 32 3e 35 c7 97 be
       0.5682292 -0.35465503 0.17387913 -0.2964417
0001e0 8f 49 1b 3f e6 ae 08 bf bf 25 ca 3e 3a cc 57 3d
       0.60659117 -0.53391874 0.39481923 0.052685
0001f0 44 4f 92 be b1 50 8b 3d 9f c8 2a be e4 7f d8 be
       -0.285761 0.068025 -0.16678093 -0.42285073
000200 47 1a 41 be 44 a2 ed bd a6 9c 2f bf 3e 01 b7 bd
       -0.1885768 -0.11603215 -0.685984 -0.08935784
000210 3a 4b 54 bf 5e 01 af bd e5 a1 70 3e 9a 32 df be
       -0.82927287 -0.08545183 0.23499258 -0.43593293
000220 09 a0 2e 3f b8 2e 95 3e c9 13 63 3f 89 0a 15 be
       0.68212944 0.29137206 0.88702065 -0.145548
000230 27 d8 f8 3e 8f 07 91 be 94 a7 a3 3e 78 e7 9e be
       0.4860241 -0.2832608 0.3196379 -0.31035972
000240 61 34 2b be 03 5a 8a be 6e b0 db bd 0f 02 06 be
       -0.167192 -0.27021798 -0.10727011 -0.13086723
000250 f1 4a 8a be d5 25 b9 bd d4 07 81 be a5 c3 c2 3d
       -0.270103 -0.09040419 -0.25201285 0.095099725
000260 6a b0 ac 3b c5 cb cd be 7e 2c 5e be 88 48 9f 3e
       0.0052700536 -0.40194526 -0.2169666 0.31110024
000270 83 90 20 bd 8c c3 5d be f7 76 3b be 3a e4 9b 3e
       -0.039200317 -0.21656626 -0.183071 0.3044756
000280 20 44 33 be 02 de 55 bf 59 77 9e 3b 05 c6 a6 bc
       -0.17506456 -0.8354188 0.0048360047 -0.020358095
000290 ca 39 ca 3d 95 99 4d bf f2 b9 8d 3d 2c 62 a0 bd
       0.09874304 -0.8031247 0.06920232 -0.07831225
0002a0 2e 8c 67 bf 3f 06 e6 be c4 da ae bf 73 30 1b bf
       -0.9044827 -0.4492664 -1.3660512 -0.606208
0002b0 62 d0 c0 be 2f d4 03 be 1b a3 2d 3f 8f b7 ae be
       -0.37658983 -0.1287391 0.67827004 -0.3412442
0002c0 95 34 7b bf a5 1d 28 bf c2 75 88 be c3 ae 21 bf
       -0.9812711 -0.65670234 -0.26652342 -0.6315729
0002d0 6b c5 09 3b cb e9 8c 3d 61 3f 6b 3e 9e e7 0e 3f
       0.0021022211 0.0688053 0.22973396 0.5582217
0002e0 c6 85 e1 3f d7 35 73 be c4 b2 66 bc 7b a3 a5 3e
       1.761895 -0.23751007 -0.014080707 0.32351288
0002f0 cc f5 3b bf 4b 0a f4 3e 36 33 a5 3e f0 9b b8 bc
       -0.7342193 0.47664103 0.32265633 -0.022535294
000300 7f 32 b3 bb 3b 73 f1 3d 47 19 03 be ef 67 31 be
       -0.005468666 0.117895566 -0.12802611 -0.17324804
000310 80 ec 61 be 57 c3 ed 3e 2e f8 c5 bb 6d e0 d1 bd
       -0.22062874 0.46438095 -0.006041548 -0.10247884
000320 30 6c 7b be bd 6f 08 3f ab f2 49 bf 83 79 8b 3e
       -0.24552989 0.532955 -0.78885907 0.27241144
000330 ab 22 18 3c 22 f8 2f 3f 75 fd 32 3f 52 91 e6 3d
       0.009285609 0.68737996 0.69917995 0.112581864
000340 db 7e 20 be 31 17 a5 3e ee 86 14 3f 36 41 09 be
       -0.15673392 0.32244256 0.58018386 -0.13403782
000350 0e 1f fd 3e 54 49 27 be 93 66 f6 3d ba 7a 33 bd
       0.49437755 -0.16336566 0.12031283 -0.043818213
000360 7b 62 f2 3e 59 13 4d 3d 14 cf ce bc 6f af db 3e
       0.4734076 0.05006728 -0.025245227 0.42907283
000370 c0 3c 5a 3f d1 8c 44 3d a5 6a 80 bd a2 b2 ac bd
       0.8524895 0.047985855 -0.06270341 -0.08432509
000380 21 09 5e bc 6c 75 96 3d 68 b0 0c bf 3f 34 93 3d
       -0.013551981 0.07346615 -0.54956675 0.071876995
000390 79 22 25 3f 01 9f 21 bf 64 77 85 3f e6 56 77 be
       0.64505726 -0.63133246 1.042706 -0.24154243
0003a0 98 61 76 3f 1a 8a 37 3f 34 cc 90 bd 8a 95 b9 3d
       0.96242666 0.716951 -0.07070199 0.090617254
0003b0 c1 ff dc 3e eb 69 11 3e 18 7e e2 3e 75 22 9d be
       0.43163875 0.14200561 0.44236827 -0.3069035
0003c0 f8 3c ac 3e 83 9c a2 bd 1e 11 ac 3d a3 f4 05 bf
       0.33640265 -0.079400085 0.08401702 -0.5232641
0003d0 fc 5f a5 3e 11 91 6b 3d d7 55 43 bf 13 5b bd bc
       0.32299793 0.057511393 -0.76302856 -0.023114717
0003e0 77 ab 6b be 4e b4 43 3e 12 35 3c 3d 1d 58 38 3e
       -0.23014627 0.1911175 0.04594905 0.18002363
0003f0 c6 0a 39 be 59 21 32 3d 6e 42 3e bf ab 50 3f 3d
       -0.18070516 0.043488834 -0.74320114 0.04670779

teacher.model.0.bias f4 [40]
000000 f1 2a 1c b9 2d 81 63 be 06 46 c5 bc d9 a3 af 3d
       -0.00014893316 -0.22217245 -0.024081241 0.08576173
000010 26 5d 5e bd c1 38 9d bd 6e 37 e1 3d 24 0b 23 3d
       -0.054288052 -0.076768406 0.109969005 0.039805546
000020 d7 e2 be bd 5a ea 55 3c 9d 97 cb ba dd c1 76 bd
       -0.0932061 0.013056362 -0.0015532855 -0.060243476
000030 fe aa 00 be f1 d3 80 bc 27 a2 63 bd 1d ff e7 bc
       -0.12565228 -0.015726062 -0.055574562 -0.02831989
000040 27 35 37 be 48 9b 4e be 26 ff 3c bd 12 db ef bd
       -0.1789137 -0.20176423 -0.046141766 -0.11711706
000050 28 45 92 3d 2c b4 f0 bd 7e 1a ec bc 7d a0 ab 3d
       0.07142097 -0.11753115 -0.028821226 0.0838022
000060 84 ff 9c bd c2 40 72 bd 42 8a 50 3c 16 3b 8d bd
       -0.07665923 -0.05914379 0.012728276 -0.068960354
000070 64 87 8f bb f5 a3 14 3d 2e e5 2f bc 88 90 14 be
       -0.0043801535 0.036289174 -0.010735793 -0.1450826
000080 f1 9a 72 bd ab b8 2a 3d 24 7e 7d bd db 28 9d 3d
       -0.059229795 0.04168002 -0.061887875 0.07673808
000090 a6 d0 b9 3d 67 24 5a bd c7 a1 32 bd ff 9b ad bd
       0.09073 -0.053257372 -0.043611314 -0.084770195

teacher.model.3.weight f4 [25, 40]
000000 d2 3d 34 bc 3a a0 88 be de 8e 10 3e c4 df a6 3c
       -0.011001067 -0.26684743 0.14117 0.020370372
000010 92 a2 b9 3d 7b bb e0 bb 22 20 ec bd 57 ea 0b 3e
       0.09064211 -0.006858287 -0.11529566 0.13663612
000020 44 66 9b be a7 28 55 3e a1 77 21 3e 74 4d 57 be
       -0.3035146 0.20816289 0.15768291 -0.2102564
000030 24 42 f7 3e 15 67 dd be 53 5f 2e bd 70 11 f2 bd
       0.4829265 -0.43242708 -0.042571377 -0.11819732
000040 ee 0f cc be e3 8d d4 3e e5 3e 42 3e 5d d1 61 3e
       -0.39855903 0.415145 0.18969305 0.22052522
000050 40 91 f7 bd 15 28 91 3e 24 f7 c3 3e 8d db 01 be
       -0.12088251 0.28350893 0.3827449 -0.12681408
000060 91 8a d3 bd 43 3f f4 3e 77 74 75 3e cd 0b 7f 3e
       -0.10329164 0.47704515 0.23970209 0.24906845
000070 35 df cf be 6c aa f7 3d 97 a0 b9 3d 54 cf 59 3f
       -0.4059998 0.12093052 0.09063833 0.8508198
000080 d7 53 07 3e fc a2 af be 56 9f b7 be e6 f0 b8 be
       0.13215576 -0.34304035 -0.3586375 -0.3612129
000090 36 be 8c be 1b d7 bc 3e b1 ac 28 be 34 38 81 3e
       -0.2748887 0.36882862 -0.16472127 0.25238192
0000a0 9f e1 43 3d ad 81 59 be 80 6b 10 3e 29 46 b4 bd
       0.04782259 -0.21240874 0.14103508 -0.088024445
0000b0 1f 9a ca 3d 8c 1e d7 bd 2c 7b 99 bd 70 f7 1d be
       0.098926775 -0.10503873 -0.07494196 -0.15426421
0000c0 ec fb 05 bc fd 79 ea 3d 01 2e 3c 3e fe 20 2f be
       -0.008177739 0.11449049 0.18376924 -0.1710243
0000d0 28 c0 04 3f 31 5a fb be 42 f3 b6 3d e6 78 13 3e
       0.5185571 -0.49092248 0.089331165 0.14401588
0000e0 07 34 96 be ad 4a 2c 3f d7 23 13 3e cf 41 7a 3e
       -0.2933657 0.67301446 0.1436914 0.24439166
0000f0 d8 ea 9d bd 4f 32 53 3e 32 34 de 3e 5d 0d d4 bd
       -0.077108085 0.2062466 0.43399197 -0.10354111
000100 8d d9 dc bd 94 b3 18 3f d2 f3 0e 3f 5c 54 8a 3e
       -0.10783682 0.59649014 0.5584079 0.27017486
000110 47 d5 2e 3e 91 2c c4 bc 2b 8b 4b 3e 66 1e f7 3e
       0.17073546 -0.023947032 0.19877307 0.4826538
000120 7e fc df 3d 31 76 dc be ab a3 08 bf 3d 4c 90 be
       0.10936831 -0.43058923 -0.5337474 -0.28183165
000130 ff c3 6e be 51 ed be 3e a3 19 9b bd c9 42 53 3e
       -0.23316954 0.37290433 -0.07573249 0.20630945
000140 fe c1 1f 3e 2b 6a e2 3d 7c 2d 96 be 27 44 b0 bd
       0.15601346 0.11055406 -0.29331577 -0.08606749
000150 59 e5 59 be 4e 70 85 bd 28 64 e0 be aa 2a 1f 3e
       -0.21278895 -0.06515561 -0.43826413 0.15543619
000160 a3 bf d4 3c f7 7a aa be be b8 4f bd ab 2c 18 3f
       0.025970286 -0.3329694 -0.050713293 0.5944316
000170 2f 18 b9 be cc 5e 91 3e b8 a6 e9 bc ef 70 c8 3c
       -0.36151263 0.28392637 -0.02852188 0.024467913
000180 3c ac c3 3d e8 c7 8f be 0a 03 fd bc 72 9d 9c be
       0.095543355 -0.28082204 -0.030885238 -0.3058887
000190 d5 df 0a bd 47 3b a0 3c 77 bc df be 4a 47 ce 3d
       -0.03390487 0.019559516 -0.43698475 0.10072191
0001a0 be bb 0d be 88 85 a8 bc ba f5 4a be db 51 50 be
       -0.13841149 -0.020571485 -0.198203 -0.20343725
0001b0 18 94 ca bd 3e 48 f5 bd a2 27 10 3d 01 5e 2d bd
       -0.09891528 -0.1197667 0.035194047 -0.042325977
0001c0 a6 05 57 3d d9 e2 49 3e a7 44 a2 3d a9 db 57 3f
       0.05249562 0.19715442 0.07923251 0.8431955
0001d0 2d 5f be bd 96 03 22 bd aa f0 48 3d bc f2 04 3f
       -0.09295497 -0.0395542 0.04905764 0.51932883
0001e0 36 08 8a 3d f3 f4 cb 3d 2e be 87 bc 1d 9e 0f 3e
       0.06739847 0.0995883 -0.016570177 0.14025159
0001f0 14 0a 22 be a0 e6 f2 3d de 09 8c be 35 4f f5 bd
       -0.15824157 0.118603945 -0.27351278 -0.11977998
000200 b4 60 62 3d ef 40 10 be 9f 68 16 3e a9 b0 3a 3f
       0.055268005 -0.1408727 0.14688347 0.7292581
000210 ae 1b 5a bf b1 2f ad 3e ea 01 51 bd 88 a0 32 bd
       -0.85198486 0.33825448 -0.051027216 -0.043610126
000220 98 37 07 3e 9f 29 2a bf 9c a2 28 3d 09 cc ac bd
       0.13204801 -0.6646976 0.0411707 -0.08437354
000230 f1 df 30 bc 66 3d 82 bd ea 55 4a bf b5 0b 5c bc
       -0.010795579 -0.06359367 -0.79037344 -0.013430526
000240 16 70 9b 3d 5b ca 8b bd c2 79 cc be 16 19 c3 be
       0.07589738 -0.068257056 -0.39936644 -0.38105077
000250 8e c3 8e be 9b ac 93 bd 3e ce ef 3d ad 9e 07 be
       -0.2788357 -0.07210656 0.117092595 -0.13244124
000260 b5 e5 2b 3d 37 f4 83 3e 3a 93 88 3d ea d2 54 3f
       0.041967113 0.2577226 0.06668706 0.8313433
000270 95 50 30 3e 75 d8 b2 be 67 a1 b5 3d 9a 3c dc 3e
       0.1721824 -0.3493077 0.08868676 0.43014985
000280 1b 48 5f bd 77 ab d3 be 30 e9 30 3e d9 5c 0c 3e
       -0.054512125 -0.41341755 0.17276454 0.13707294
000290 ee c8 df 3d a6 81 21 3e 3a bf 1e bd 0d fe be 3d
       0.10926996 0.15772113 -0.038756587 0.093258
0002a0 23 d8 7c bd 8e 0c 9f 3c 3d 80 95 3d 75 df 23 be
       -0.06172956 0.019415166 0.0729985 -0.16003211
0002b0 90 f0 ef 3e c7 f2 de be da 55 15 be 7b 90 a8 3d
       0.46863222 -0.435446 -0.14583531 0.082306825
0002c0 24 99 59 be 85 6f db 3e 11 3d 06 3e 46 77 85 3e
       -0.21249825 0.4285852 0.13109232 0.2606756
0002d0 92 27 11 bd 90 cc 2e 3e fd 83 16 3f 15 eb b5 bd
       -0.035438128 0.17070222 0.5879515 -0.08882729
0002e0 a1 49 fc bd c6 56 1c 3f 7a 13 33 3e d3 d3 53 3e
       -0.12318731 0.61069906 0.17487898 0.20686273
0002f0 d8 f7 0e bf 3c e5 eb bd b3 b7 3e 3e 90 19 1f 3f
       -0.5584693 -0.11518332 0.18624763 0.6214838
000300 21 9a 11 3e 38 69 d4 be 8b cb 90 be 3d 39 85 be
       0.14218952 -0.41486526 -0.2828029 -0.26020232
000310 79 fe 0c bf 05 6e b0 3e 23 7d cb bd 07 62 61 3e
       -0.55075794 0.34458938 -0.09935977 0.2201005
000320 74 3e b7 bc 5c a9 8e be 43 69 3f 3e 1f 5f ca 3d
       -0.022368647 -0.27863586 0.18692498 0.09881424
000330 d4 a8 3a 3d 77 d8 1f bd 33 47 ff bd a2 65 15 3d
       0.045571163 -0.039024796 -0.12464752 0.036473878
000340 36 f0 89 be a5 c8 13 3e 8c 2b 18 3e 6f d9 49 be
       -0.2694108 0.14432009 0.14860362 -0.1971185
000350 ff 79 0a 3f c3 ee cf be 2f 35 8a 3c e6 e5 ae bc
       0.540924 -0.40611848 0.016871063 -0.021349858
000360 9f cb c4 be 12 56 f1 3e ad b4 1f bc 69 f6 42 3e
       -0.384366 0.4713598 -0.009747666 0.1903931
000370 45 f3 30 3d 5e c0 7e 3e 8c d0 05 3f bf 54 19 3e
       0.04320075 0.2487807 0.5227134 0.14973734
000380 a1 aa c7 bd b2 6a 9e 3e ec 1d bf 3e 15 96 be 3e
       -0.09749342 0.30940777 0.37327516 0.37223879
000390 a1 99 98 be f7 77 f9 3d 2d c6 23 3e 4f 72 23 3f
       -0.2980471 0.121810846 0.15993567 0.63846296
0003a0 41 5d 1a 3e e3 62 d8 be 9b bc 88 be 07 c5 7b be
       0.15074636 -0.42262945 -0.26706395 -0.24586879
0003b0 3f 52 a3 be 79 47 bf 3e 7b e4 39 be d2 8a 83 3e
       -0.31898686 0.37359217 -0.18153565 0.2569185
0003c0 f9 98 17 bc f6 5b 28 be fa 9d f4 3d 8f 57 c3 3d
       -0.00925278 -0.1644133 0.11944194 0.09538185
0003d0 4e 15 e7 3d bf 5e 15 be 78 6e f9 3b de 39 87 bd
       0.112833604 -0.14586924 0.007612046 -0.06602834
0003e0 48 25 c6 bd b5 80 6d 3e f8 6e e5 3d 8f b5 b2 be
       -0.096750796 0.23193629 0.11202806 -0.34904143
0003f0 a8 46 f6 3e 53 53 03 bf 94 e2 be bd d6 30 0a 3d
       0.4810078 -0.5129902 -0.0932056 0.03373798

teacher.model.3.bias f4 [25]
000000 a8 7f 92 3d bb 3c 72 bc c3 fe a4 bb 91 8b 63 bd
       0.07153255 -0.014784987 -0.005035253 -0.055553023
000010 b1 0d e7 3c b0 3e a9 3c bc 4a 68 3d 70 55 92 3c
       0.02820477 0.020659775 0.056711897 0.017863005
000020 0c 57 63 3c 7b 36 65 bb dd 7b c4 bc 0e 50 05 bb
       0.013875734 -0.00349751 -0.023984844 -0.0020341906
000030 95 4b 0a bc 39 a4 9d bb 94 38 0b 3d b8 88 48 3b
       -0.008440872 -0.0048108366 0.033989504 0.003059907
000040 82 49 d7 3a 2c 10 2b 3d 92 11 03 bd e6 ce 9a 3d
       0.0016425105 0.04176347 -0.03199918 0.07558994
000050 e8 c8 e0 3c 66 46 15 be ee d2 48 3c 2f c3 49 3d
       0.02743955 -0.14577636 0.012257321 0.049258407
000060 b0 db 99 3c
       0.018781513

teacher.model.6.weight f4 [15, 25]
000000 5f 37 0c bf be 3a cc be 08 ba ce 3e d4 ea f4 3e
       -0.5477199 -0.39888567 0.40376306 0.4783541
000010 db 47 e6 be 80 22 1d bf 37 18 12 bf b3 fd cb be
       -0.44976696 -0.6138077 -0.570682 -0.39841995
000020 03 27 19 bf b0 7d a3 3e 44 3f bc 3e 9c b2 72 3e
       -0.5982515 0.3193183 0.36767018 0.23700947
000030 4a c9 01 bf e5 92 b8 be 29 6d 9b be c8 10 e4 be
       -0.5069777 -0.36049572 -0.3035672 -0.44544053
000040 b1 e5 be be b4 5d f5 be 0c 6e 0a 3e f9 65 8d be
       -0.37284616 -0.47923052 0.13518542 -0.2761686
000050 7f 7e fa be f0 45 70 3e 94 d2 b7 be 68 38 0f bf
       -0.48924634 0.23464179 -0.35902846 -0.55945444
000060 9d 0c a8 be 14 19 3b 3e 7d 0d bd 3e b6 4c ca bd
       -0.32822123 0.18271285 0.36924353 -0.09877913
000070 d6 50 f0 bd 82 c5 9f 3e e3 ff ca 3e 4f 03 06 3e
       -0.11734168 0.31205374 0.3964835 0.130872
000080 87 a2 db 3e 6e aa a0 3e 32 ec a1 be 78 4b 20 be
       0.42897436 0.31380028 -0.31625515 -0.15653789
000090 d8 24 94 be 1a 24 a8 3e 1a cd 26 3f d7 ac 01 3e
       -0.2893436 0.32840043 0.6515671 0.1266359
0000a0 68 25 ab 3e b6 bb 90 3e df 8d 9b 3e af 70 0d be
       0.33426976 0.28268212 0.30381677 -0.13812517
0000b0 b2 81 04 3e 2a 3e 96 3d 1b 79 82 bd c6 02 a6 3e
       0.129401 0.073360756 -0.06370755 0.3242399
0000c0 17 fd 86 3e 73 e5 68 3e 1e a3 18 bf 05 ff 04 bf
       0.26364967 0.22743778 -0.596239 -0.5195163
0000d0 93 6b 55 3e 4f 3c 42 3e d5 eb c7 bd f3 27 fc be
       0.20841818 0.18968318 -0.09761778 -0.4924923
0000e0 bd fa 0e bf 7f 63 02 be f5 a4 27 bf 7b 4d c5 3d
       -0.55851346 -0.12733267 -0.6548608 0.09633919
0000f0 b2 34 70 3e 4a c6 61 3e b4 1e 13 bf 53 53 5f bd
       0.23457602 0.22048298 -0.57468724 -0.054522824
000100 0e f9 24 bf 20 83 a1 be 67 9d ad 3c bc 44 60 be
       -0.6444253 -0.31545353 0.02119322 -0.2190122
000110 a8 6e 97 3e 54 19 83 bf 8f 85 55 bf aa 94 87 3e
       0.29576612 -1.0242105 -0.8340692 0.2648061
000120 e6 5f 1f be 81 96 33 bf 10 bd 2e bf ea 91 a8 be
       -0.15563926 -0.70151526 -0.68257236 -0.32923824
000130 a3 da 18 bf 86 1a 78 3e aa 7b 5b 3e c4 03 1e bf
       -0.59708613 0.24228868 0.21433893 -0.61724496
000140 6d 15 ee be 8d 51 00 bf 7a 1b 16 bf f2 5c fc be
       -0.46500722 -0.50124437 -0.58635676 -0.49289662
000150 f7 7e c6 3e ae 2b c5 3e c6 f3 b6 3e 8c 2d e2 be
       0.3876874 0.38509887 0.3573286 -0.44175375
000160 4e f6 f6 be 1e d0 bd be bf 2b b3 be a5 88 e4 be
       -0.4823479 -0.37072843 -0.34994313 -0.44635502
000170 60 9e 30 bf 37 c5 d7 3e 60 71 c3 be 56 a7 fe be
       -0.6899166 0.4214265 -0.38172436 -0.49737042
000180 5c cc bf 3e 1e 85 b4 be 1f d5 91 be 03 ac 04 be
       0.374606 -0.3525781 -0.2848291 -0.12956242
000190 2e ba 39 3e ba af 03 3e 05 77 3e be 34 81 9c be
       0.18137428 0.12860003 -0.1860009 -0.30567324
0001a0 28 2c a3 3e 1f 71 31 3e f1 87 1c 3d 97 7a 63 3e
       0.31869626 0.17328309 0.03821558 0.22214733
0001b0 db 62 49 3e aa e7 70 be 4a 04 56 bd 2b b7 b0 be
       0.19666617 -0.23525873 -0.052250184 -0.34514746
0001c0 6f 5c 38 3e 3f 67 aa 3e 1f df 7f 3e 89 1b 5d 3d
       0.1800401 0.33281896 0.24987458 0.053981338
0001d0 5b e2 5d 3e 18 1e 3b 3e 59 57 77 bd 0d df 86 3e
       0.21668379 0.18273199 -0.060386036 0.2634205
0001e0 c1 16 3b 3e 4c 7c 0f be ee 7a cc 3e f2 8f 3c 3e
       0.18270399 -0.14012259 0.39937538 0.18414286
0001f0 ed b2 99 3d a4 54 1e bf eb 36 9b be 03 0a f4 3e
       0.075048305 -0.618479 -0.30315337 0.47663888
000200 54 83 82 3e 33 ef 6b be aa 86 57 be 7f b1 fe be
       0.2549082 -0.23040466 -0.21047464 -0.49744794
000210 00 0f f1 be 04 8d 0d bf 7a 64 23 3e 50 43 8b 3e
       -0.47081757 -0.552933 0.15956298 0.27199793
000220 a6 61 82 3e 6a 79 f1 be a8 be dd be d9 b8 b5 be
       0.25465125 -0.47162944 -0.43309522 -0.3549259
000230 29 73 eb be db 10 c0 be 13 50 c9 be b2 3a 7a 3e
       -0.45986298 -0.3751286 -0.39318904 0.24436453
000240 ce e2 1e bf 32 ce df be 20 9b af 3e b1 3e 90 be
       -0.62064826 -0.43712002 0.34298038 -0.2817283
000250 38 04 f8 be da 5b ae be 4b 54 82 3e 30 d8 11 3e
       -0.4844072 -0.34054452 0.25454935 0.14242625
000260 00 0e 7d bd 9d f3 57 be 29 89 9c 3e 29 dc 94 3e
       -0.06178093 -0.21089025 0.30573395 0.2907422
000270 e3 e7 17 3e 5d 99 78 3e 2c d1 e5 3d ea f3 b9 be
       0.14834552 0.24277253 0.11221537 -0.36318904
000280 f2 8f 3f be db 9f b4 be 9e fa 1a 3e b4 2d f2 3e
       -0.18707255 -0.3527821 0.15134665 0.47300494
000290 01 51 1f 3e f3 49 89 3e 03 61 a8 3e 47 e2 73 3e
       0.15558244 0.2681423 0.32886514 0.23816787
0002a0 51 b7 70 be da d1 98 3e cf a4 f0 3d 28 99 16 be
       -0.2350743 0.29847604 0.11750185 -0.14706862
0002b0 6e 63 e8 3e a6 4f 36 3e 04 e7 5b 3d 0b 43 a6 3e
       0.4538836 0.17803821 0.05368711 0.32473025
0002c0 47 f4 48 3e b4 7c cf bd 1d 79 79 be 42 9b 97 3e
       0.19624434 -0.10131207 -0.24362607 0.2961064
0002d0 49 96 b2 3e 86 56 86 3e a4 79 e0 3d 0a d1 5a 3e
       0.34880283 0.26237887 0.10960701 0.21368805
0002e0 36 fd 6e be 49 24 03 be 09 ad 7e be 2d ac 59 3e
       -0.2333878 -0.1280681 -0.24870695 0.21257086
0002f0 51 e1 db 3e 32 45 36 3e 3d 90 8c 3e 8e 05 95 3e
       0.4294534 0.17799833 0.27453795 0.291058
000300 71 3d 98 3e fc 22 97 bd c9 c4 84 3d ec 01 db 3d
       0.29734376 -0.073797196 0.06482846 0.10693726
000310 d1 21 93 bd ed 5c d0 3e 42 d2 e6 3d 2a e1 9a 3e
       -0.07184184 0.40695897 0.11270572 0.30249912
000320 29 0d 85 3e 84 97 98 3e 74 b3 b1 bc 31 e0 83 be
       0.25986603 0.29803097 -0.021692015 -0.25756982
000330 0a 20 6a 3e 16 c6 83 3e 82 4b 1e 3e 50 0c f7 3e
       0.22863784 0.25737065 0.15458491 0.4825158
000340 ec a9 a9 3e d1 09 85 be ea 61 01 be 32 b4 69 be
       0.33137453 -0.25984052 -0.12635008 -0.22822645
000350 d6 47 16 3e 6c a1 0a 3f 85 80 04 3e b2 86 ca 3e
       0.1467584 0.5415256 0.12939651 0.3955589
000360 13 c8 e6 3e 67 f4 b5 3e 48 4a de bd 59 68 9d 3e
       0.4507452 0.35538027 -0.10854012 0.30743673
000370 e8 66 81 3e a0 d6 a9 bd 66 c3 9b 3e 91 36 54 3e
       0.25273824 -0.082928896 0.30422515 0.2072394
000380 67 82 45 3e 5e 6b e0 be 58 1e ec be bf 98 9f 3e
       0.19288026 -0.43831915 -0.461169 0.31171224
000390 cc e2 94 3e f2 aa c8 be ee cc 1e bf fc e4 f7 be
       0.29079282 -0.3919292 -0.6203145 -0.4841689
0003a0 7a 75 10 bf 48 26 1e bf a1 c0 7d 3e 6b ab 97 3e
       -0.56429255 -0.6177716 0.24780513 0.2962297
0003b0 51 b3 34 3e 91 b8 fd be 8d b4 72 be 18 ff 17 bf
       0.17646529 -0.49554875 -0.23701687 -0.5937362
0003c0 26 55 c9 be 88 53 3f be 2d fe 92 be ca 38 d9 3e
       -0.39322776 -0.18684208 -0.28709546 0.4242614
0003d0 47 8a 0d bf 4c 61 2b bf 42 75 c3 3e 40 be 42 be
       -0.5528912 -0.6694534 0.38175398 -0.19017887
0003e0 59 c7 44 bf d5 65 e6 be 4e 56 78 3e de 3a 8e 3e
       -0.7686668 -0.44999567 0.24251673 0.27779287
0003f0 8e 1c 34 be 98 73 86 be 1b ed db 3e 2e 28 d2 3e
       -0.17589018 -0.26260066 0.42954335 0.4104628

teacher.model.6.bias f4 [15]
000000 9a 7c 26 3e e9 a7 82 3c d4 9c 55 3e 96 b9 95 3e
       0.16258469 0.015949206 0.20860606 0.29243153
000010 44 47 db 3c 26 e1 1f 3e 63 85 d7 3c fd 41 c5 3b
       0.02676738 0.15613231 0.026308721 0.0060198293
000020 7c db 07 3d de b6 56 3e 0a 9a 2b 3d 54 7c 91 3c
       0.0331683 0.20968196 0.04189495 0.01775948
000030 11 30 3c 3e ad f1 09 3d 5f e8 35 3d
       0.18377711 0.033677746 0.04441106

teacher.model.9.weight f4 [1, 15]
000000 eb 18 c0 be 23 2a 97 3e a9 fc 01 bf fa bc 7f be
       -0.3751901 0.29524335 -0.50776154 -0.24974433
000010 63 ef ae 3e 68 dd dc be 3f be 9f 3e 34 aa 95 3e
       0.34167013 -0.4313767 0.31199834 0.29231417
000020 f3 e3 90 3e af f3 ce be 08 af 96 3e 55 d8 72 3e
       0.2829891 -0.4042029 0.29430413 0.23715337
000030 28 ed f9 be d1 f2 b9 3e 07 cf a8 3e
       -0.48813748 0.36318067 0.3297045
