pretrained/compas_race.ckpt (torch, 44010 bytes, 28 tensors)

student.0.weight f4 [40, 10]
0	0xbbfe5687	-0.0077617797
1	0xbe2b9098	-0.16754377
2	0x3dc6657f	0.096873276
3	0xbd9d074e	-0.07667409
4	0x3f0fc436	0.5615877
5	0x3e50959a	0.20369568
6	0x3f2618cb	0.6488158
7	0x3f2e40ed	0.6806782
8	0xbd2b0abc	-0.041758284
9	0x3d3f6ed2	0.046736546
10	0x3dda262d	0.10651813
11	0xbf0d78f6	-0.55262697
12	0xbdbcd4b7	-0.0922026
13	0x3d8f9b56	0.0701205
14	0xbd546658	-0.051855415
15	0xbe2cc568	-0.1687218
16	0xbe5e7004	-0.21722418
17	0xbe41d5a0	-0.18929148
18	0x3e324564	0.17409283
19	0xbf1172a1	-0.56815535
20	0x3d10d8c6	0.03536298
21	0x3e527fa1	0.20556499
22	0xbe7e1d24	-0.24815804
23	0x3da8d590	0.08243859
24	0xbe585f1f	-0.21130036
25	0xbf0bfa23	-0.54678553
26	0xbe1ca90b	-0.1529886
27	0xbe690509	-0.22755827
28	0x3dcc21e4	0.099674016
29	0xbe2dcbf1	-0.16972329
30	0xbb0a9ca3	-0.0021150492
31	0xbe23c417	-0.15992771
32	0x3e2970f3	0.16546993
33	0xbd2f73e9	-0.04283515
34	0x3ecb9b99	0.3976715
35	0x3f0c33fb	0.54766816
36	0x3efd8966	0.4951889
37	0x3f23f829	0.6405054
38	0x3dc1b9cd	0.09459267
39	0xbd834bc0	-0.064109325
40	0x3dc03c62	0.09386517
41	0xbd8adbde	-0.067802176
42	0xbea69d0e	-0.32541698
43	0x3e3bee93	0.18352728
44	0x3dd3f431	0.1034931
45	0xbe0891d9	-0.13336886
46	0xbe039c88	-0.1285268
47	0xbe3a9cea	-0.1822392
48	0x3db3cd80	0.087794304
49	0xbe43f047	-0.19134627
50	0x3c8ae107	0.016953005
51	0xbd75576b	-0.05989782
52	0x3d9a7fa3	0.07543876
53	0x3df847fb	0.12123104
54	0x3f0442f9	0.5166469
55	0x3f41fa1b	0.75772256
56	0x3f18b38a	0.59648955
57	0x3f2af541	0.6678048
58	0x3d87be67	0.06628113
59	0x3dc58ad5	0.09645621
60	0xbc6d56c2	-0.014486017
61	0xbe10424e	-0.14087793
62	0xbdcf4156	-0.10119884
63	0xbe513689	-0.2043096
64	0x3ecd3ca7	0.40085337
65	0x3f019aa2	0.50626576
66	0x3c7dd381	0.015492321
67	0x3f1ceb0b	0.6129615
68	0xbe9115ec	-0.28337038
69	0x3c53fa89	0.01293815
70	0xbb03fe09	-0.002014043
71	0x3e090353	0.13380174
72	0x3e156a77	0.14591394
73	0x3e0dadbc	0.13835806
74	0x3e879be7	0.26486132
75	0x3f3213c0	0.69561386
76	0x3f00b001	0.5026856
77	0x3edcd737	0.43132946
78	0x3dfcb099	0.12338371
79	0x3ded1f80	0.11578274
80	0x3cc55be6	0.024091672
81	0x3eaed122	0.3414393
82	0x3ca14f93	0.019691264
83	0x3e23f855	0.160127
84	0xbe8b84a2	-0.27249628
85	0xbe85798b	-0.26069292
86	0xbeed7f6e	-0.46386284
87	0xbf187bed	-0.59564096
88	0xbf1b5460	-0.6067562
89	0xbd66441f	-0.05621731
90	0xbc92f0d9	-0.01793711
91	0xbe831bf0	-0.25607252
92	0x3e5143a7	0.20435964
93	0xbd64e950	-0.055886567
94	0x3f129a2e	0.5726651
95	0x3f12272e	0.57091033
96	0xbd6c6850	-0.057716668
97	0x3ee79375	0.45229688
98	0xbcf3b21f	-0.02974802
99	0x3dda8ec0	0.10671759
100	0x3dbce0ce	0.092225656
101	0x3e10e888	0.14151204
102	0xbea67e21	-0.32518104
103	0x3c8c4bd2	0.017125998
104	0xbe6d62f9	-0.23182286
105	0x3d2f0590	0.042729914
106	0xbe2cdccb	-0.16881101
107	0x3eaa3837	0.33246014
108	0xbdbe4938	-0.09291309
109	0x3d942c9a	0.072350696
110	0xbbf5a9e2	-0.0074970583
111	0x3e86bdda	0.2631672
112	0xbe1b5de2	-0.15172532
113	0x3cf86ae5	0.030324409
114	0xbe4f9101	-0.20270158
115	0xbeff9676	-0.4991948
116	0xbeb045d1	-0.34428266
117	0xbf05a961	-0.52211577
118	0xbebb05ad	-0.36527768
119	0xbd938c7d	-0.072045304
120	0x3babc82e	0.005242369
121	0xbe40cdd4	-0.18828517
122	0xbddf7bbc	-0.10912272
123	0xbde31029	-0.11087067
124	0xbecbd88c	-0.3981365
125	0xbeda45cc	-0.42631376
126	0xbef83db5	-0.4848458
127	0xbe3fd1c7	-0.18732367
128	0xbd817240	-0.063206196
129	0xbdddea94	-0.10835758
130	0xbe676873	-0.22598438
131	0x3ead2900	0.33820343
132	0x3ebd2e98	0.3694961
133	0xbe200dd7	-0.1563028
134	0x3e8c4630	0.273973
135	0x3e56ab3c	0.20963758
136	0x3e55a51a	0.20863762
137	0x3e35e197	0.17761837
138	0x3e66695f	0.22501133
139	0x3e7be9b4	0.2460087
140	0x3ce086bd	0.027407998
141	0xbde85380	-0.11344051
142	0xbea35ba0	-0.31905842
143	0x3da9fbce	0.08299981
144	0xbe897bb0	-0.2685218
145	0xbeb7a617	-0.35868904
146	0xbe28cec9	-0.16485132
147	0xbf0a8787	-0.5411305
148	0xbdc8481a	-0.09779377
149	0x3c074b6e	0.00825773
150	0x3bca591c	0.0061751734
151	0xbe2e4186	-0.17017183
152	0x3e43cdac	0.19121426
153	0xbe42617b	-0.18982498
154	0x3efcc3f8	0.49368262
155	0x3f09494f	0.53627485
156	0x3f20a1a7	0.6274666
157	0x3efed6d2	0.4977327
158	0x3d0cad01	0.034344677
159	0xbe586cf3	-0.21135311
160	0xbb0aac1c	-0.0021159714
161	0x3e1d67fa	0.15371695
162	0x3dff746a	0.12473376
163	0x3dd9c11e	0.10632537
164	0x3ed25fdb	0.41088757
165	0x3f4165f6	0.75546205
166	0xbdbcfecb	-0.092282854
167	0x3efd3f90	0.49462557
168	0x3e3e330d	0.18574162
169	0x3e0dbefd	0.13842387
170	0xbecbf2d2	-0.39833695
171	0x3e2d7100	0.16937637
172	0xbe9ccb9a	-0.30624086
173	0xbec8de7b	-0.3923224
174	0x3f2daf8c	0.6784599
175	0x3f2df6bf	0.6795463
176	0x3de703ac	0.11279997
177	0x3f2f4942	0.6847116
178	0xbe567504	-0.20943075
179	0x3e873ddb	0.2641438
180	0x3e019917	0.12656055
181	0x3e5adeca	0.2137405
182	0xbe490c43	-0.19633584
183	0x3d37143f	0.044697043
184	0xbe5efa55	-0.21775182
185	0xbed30658	-0.41215777
186	0xbe85d902	-0.26142126
187	0x3daa4f02	0.08315851
188	0xbe70e932	-0.23526457
189	0x3d961ee1	0.073301084
190	0xbd537af5	-0.051630933
191	0xbd2a3c36	-0.041561328
192	0xbe0ec5ba	-0.13942614
193	0x3ef3b64c	0.4760002
194	0xbe42f337	-0.19038092
195	0x3c113bb0	0.008864328
196	0xbd05e8cd	-0.03269272
197	0xbef03c86	-0.46921176
198	0xbec19fd0	-0.3781724
199	0xbe28531b	-0.16437952
200	0xbc3332ef	-0.0109374365
201	0x3df61ecb	0.12017592
202	0x3e458ff7	0.192932
203	0x3d93f419	0.07224292
204	0xbe139777	-0.14413248
205	0x3f5c6cc7	0.8610348
206	0x3f027f7e	0.5097579
207	0x3f54be83	0.831032
208	0x3e45b14c	0.19305915
209	0x3e19797f	0.14987753
210	0x3c8f6d08	0.017508045
211	0xbe6f7caf	-0.23387407
212	0x3ca75214	0.02042488
213	0x3e9b4ec4	0.3033353
214	0xbdd9bab5	-0.10631315
215	0xbf0fbf57	-0.56151336
216	0xbee50da7	-0.44736978
217	0xbe23a385	-0.15980347
218	0x3eb0d3aa	0.34536487
219	0x3d5140fe	0.051087372
220	0x3d6c69a6	0.05771794
221	0x3d32d109	0.043656383
222	0xbe962079	-0.2932165
223	0x3e96d7e9	0.294616
224	0x3d77ac09	0.0604668
225	0x3d36e64b	0.04465322
226	0xbea0bce9	-0.31394127
227	0xbdddf2c6	-0.10837321
228	0xbe0bdf1b	-0.13659327
229	0xbe2a71b4	-0.16644937
230	0xb98cdd82	-0.00026867917
231	0xbd63bddc	-0.055600986
232	0xbcb1b051	-0.02169052
233	0xbaa7892f	-0.0012781973
234	0xbe725dea	-0.23668638
235	0x3f0c7158	0.5486045
236	0x3f32726e	0.69705856
237	0x3f59211a	0.84816134
238	0xbd814919	-0.063127704
239	0xbd407a8c	-0.04699187
240	0xbe1bcfe7	-0.15216027
241	0xbef561e4	-0.47926247
242	0x3e9e732b	0.3094724
243	0xbe45ea4a	-0.19327655
244	0x3f392448	0.72320986
245	0x3dfd43c8	0.12366444
246	0x3da96b00	0.08272362
247	0x3eceb59a	0.40372926
248	0xbdfe6935	-0.124224104
249	0x3e348fa3	0.17632918
250	0xbb2b2e1d	-0.0026120015
251	0x3c6d9524	0.01450089
252	0x3db6e691	0.08930696
253	0x3d1cc64c	0.038275048
254	0x3ea69aba	0.32539922
255	0x3f3bc181	0.7334214

student.0.bias f4 [40]
0	0xbbef9fd3	-0.0073127537
1	0xbe962194	-0.29322493
2	0x3e6c1e3b	0.23058407
3	0xbc1657ce	-0.009176208
4	0xbe4aaa2c	-0.19791478
5	0xbe2782a5	-0.1635843
6	0x3e809d75	0.2512013
7	0xbe8c8342	-0.27443892
8	0xbdb76e18	-0.089565456
9	0xbd66f0d0	-0.056382
10	0xbc9cc67e	-0.019137617
11	0x3dfa4d5b	0.12221786
12	0x3e7c2b55	0.24625905
13	0xbeb4d8c2	-0.35321623
14	0x3e0b1e23	0.13585715
15	0x3e146c48	0.14494431
16	0xbe9a787f	-0.30170056
17	0xbd444c3f	-0.047924276
18	0xbdbbd637	-0.091717176
19	0x3dfcdc88	0.123467505
20	0xbec0b397	-0.37637016
21	0xbd856162	-0.06512715
22	0x3dfbeb55	0.123007454
23	0x3d0db839	0.034599517
24	0xbcd0ffd7	-0.025512619
25	0xbd83d86c	-0.064377636
26	0x3cef31e6	0.029198598
27	0xbe8f8821	-0.28033546
28	0x3e05ea42	0.13077644
29	0x3db63604	0.088970214
30	0xbe6d904e	-0.23199579
31	0xbe2985b9	-0.16554917
32	0xbde30ebc	-0.11086795
33	0xba3aadd5	-0.000712124
34	0x3e249904	0.16073996
35	0xbf17c869	-0.59290177
36	0xbe3bb144	-0.1832934
37	0xbe683932	-0.22678068
38	0x3e6bd6fe	0.23031232
39	0xbe229af8	-0.15879428

student.3.weight f4 [25, 40]
0	0x3e8af532	0.27140194
1	0xbb278f56	-0.0025567613
2	0xbe8c0c70	-0.2735324
3	0x3e600e39	0.21880426
4	0x3d148ba6	0.03626599
5	0x3ee3901e	0.4444589
6	0x3d06a5e2	0.032873042
7	0x3dcdc48b	0.10047253
8	0xbe01ced9	-0.12676562
9	0x3e73406f	0.23755048
10	0xbd20cde8	-0.039258868
11	0xbddba8e6	-0.10725574
12	0xbe12374e	-0.1427891
13	0x3e2096d9	0.15682544
14	0xbda681e5	-0.08130244
15	0x3e52e458	0.20594919
16	0x3e57f180	0.21088219
17	0x3ea722c8	0.32643723
18	0x3c9d0275	0.01916621
19	0xbe206a46	-0.1566554
20	0x3ef8efe3	0.4862052
21	0x3d0ee3d8	0.034885257
22	0xbdd02240	-0.10162783
23	0x3ec3d091	0.3824506
24	0x3e837b58	0.2568004
25	0x3ebb1091	0.36536077
26	0xbd74710e	-0.05967813
27	0x3d5f3eec	0.054503366
28	0x3d91c533	0.07117691
29	0xbe1dd6b7	-0.15413938
30	0xbdcc1bfd	-0.09966276
31	0xbd329f81	-0.043609146
32	0xbd55e75e	-0.052222602
33	0x3c82406f	0.015899865
34	0x3ed829f3	0.42219505
35	0x3e210874	0.15725881
36	0x3d144b3b	0.036204558
37	0x3eab89db	0.33503613
38	0xbe6f9516	-0.23396716
39	0x3d64c2f5	0.055849988
40	0xbec22c27	-0.3792431
41	0xbe671c88	-0.22569478
42	0x3d753ea0	0.059874177
43	0xbebe36d1	-0.37151197
44	0xbdb7a1d0	-0.0896641
45	0xbc87aee2	-0.016562883
46	0xbdfda472	-0.12384881
47	0xbe762ac0	-0.24039745
48	0x3d1352ec	0.035967752
49	0xbe9e05e9	-0.30863884
50	0x3cb5fcaf	0.022215215
51	0xbc760f1c	-0.015018251
52	0xbba47716	-0.005019079
53	0xbe0f6098	-0.14001691
54	0xbd6eec50	-0.058330834
55	0xbf04a426	-0.5181297
56	0xbe422a61	-0.18961479
57	0xbe8c990e	-0.2746052
58	0x3d7380c9	0.05944899
59	0x3e32bfa2	0.17455915
60	0xbe2ff696	-0.17183909
61	0xbdfa352b	-0.12217172
62	0xbdaeac91	-0.08529008
63	0xbed892f0	-0.42299604
64	0xbe1f5866	-0.15561065
65	0xbe8bd12d	-0.27308026
66	0x3db58823	0.08863857
67	0x3dd9d79a	0.10636826
68	0xbe22bf42	-0.15893272
69	0x3d66265b	0.056188922
70	0x3db254e7	0.087076
71	0x3e5a2562	0.21303323
72	0x3e1465b9	0.14491929
73	0xbd8a0bf5	-0.06740562
74	0xbe9b7faa	-0.30370837
75	0xbef4c234	-0.47804415
76	0x3b4bcef2	0.003109869
77	0x3d7e9c46	0.062160753
78	0xbae000b1	-0.001709005
79	0x3e2a175d	0.16610475
80	0xbed0f4c1	-0.40811732
81	0xbe3f5f69	-0.1868874
82	0xbca841fd	-0.020539278
83	0xbec78011	-0.38964894
84	0x3e2aeb56	0.16691336
85	0xbe3936ef	-0.18087362
86	0xbeab8e49	-0.33506992
87	0xbe4a5bb9	-0.19761552
88	0x3e2b902f	0.1675422
89	0xbe8148bc	-0.25250804
90	0x3d0a5885	0.033775825
91	0x3e08ccfe	0.13359448
92	0x3d35409b	0.044251066
93	0x3d149d9e	0.036283128
94	0xbcf2961c	-0.029612593
95	0xbef72e68	-0.48277593
96	0xbdeee99b	-0.116656505
97	0xbec1abf9	-0.37826517
98	0xba0923ea	-0.0005231487
99	0x3d548bbf	0.051891085
100	0xbc04403e	-0.008071957
101	0xbda86a8b	-0.082234465
102	0xbc27351f	-0.010205536
103	0xbe988a2c	-0.29792917
104	0xbe0756a5	-0.13216646
105	0xbe904810	-0.2817998
106	0x3e3e25d2	0.18569115
107	0xbc2b1d20	-0.010443956
108	0xbd4ee043	-0.05050684
109	0x3e299390	0.16560197
110	0x3d35787f	0.044304367
111	0x3c43e5af	0.011956616
112	0xbe1d7d9f	-0.15379952
113	0x3e10999c	0.14121097
114	0xbe763c2e	-0.24046394
115	0xbf0b3d4e	-0.5439042
116	0x3db3de22	0.08782603
117	0x3e64d724	0.22347695
118	0x3afcfc5c	0.0019301283
119	0x3dc7416b	0.09729274
120	0x3df58dbf	0.119899265
121	0xbe5c5f4d	-0.2152073
122	0x3df13b81	0.117789276
123	0x3e0ab879	0.13546933
124	0x3d9147b3	0.07093754
125	0x3f04e2b5	0.5190843
126	0xbddb10ee	-0.106965885
127	0x3e5fd1f5	0.21857436
128	0x3e01e4bd	0.12684913
129	0x3caab19b	0.020836642
130	0x3e1acc6c	0.15117043
131	0x3ddc073f	0.107435696
132	0xbdeae9fd	-0.11470411
133	0xbdb0a62e	-0.08625446
134	0xbd8758cd	-0.06608734
135	0xbdc96bb8	-0.09834999
136	0x3e5497a0	0.20760965
137	0x3c814d57	0.015783949
138	0xbd889341	-0.066687115
139	0x3dfb88ac	0.122819275
140	0x3e9d229f	0.30690476
141	0xbc4120df	-0.011787622
142	0x3d32de53	0.043669056
143	0x3ecb7c4c	0.39743268
144	0x3de7f557	0.11326092
145	0x3eaabcf7	0.33347294
146	0x3d286ddd	0.0411204
147	0xbe138b04	-0.14408499
148	0x3c2feead	0.010738057
149	0xbc8740d6	-0.016510408
150	0xbdb68e09	-0.0891381
151	0x3c313611	0.010816113
152	0x3df968f2	0.1217822
153	0xbdb61e9d	-0.08892558
154	0xbc509279	-0.012730234
155	0xbd4c301d	-0.049850572
156	0x3afe4ba9	0.0019401211
157	0x3ef230c6	0.47302836
158	0xbc392f4b	-0.011302779
159	0x3dd1ada0	0.102381945
160	0x3e86af2b	0.26305518
161	0xbe40c2db	-0.18824331
162	0xbe813158	-0.2523296
163	0x3ea8ab68	0.32943273
164	0xbdedbd52	-0.116083756
165	0x3f0a0598	0.53914785
166	0x3e023948	0.12717164
167	0x3e067d4a	0.13133731
168	0xbe3a3af4	-0.18186551
169	0x3eb6b746	0.35686702
170	0x3d0ac3dc	0.033878192
171	0xbe6b052e	-0.22951195
172	0x3d8492b1	0.06473292
173	0x3c70d30b	0.014698754
174	0xbe1a266b	-0.15053718
175	0x3cf34c9c	0.029699616
176	0x3e227c8d	0.15867825
177	0x3eb78ef2	0.35851246
178	0x3bcdd888	0.006281916
179	0xbe3636df	-0.17794369
180	0x3e87f60b	0.26554903
181	0x3bf0783f	0.007338553
182	0xbe0bcd77	-0.13652597
183	0x3f09cb6e	0.53826034
184	0xbcb07b4b	-0.021543166
185	0x3e910699	0.28325346
186	0xbd08ca58	-0.033396095
187	0x3e0df209	0.1386186
188	0x3d9c85f2	0.076427355
189	0xbd38e699	-0.04514179
190	0xbe87145e	-0.26382726
191	0xbae7e5e7	-0.0017692418
192	0xbba7c2c0	-0.0051196516
193	0x3d0d3e44	0.03448321
194	0x3eb8c0b1	0.36084512
195	0x3cf9732e	0.03045043
196	0x3da5f48a	0.08103283
197	0x3e96d71f	0.29461
198	0xbeb7367a	-0.3578375
199	0xbb6b226c	-0.0035878671
200	0xbe9b681f	-0.30352876
201	0xbe6bece9	-0.23039593
202	0xbdc702fc	-0.09717366
203	0xbe6f617b	-0.2337703
204	0x3dd95857	0.106125526
205	0xbd182eae	-0.037153892
206	0xbf06731f	-0.5251941
207	0xbe37a4ac	-0.17933911
208	0x3d436349	0.047702108
209	0xbe1a4ff1	-0.15069558
210	0x3cbd371d	0.02309757
211	0x3da36b76	0.07979481
212	0x3dbee5fb	0.09321209
213	0xbe59fdb5	-0.21288188
214	0xbd4461cd	-0.047944833
215	0xbee8d93e	-0.45478243
216	0xbdd7ddd8	-0.1054036
217	0xbe7e0d48	-0.24809754
218	0xbd402201	-0.04690743
219	0x3df938ca	0.12169035
220	0xbdc9c121	-0.098512895
221	0xbd7fdf8f	-0.06246906
222	0x3dadeb3c	0.08492133
223	0xbf0953b0	-0.5364332
224	0xbe19c303	-0.15015797
225	0xbe2ba609	-0.16762556
226	0x3e0b299b	0.1359009
227	0xbd2bea40	-0.041971445
228	0xbe6d3573	-0.2316492
229	0xbd42443a	-0.047428347
230	0x3e5b062f	0.21389078
231	0x3e03fa6b	0.12888496
232	0xbd8ac956	-0.06776683
233	0x3e1fab24	0.15592629
234	0xbefacc04	-0.48983777
235	0xbf25bbc1	-0.64739615
236	0x3c25e390	0.010125056
237	0x3d911305	0.07083706
238	0x3de03fa1	0.10949636
239	0x3d734045	0.059387464
240	0x3e17ea1a	0.14835396
241	0x3e26b2b0	0.16279101
242	0xbbd75fb7	-0.0065726894
243	0x3e284553	0.16432695
244	0xbd00cdab	-0.03144614
245	0xbdb719b6	-0.08940451
246	0xbe932eb3	-0.28746566
247	0x3c9092c4	0.017648108
248	0x3e1c846a	0.15284887
249	0xbd874768	-0.066054165
250	0x3d5e2953	0.05423863
251	0x3d1d3997	0.038385
252	0xbc648919	-0.013948702
253	0xbe63222f	-0.22181009
254	0x3dba097f	0.090838425
255	0x3dce1fae	0.10064636

student.3.bias f4 [25]
0	0xbb03f9df	-0.0020137948
1	0x3e033756	0.12814078
2	0xbd042a77	-0.03226706
3	0x3caffd76	0.021483164
4	0xbcaa9a26	-0.020825457
5	0x3c997052	0.018730316
6	0x3c17ebc1	0.009272517
7	0x3dc434fd	0.09580419
8	0x3c74715d	0.014919606
9	0xbc7e19e1	-0.0155091
10	0x3d922a0e	0.071369275
11	0x3e1686b5	0.14699824
12	0x3c1638ab	0.009168784
13	0x3e1b3a70	0.15159011
14	0x3d900806	0.0703278
15	0xbc6b58f3	-0.014364469
16	0x3dfd6228	0.123722374
17	0xbe17f509	-0.14839567
18	0x3d0a4ed3	0.03376658
19	0x3dc81876	0.097702906
20	0xbd955c0c	-0.07292947
21	0xbe4d6d78	-0.2006129
22	0xbd01cb56	-0.031688057
23	0xbe3e8171	-0.18604065
24	0x3e05cbc6	0.13066015

student.6.weight f4 [15, 25]
0	0x3df0315a	0.11728163
1	0xbe9a90b6	-0.3018853
2	0xbe1963c4	-0.14979464
3	0x3d2d86d2	0.042364903
4	0x3eca70b2	0.39539105
5	0xbe8c8656	-0.2744624
6	0xbe14d6c9	-0.14535059
7	0x3dd582b7	0.104253225
8	0x3d5b6cec	0.053570673
9	0xbe8af778	-0.2714193
10	0xbcaf403b	-0.021392932
11	0xbe85d549	-0.26139286
12	0x3dd7b7ca	0.10533102
13	0xbe7042f2	-0.23463038
14	0xbdfbe7d3	-0.12300076
15	0xbe44cc34	-0.19218522
16	0x3d974f4c	0.073881716
17	0x3f135c66	0.57562864
18	0x3e12ccb8	0.14335907
19	0xbc3f2156	-0.011665663
20	0xbdb76847	-0.08955436
21	0x3ea1e347	0.3161871
22	0xbc7f8848	-0.015596457
23	0x3ec9d8eb	0.39423308
24	0xbe1567a4	-0.14590317
25	0xbe52ed00	-0.20598221
26	0x3e2468e7	0.16055642
27	0x3e9f5ae1	0.31124023
28	0x3e00d37c	0.12580675
29	0xbe537fd2	-0.20654228
30	0x3d0aaf27	0.033858445
31	0x3e0b5e98	0.13610303
32	0x3cad3029	0.021141129
33	0xbdd6e404	-0.10492709
34	0x3e2e8591	0.17043139
35	0x3e228388	0.15870488
36	0x3dc78bd0	0.09743464
37	0xbe08bcb2	-0.13353232
38	0x3e39cad6	0.18143782
39	0x3d11400d	0.035461474
40	0x3dd260d5	0.102723755
41	0x3df15c37	0.11785167
42	0xbe129191	-0.14313342
43	0xbe517173	-0.20453434
44	0xbc5cba0b	-0.0134720905
45	0x3ead87ab	0.3389257
46	0x3c2dcb0d	0.010607493
47	0x3e4963c6	0.19666967
48	0xbe52240c	-0.20521563
49	0x3dde1fae	0.10845886
50	0x3e94adcc	0.29038846
51	0xbe5b1376	-0.21394143
52	0xbe8e71fe	-0.27821344
53	0x3e3da582	0.18520167
54	0x3eba0e5d	0.36339083
55	0xbe387301	-0.1801262
56	0xbe8d1e19	-0.27562025
57	0x3e5da33b	0.21644299
58	0x3e3d3ecb	0.18480985
59	0x3d0c671a	0.034278013
60	0xbe890efb	-0.26769242
61	0xbe7b0ab2	-0.24515799
62	0x3eb68b17	0.35652992
63	0xbe86fb14	-0.26363432
64	0x3db2cecb	0.08730849
65	0xbe0402c2	-0.12891677
66	0xbe190abb	-0.149455
67	0x3f3283a4	0.6973212
68	0x3eaa3861	0.3324614
69	0xbde6a607	-0.11262136
70	0x3d7c0567	0.06152859
71	0x3e50e00f	0.20397972
72	0xbe47d6a5	-0.19515474
73	0x3eeffe6d	0.468738
74	0xbd2aa9ec	-0.041665956
75	0x3e5835d5	0.21114285
76	0xbddc141d	-0.10746024
77	0xbdc6cb3b	-0.09706732
78	0xbc7b8183	-0.015350702
79	0x3ebb31cf	0.36561438
80	0xbd669251	-0.056291882
81	0xbdae054f	-0.08497106
82	0xbd012431	-0.031528655
83	0x3e744560	0.2385459
84	0xbe3ee033	-0.18640213
85	0xbde10c9b	-0.109887324
86	0xbeb04a8f	-0.34431884
87	0x3ddb037a	0.106940225
88	0xbdc55377	-0.0963506
89	0xbdd669cc	-0.10469398
90	0xbb154c71	-0.0022781158
91	0xbd1e05d8	-0.03857979
92	0x3f2e6c6c	0.6813419
93	0x3ed2a46c	0.4114107
94	0xbe06ce70	-0.13164687
95	0xbe8820fa	-0.2658766
96	0x3ea2a70e	0.31768078
97	0xbd5c1e66	-0.053739928
98	0x3ecfaa10	0.40559435
99	0xbc69d83c	-0.014272746
100	0x3e66293a	0.22476664
101	0xbd97d05e	-0.0741279
102	0xbd39ce0f	-0.04536253
103	0x3e622b1c	0.22086757
104	0x3ea7d184	0.32777035
105	0xbade445d	-0.001695763
106	0xbe8df41e	-0.2772531
107	0x3dbc6e03	0.092006706
108	0x3dac920b	0.08426293
109	0xbe1d8e53	-0.15386324
110	0xbe16f9a5	-0.1474367
111	0xbea6fc1c	-0.3261422
112	0x3d34c6d2	0.044134922
113	0xbdccb39f	-0.099951975
114	0xbe842102	-0.25806433
115	0xbe76a293	-0.24085455
116	0xbe8530cb	-0.2601379
117	0x3ea0195d	0.3126935
118	0x3e458a1a	0.19290963
119	0xbe60e820	-0.21963549
120	0xbe80c01a	-0.25146562
121	0x3ebc9c96	0.36838216
122	0x3d57c629	0.052679215
123	0x3eb3d19c	0.35120857
124	0xbe7cebaa	-0.24699274
125	0x3e6930d6	0.22772536
126	0xbdd8c4b1	-0.10584391
127	0xbe7ba815	-0.24575837
128	0x3e4b7c69	0.19871677
129	0x3ec1e382	0.37868887
130	0xbd7719f3	-0.06032748
131	0xbe6a5612	-0.22884396
132	0x3e23a5e6	0.15981254
133	0x3d2016e0	0.039084315
134	0x3d1249aa	0.035714783
135	0x3da2f2a0	0.07956433
136	0xbdfd8315	-0.123785175
137	0x3e89bc78	0.26901603
138	0x3bc1ed94	0.005918214
139	0x3ccda205	0.025101671
140	0xbe11c467	-0.14235078
141	0xbde4b0f2	-0.11166562
142	0x3f1fdc8e	0.62445915
143	0x3d8e8e8d	0.06960783
144	0xbd1ca3eb	-0.03824226
145	0xbd6a962e	-0.05727213
146	0x3e7916d7	0.24325119
147	0xbe1e3a16	-0.15451846
148	0x3e9d98e5	0.30780712
149	0xbcde888c	-0.02716472
150	0xbe0ac265	-0.13550718
151	0x3e15e7d2	0.14639214
152	0x3c8fc170	0.017548293
153	0x3df5949c	0.119912356
154	0xbe164093	-0.1467307
155	0x3eaaf64e	0.3339104
156	0x3e605f7a	0.21911421
157	0x3e6d746c	0.23188943
158	0xbe210599	-0.15724792
159	0x3e6ce34e	0.23133585
160	0x3e8471d4	0.25868094
161	0x3e3a96b0	0.18221545
162	0xbe885c8f	-0.26633117
163	0x3eb00f9a	0.34386903
164	0x3e590f5d	0.21197267
165	0x3e6cb6c4	0.23116595
166	0x3df83e63	0.12121274
167	0xbe5b8c96	-0.21440348
168	0xbe8288a1	-0.25494865
169	0x3bee6822	0.007275597
170	0x3e8507c8	0.259825
171	0xbdc80174	-0.09765902
172	0x3e27efb2	0.1640003
173	0xbe07eb69	-0.13273396
174	0x3e6ad50c	0.22932833
175	0x3ea88d3e	0.3292026
176	0xbd9567dc	-0.072952
177	0xbd8193de	-0.063270316
178	0x3d8652c7	0.06558757
179	0x3ed9a5b6	0.4250924
180	0xbceb9a97	-0.028760238
181	0xbdf0d206	-0.11758809
182	0x3e4308be	0.19046304
183	0x3e05ebc3	0.13078217
184	0xbcadd0c6	-0.021217715
185	0xbd12796d	-0.035760332
186	0xbdb88de0	-0.090114355
187	0x3eadfb01	0.33980563
188	0xbe55601b	-0.20837443
189	0x3db60fee	0.08889757
190	0xbdef0ff6	-0.11672966
191	0xbe52a42f	-0.20570444
192	0x3ef71577	0.48258564
193	0x3e3bbd57	0.18333946
194	0xbe1a2834	-0.15054399
195	0xbe2541cb	-0.1613838
196	0x3e6b71d2	0.22992638
197	0xbe51b518	-0.20479238
198	0x3eb0d070	0.34534025
199	0xbdc4e249	-0.09613473
200	0xbd67214f	-0.05642825
201	0xbce53c7e	-0.027982946
202	0xbe10bf83	-0.14135556
203	0x3e5945e3	0.21218066
204	0x3d0f6f2d	0.035018135
205	0xbe50455a	-0.20338956
206	0xbe899300	-0.26869965
207	0x3c1156e8	0.008870818
208	0x3ed6b0bb	0.4193171
209	0x3db42007	0.08795171
210	0xbd790e82	-0.06080485
211	0xbe0250ab	-0.12726085
212	0x3e75441a	0.2395176
213	0xbe7600a3	-0.2402368
214	0x3d8d890c	0.06910905
215	0xbdb6768f	-0.08909332
216	0xbe31fde2	-0.17382005
217	0x3ed87937	0.4227998
218	0x3e281ea0	0.16417933
219	0xbe5798be	-0.2105436
220	0xbd8b6554	-0.06806436
221	0x3e4a11e2	0.19733384
222	0xbe2be9b4	-0.1678837
223	0x3edbb519	0.42911604
224	0x3cf59b4e	0.029981282
225	0xbe2a445c	-0.1662764
226	0x3e7a8681	0.24465372
227	0x3d6a83bf	0.05725455
228	0x3e470e17	0.19438969
229	0xbe405724	-0.18783242
230	0x3d8f1e44	0.069881946
231	0x3e1b0ca2	0.15141538
232	0xbd836408	-0.06415564
233	0xbdf6ee2d	-0.12057147
234	0x3e8b8287	0.27248022
235	0x3e909307	0.28237173
236	0x3e593d20	0.21214724
237	0xbe8f18df	-0.27948663
238	0x3e3dad95	0.18523248
239	0xbdf8b13a	-0.12143178
240	0x3e051e3a	0.12999812
241	0x3e506650	0.20351529
242	0xbde57d18	-0.112055
243	0xbe82e054	-0.25561774
244	0x3e65c6c3	0.22439103
245	0x3e71a557	0.23598228
246	0xbe821dd5	-0.25413385
247	0x3e9638d6	0.29340237
248	0xbe3a92ed	-0.1822011
249	0x3e14431a	0.14478722
250	0x3dbdd622	0.09269358
251	0xbe85e174	-0.2614857
252	0xbd798668	-0.060919195
253	0x3e9510b9	0.2911432
254	0x3f04640c	0.5171516
255	0xbe07d682	-0.13265422

student.6.bias f4 [15]
0	0x3e713862	0.23556665
1	0x3d983e4a	0.07433756
2	0x3e10ef43	0.14153771
3	0x3e2cafd1	0.16863944
4	0x3de1c4b5	0.11023847
5	0xbce20fb9	-0.027595388
6	0x3d8b79a9	0.06810314
7	0x3e3cc887	0.1843587
8	0x3ca09b8c	0.01960542
9	0x3e16208a	0.1466085
10	0x3dd14f52	0.10220207
11	0x3db2c299	0.08728523
12	0x3dddb15a	0.10824843
13	0x3d6fdceb	0.058560293
14	0x3ca70891	0.020389827

student.9.weight f4 [1, 15]
0	0xbebf4e8a	-0.37364608
1	0x3e36a839	0.1783761
2	0xbe9650cf	-0.29358527
3	0xbe97cfbf	-0.29650685
4	0xbf024674	-0.5088875
5	0xbef909be	-0.48640245
6	0x3e0f4f24	0.13995034
7	0xbe9403f3	-0.28909263
8	0xbf09a479	-0.5376659
9	0x3e09687e	0.13418767
10	0xbed0bac6	-0.40767497
11	0x3e3a7724	0.18209511
12	0xbeb371ba	-0.35047704
13	0x3e37b6ec	0.17940873
14	0x3e6cda9d	0.2313027

teacher.model.0.weight f4 [40, 10]
0	0xbbfe03f5	-0.0077519366
1	0xbe2b9379	-0.16755475
2	0x3dc5e54f	0.09662878
3	0xbd9d129a	-0.076695636
4	0x3f0fc2d9	0.5615669
5	0x3e50872c	0.20364064
6	0x3f2618bb	0.64881486
7	0x3f2e3ccd	0.68061525
8	0xbd2c91e9	-0.04213134
9	0x3d3e4a19	0.046457384
10	0x3dda192c	0.106493324
11	0xbf0d6f31	-0.5524779
12	0xbdbce253	-0.092228554
13	0x3d8e73e9	0.06955702
14	0xbd546658	-0.051855415
15	0xbe2cc06e	-0.16870281
16	0xbe5e6ff1	-0.2172239
17	0xbe41d26e	-0.18927929
18	0x3e323471	0.17402817
19	0xbf116caf	-0.56806463
20	0x3d10a8d0	0.035317242
21	0x3e5272af	0.20551561
22	0xbe7e2915	-0.24820359
23	0x3da9f540	0.08298731
24	0xbe585c3b	-0.21128933
25	0xbf0bfa18	-0.5467849
26	0xbe1ca90b	-0.1529886
27	0xbe690398	-0.22755277
28	0x3dcd163a	0.10014005
29	0xbe2de4c0	-0.16981792
30	0xbb0c57f6	-0.0021414733
31	0xbe232e20	-0.15935564
32	0x3e2964fa	0.16542426
33	0xbd2ec65f	-0.04266965
34	0x3ecb976a	0.39763957
35	0x3f0c3227	0.54764026
36	0x3efd891d	0.49518672
37	0x3f23f3ec	0.6404407
38	0x3dc2e358	0.09516019
39	0xbd824f64	-0.06362799
40	0x3dbfe3a8	0.09369594
41	0xbd8afb91	-0.06786264
42	0xbea6f63e	-0.32609743
43	0x3e3bf48d	0.18355007
44	0x3dd3f2f6	0.103490755
45	0xbe0891f3	-0.13336925
46	0xbe039d94	-0.1285308
47	0xbe3a9ff9	-0.18225087
48	0x3db3eafd	0.08785055
49	0xbe43d4d1	-0.19124152
50	0x3c8b64ac	0.017015778
51	0xbd73e533	-0.059544753
52	0x3d9aa7ec	0.0755156
53	0x3df86183	0.12127974
54	0x3f043810	0.51648045
55	0x3f41f7b2	0.7576858
56	0x3f18b338	0.59648466
57	0x3f2aec6d	0.6676701
58	0x3d87cbcf	0.0663067
59	0x3dc5c215	0.09656159
60	0xbc6cc792	-0.014451878
61	0xbe10850a	-0.1411325
62	0xbdcea730	-0.10090482
63	0xbe512e49	-0.20427813
64	0x3ecd47fa	0.40093976
65	0x3f019a8f	0.5062646
66	0x3c7dd404	0.015492443
67	0x3f1cec47	0.6129803
68	0xbe9115eb	-0.28337035
69	0x3c53e3ed	0.01293276
70	0xbb067b15	-0.002052014
71	0x3e0954cf	0.13411258
72	0x3e156b00	0.14591599
73	0x3e0dc1a6	0.13843402
74	0x3e874db8	0.26426482
75	0x3f321232	0.69559014
76	0x3f00afaf	0.5026807
77	0x3edcc939	0.4312227
78	0x3dfd1e90	0.12359345
79	0x3ded28a9	0.11580021
80	0x3cc636a2	0.024195973
81	0x3eaeda19	0.3415077
82	0x3ca23c32	0.019804094
83	0x3e23cc3d	0.1599588
84	0xbe8b84a3	-0.2724963
85	0xbe8576f8	-0.26067328
86	0xbeed7f6f	-0.46386287
87	0xbf187bea	-0.5956408
88	0xbf1b4b12	-0.60661423
89	0xbd668c3c	-0.05628608
90	0xbc94101d	-0.01807409
91	0xbe831d7a	-0.25608426
92	0x3e5136a4	0.20431
93	0xbd64f61d	-0.055898774
94	0x3f1294dc	0.5725839
95	0x3f1224b9	0.57087284
96	0xbd6c6850	-0.057716668
97	0x3ee78d17	0.4522483
98	0xbcee661e	-0.029101428
99	0x3ddad252	0.10684647
100	0x3dbcec8c	0.09224805
101	0x3e110d14	0.14165145
102	0xbea67c81	-0.32516864
103	0x3c8d1871	0.017223569
104	0xbe6d62f9	-0.23182286
105	0x3d2ee42d	0.042698074
106	0xbe2cdd7d	-0.16881366
107	0x3eaa2019	0.33227614
108	0xbdbf2bb0	-0.093345046
109	0x3d92d034	0.07168618
110	0xbbf13468	-0.0073609836
111	0x3e86c984	0.2632562
112	0xbe1b4464	-0.15162808
113	0x3cf7edf6	0.030264836
114	0xbe4f9101	-0.20270158
115	0xbeff9676	-0.4991948
116	0xbeb045c1	-0.34428218
117	0xbf05a961	-0.52211577
118	0xbebb0cea	-0.3653329
119	0xbd92e21a	-0.07172032
120	0x3bbc4120	0.005745068
121	0xbe408803	-0.18801884
122	0xbdded9e9	-0.10881407
123	0xbde21b16	-0.110403225
124	0xbecbd88c	-0.3981365
125	0xbeda45cc	-0.42631376
126	0xbef83db5	-0.4848458
127	0xbe3fb383	-0.18720822
128	0xbd813a6d	-0.06309972
129	0xbddd6883	-0.1081095
130	0xbe678be4	-0.22611958
131	0x3ead48e0	0.33844662
132	0x3ebd30dd	0.36951342
133	0xbe1ff801	-0.1562195
134	0x3e8bd661	0.27311996
135	0x3e56a05e	0.20959613
136	0x3e55a51a	0.20863762
137	0x3e35d6f0	0.17757773
138	0x3e66876c	0.22512597
139	0x3e7c5ba7	0.24644338
140	0x3ce0c805	0.027439127
141	0xbde888af	-0.11354195
142	0xbea366f9	-0.319145
143	0x3daa16c7	0.08305126
144	0xbe897bb0	-0.2685218
145	0xbeb7a603	-0.35868844
146	0xbe28ce67	-0.16484986
147	0xbf0a8787	-0.5411305
148	0xbdc89967	-0.09794884
149	0x3c04b823	0.008100542
150	0x3bcbab13	0.006215462
151	0xbe2e6a8d	-0.17032833
152	0x3e43e90f	0.19131874
153	0xbe4261ff	-0.18982695
154	0x3efcc82f	0.49371478
155	0x3f094912	0.5362712
156	0x3f209dd9	0.62740856
157	0x3efed64b	0.49772868
158	0x3d0b5c25	0.034023423
159	0xbe57f802	-0.21090701
160	0xbb0352b6	-0.0020038313
161	0x3e1dc8f8	0.15408695
162	0x3dffc2ce	0.12488328
163	0x3dd9c985	0.1063414
164	0x3ed24ca3	0.41074094
165	0x3f416467	0.75543827
166	0xbdbd80bf	-0.09253072
167	0x3efd3b35	0.49459234
168	0x3e3e8bfc	0.18608087
169	0x3e0e0d7d	0.13872333
170	0xbecbf39d	-0.398343
171	0x3e2d1ef4	0.16906339
172	0xbe9cd290	-0.30629396
173	0xbec8de97	-0.39232323
174	0x3f2daf4e	0.6784562
175	0x3f2df2ed	0.679488
176	0x3de703ad	0.11279998
177	0x3f2f446b	0.6846377
178	0xbe55cddf	-0.20879315
179	0x3e875efa	0.2643965
180	0x3e01b498	0.12666547
181	0x3e5b0297	0.21387707
182	0xbe48ab0e	-0.19596502
183	0x3d361918	0.044457525
184	0xbe5efa55	-0.21775182
185	0xbed30633	-0.41215667
186	0xbe85e36d	-0.26150075
187	0x3daa511a	0.0831625
188	0xbe70dc7f	-0.23521613
189	0x3d95cea3	0.073148035
190	0xbd548ca9	-0.051891956
191	0xbd2bc56e	-0.04193633
192	0xbe0ec5ba	-0.13942614
193	0x3ef3970d	0.4757618
194	0xbe42f2b5	-0.19037898
195	0x3c12aeb5	0.008952786
196	0xbd05e8cd	-0.03269272
197	0xbef0214f	-0.46900412
198	0xbec1be3b	-0.37840447
199	0xbe281dde	-0.16417643
200	0xbc3409b4	-0.0109886415
201	0x3df68b1e	0.12038253
202	0x3e456fc6	0.1928092
203	0x3d943bff	0.07238006
204	0xbe139777	-0.14413248
205	0x3f5c675d	0.8609522
206	0x3f027ef4	0.50974965
207	0x3f54ae75	0.830787
208	0x3e45bb20	0.19309664
209	0x3e196a93	0.14982061
210	0x3c8f7343	0.017511016
211	0xbe6f6d95	-0.23381646
212	0x3cab9170	0.020943373
213	0x3e9b56dc	0.30339706
214	0xbdd9bb88	-0.10631472
215	0xbf0fbf5f	-0.56151384
216	0xbee50da7	-0.44736978
217	0xbe23a388	-0.15980351
218	0x3eb0eec6	0.3455717
219	0x3d53242d	0.05154817
220	0x3d6dc0dc	0.058045253
221	0x3d342c2a	0.04398743
222	0xbe961014	-0.29309142
223	0x3e97094a	0.29499274
224	0x3d77d249	0.060503278
225	0x3d3703e9	0.044681463
226	0xbea0bcda	-0.31394082
227	0xbdddf64f	-0.10837995
228	0xbe0b45f8	-0.1360091
229	0xbe2a90c2	-0.16656783
230	0xb9d063c0	-0.0003974717
231	0xbd63c3e6	-0.055606745
232	0xbcb3f900	-0.021969318
233	0xba9c6b2d	-0.0011933796
234	0xbe725deb	-0.2366864
235	0x3f0c6e3a	0.5485569
236	0x3f32726a	0.6970583
237	0x3f591fc7	0.84814113
238	0xbd8149e3	-0.06312921
239	0xbd407b01	-0.046992306
240	0xbe1c1360	-0.15241766
241	0xbef561e4	-0.47926247
242	0x3e9e6e77	0.30943653
243	0xbe45ec82	-0.19328502
244	0x3f391ff4	0.7231438
245	0x3dfd4058	0.12365788
246	0x3da96b00	0.08272362
247	0x3eceb2d6	0.40370816
248	0xbdfdec55	-0.123985924
249	0x3e34de42	0.1766291
250	0xbb2c6df7	-0.0026310661
251	0x3c711de5	0.0147166
252	0x3db6b84d	0.08921871
253	0x3d1c9329	0.03822628
254	0x3ea674a0	0.32510853
255	0x3f3bc032	0.7334014

teacher.model.0.bias f4 [40]
0	0xbbf86bea	-0.0075812237
1	0xbe96344a	-0.29336768
2	0x3e6c4340	0.23072529
3	0xbc13d9a3	-0.009024057
4	0xbe4abc59	-0.19798411
5	0xbe2765eb	-0.16347472
6	0x3e808fed	0.25109807
7	0xbe8c755a	-0.27433282
8	0xbdb75bb8	-0.08953041
9	0xbd668b70	-0.05628532
10	0xbc9f5b88	-0.019452825
11	0x3dfae36c	0.122504085
12	0x3e7c70c0	0.24652386
13	0xbeb4bd1e	-0.35300535
14	0x3e0afa9e	0.13572165
15	0x3e14722f	0.14496683
16	0xbe9a513f	-0.3014011
17	0xbd432ce2	-0.047650225
18	0xbdbb7dad	-0.0915483
19	0x3dfbfd45	0.12304167
20	0xbec0ac45	-0.3763143
21	0xbd84f57b	-0.06492134
22	0x3dfce16b	0.123476826
23	0x3d0d927b	0.034563523
24	0xbccea95c	-0.025227241
25	0xbd83d8c3	-0.064378284
26	0x3cf24a33	0.029576397
27	0xbe8f8821	-0.28033546
28	0x3e060610	0.1308825
29	0x3db5f356	0.08884303
30	0xbe6d9578	-0.23201549
31	0xbe298b42	-0.16557029
32	0xbde30ebc	-0.11086795
33	0xba6d1adc	-0.0009044835
34	0x3e2499f2	0.1607435
35	0xbf17cf28	-0.5930047
36	0xbe3c24e6	-0.1837345
37	0xbe6854a7	-0.22688542
38	0x3e6c2537	0.23061071
39	0xbe228148	-0.1586963

teacher.model.3.weight f4 [25, 40]
0	0x3e8adfaa	0.27123767
1	0xbb268c78	-0.0025413316
2	0xbe8c1316	-0.2735831
3	0x3e5ff7d4	0.21871883
4	0x3d14ac58	0.036297172
5	0x3ee386ba	0.44438726
6	0x3d076e55	0.033064205
7	0x3dce0a73	0.10060587
8	0xbe01c6b9	-0.12673463
9	0x3e736dbe	0.23772332
10	0xbd209b96	-0.03921088
11	0xbddbbbdc	-0.10729191
12	0xbe124aa8	-0.14286292
13	0x3e20f176	0.1571711
14	0xbda65e11	-0.081234105
15	0x3e52cd08	0.20586026
16	0x3e581a1c	0.2110371
17	0x3ea7203e	0.32641786
18	0x3c9b4a64	0.01895637
19	0xbe204075	-0.15649588
20	0x3ef8e891	0.48614934
21	0x3d0ebfc8	0.034850866
22	0xbdd078e6	-0.101793095
23	0x3ec3c5ef	0.3823695
24	0x3e837f4c	0.25683057
25	0x3ebb183c	0.36541927
26	0xbd74949f	-0.05971205
27	0x3d5f3eec	0.054503366
28	0x3d924753	0.0714251
29	0xbe1daaaa	-0.15397134
30	0xbdcc1801	-0.09965516
31	0xbd32df99	-0.04367027
32	0xbd55e75e	-0.052222602
33	0x3c81708c	0.015800737
34	0x3ed845d2	0.4224077
35	0x3e20f66b	0.15719001
36	0x3d148894	0.036263064
37	0x3eab8646	0.3350088
38	0xbe6f4460	-0.23365927
39	0x3d64b13f	0.055833098
40	0xbec2157a	-0.3790701
41	0xbe671b8c	-0.22569102
42	0x3d75c6d1	0.06000406
43	0xbebe210d	-0.3713459
44	0xbdb780f8	-0.08960146
45	0xbc868271	-0.016419621
46	0xbdfd4934	-0.12367478
47	0xbe7673a4	-0.24067551
48	0x3d13439d	0.035953153
49	0xbe9de841	-0.30841258
50	0x3cb5c171	0.022186967
51	0xbc757121	-0.014980585
52	0xbba2f35d	-0.004972859
53	0xbe0f5c6d	-0.14000101
54	0xbd6e4656	-0.058172546
55	0xbf04a361	-0.51811796
56	0xbe424285	-0.18970688
57	0xbe8c949d	-0.27457133
58	0x3d73c41d	0.0595132
59	0x3e328b5e	0.17435977
60	0xbe300cd6	-0.17192397
61	0xbdfa3b35	-0.12218324
62	0xbdaeb0f3	-0.08529844
63	0xbed8a438	-0.4231279
64	0xbe1f326e	-0.15546581
65	0xbe8bcd7c	-0.2730521
66	0x3db56e58	0.08858937
67	0x3dd9d79a	0.10636826
68	0xbe22cd75	-0.15898688
69	0x3d6673c4	0.056262746
70	0x3db263db	0.08710452
71	0x3e5a21e4	0.21301991
72	0x3e1465b9	0.14491929
73	0xbd8a0524	-0.06739262
74	0xbe9b8d60	-0.30381298
75	0xbef4b494	-0.4779402
76	0x3b3ed95b	0.0029121253
77	0x3d7e5637	0.06209394
78	0xbaf3092e	-0.0018542164
79	0x3e29efee	0.16595432
80	0xbed0ebb0	-0.40804815
81	0xbe3f5b26	-0.18687114
82	0xbca7dc9c	-0.020490937
83	0xbec777af	-0.389585
84	0x3e2b0162	0.16699746
85	0xbe395ab5	-0.18101008
86	0xbeab5fa6	-0.3347141
87	0xbe4a38a9	-0.19748177
88	0x3e2bccc4	0.1677733
89	0xbe813482	-0.25235373
90	0x3d0b42ea	0.03399936
91	0x3e090593	0.13381033
92	0x3d35c2ac	0.044375107
93	0x3d13f0d2	0.036118336
94	0xbcf0a62d	-0.029376114
95	0xbef70c5c	-0.48251617
96	0xbdeee7a2	-0.11665274
97	0xbec17bb5	-0.37789693
98	0xb9833d90	-0.00025032135
99	0x3d542097	0.051788893
100	0xbc0493c0	-0.008091867
101	0xbda88ec3	-0.08230355
102	0xbc2337ea	-0.009962061
103	0xbe9878f4	-0.2977978
104	0xbe075bc9	-0.13218607
105	0xbe904d21	-0.28183845
106	0x3e3e3f30	0.18578792
107	0xbc2b1d20	-0.010443956
108	0xbd4fe906	-0.050759338
109	0x3e29f3db	0.1659693
110	0x3d3668b4	0.044533446
111	0x3c44284e	0.0119725
112	0xbe1d7d9f	-0.15379952
113	0x3e10d65c	0.14144272
114	0xbe7619e7	-0.24033318
115	0xbf0b3ff7	-0.5439448
116	0x3db42288	0.08795649
117	0x3e64d8d8	0.22348344
118	0x3b125d4a	0.0022333437
119	0x3dc6e661	0.0971191
120	0x3df4b8f2	0.11949338
121	0xbe5c3fe6	-0.2150875
122	0x3df10ad5	0.11769644
123	0x3e0aa47e	0.13539311
124	0x3d913737	0.070906095
125	0x3f04dca2	0.5189916
126	0xbddb614c	-0.10711917
127	0x3e6028b8	0.21890533
128	0x3e01fd22	0.12694219
129	0x3ca7f36e	0.020501819
130	0x3e1b00c7	0.15137015
131	0x3ddbd3fd	0.10733793
132	0xbdeb1a45	-0.1147962
133	0xbdaffe5b	-0.08593436
134	0xbd870c9b	-0.06594201
135	0xbdca0f18	-0.0986616
136	0x3e54dcc7	0.20787345
137	0x3c7b6271	0.0153432945
138	0xbd88972d	-0.066694595
139	0x3dfbf55d	0.12302659
140	0x3e9d171e	0.306817
141	0xbc3e4774	-0.011613715
142	0x3d32e411	0.043674532
143	0x3ecb7fce	0.39745945
144	0x3de72ced	0.11287866
145	0x3eaabcef	0.3334727
146	0x3d27e689	0.04099134
147	0xbe138b04	-0.14408499
148	0x3c2eec9f	0.010676532
149	0xbc868d72	-0.016424868
150	0xbdb63b73	-0.08898058
151	0x3c31cc77	0.010851971
152	0x3df968f2	0.1217822
153	0xbdb541c3	-0.08850434
154	0xbc4d057f	-0.012513517
155	0xbd4aaf30	-0.049483478
156	0x3b06424a	0.0020486289
157	0x3ef216af	0.4728293
158	0xbc365587	-0.01112879
159	0x3dd10bbc	0.10207316
160	0x3e869b39	0.262903
161	0xbe40b161	-0.18817665
162	0xbe8141a4	-0.25245392
163	0x3ea86416	0.3288886
164	0xbded5a50	-0.11589491
165	0x3f0a001b	0.5390641
166	0x3e01f060	0.12689352
167	0x3e06b651	0.13155486
168	0xbe399be1	-0.1812587
169	0x3eb6b197	0.35682365
170	0x3d0b9757	0.034079876
171	0xbe6b3037	-0.22967611
172	0x3d841074	0.06448451
173	0x3c78f22e	0.015194459
174	0xbe1a2475	-0.1505297
175	0x3cf23eaa	0.029570896
176	0x3e22bea6	0.15893039
177	0x3eb79ded	0.35862675
178	0x3bce22ae	0.0062907552
179	0xbe365285	-0.17804916
180	0x3e8803e9	0.26565483
181	0x3be6ef54	0.007047573
182	0xbe0bd7fa	-0.13656607
183	0x3f09c4b8	0.53815794
184	0xbcb16f89	-0.02165963
185	0x3e9100ae	0.2832083
186	0xbd0906d4	-0.033453777
187	0x3e0df209	0.1386186
188	0x3d9c8ead	0.07644401
189	0xbd395ba4	-0.04525341
190	0xbe87214a	-0.26392585
191	0xbae795a2	-0.0017668495
192	0xbba7c2c0	-0.0051196516
193	0x3d0d00c7	0.03442457
194	0x3eb896b2	0.3605247
195	0x3cf700ae	0.030151691
196	0x3da5efbb	0.081023656
197	0x3e96dbcd	0.2946457
198	0xbeb7459b	-0.35795292
199	0xbb527d4f	-0.0032118147
200	0xbe9b64cf	-0.30350348
201	0xbe6be6cc	-0.23037261
202	0xbdc68779	-0.09693808
203	0xbe6f8dc0	-0.23393917
204	0x3dd95bcd	0.10613213
205	0xbd1948f8	-0.037423104
206	0xbf065947	-0.52479976
207	0xbe37a6b2	-0.17934683
208	0x3d441d51	0.04787952
209	0xbe1a2d62	-0.15056375
210	0x3cbcef44	0.02306331
211	0x3da408d3	0.080094956
212	0x3dbf4913	0.0934011
213	0xbe59d9e9	-0.21274532
214	0xbd43a674	-0.047766164
215	0xbee8d634	-0.45475924
216	0xbdd7f4a9	-0.10544712
217	0xbe7de5fa	-0.2479476
218	0xbd3f7b87	-0.046748664
219	0x3df98e1b	0.121853076
220	0xbdc9fa39	-0.09862179
221	0xbd7f3808	-0.062309295
222	0x3dae7abd	0.08519504
223	0xbf094f28	-0.5363641
224	0xbe194a11	-0.1496966
225	0xbe2ba759	-0.16763057
226	0x3e0b46fd	0.13601299
227	0xbd2bea40	-0.041971445
228	0xbe6d4eff	-0.23174666
229	0xbd425acd	-0.047449876
230	0x3e5b0f85	0.21392639
231	0x3e04290c	0.12906283
232	0xbd8ac956	-0.06776683
233	0x3e1fa753	0.15591173
234	0xbefad5d6	-0.4899127
235	0xbf25c21e	-0.64749324
236	0x3c21d2da	0.009876931
237	0x3d9135d7	0.07090347
238	0x3de148e3	0.1100023
239	0x3d7276f4	0.059195474
240	0x3e17d06b	0.14825599
241	0x3e26b95f	0.16281651
242	0xbbd397b2	-0.0064572925
243	0x3e289255	0.16462071
244	0xbd0106b3	-0.03150053
245	0xbdb796ba	-0.08964296
246	0xbe9336c1	-0.2875271
247	0x3c919d59	0.017775225
248	0x3e1ca54c	0.15297431
249	0xbd8748e3	-0.06605699
250	0x3d5d4bef	0.054027494
251	0x3d1f178e	0.038840823
252	0xbc62a0cc	-0.013832282
253	0xbe62b9d2	-0.22141197
254	0x3dba8e7c	0.09109208
255	0x3dcf110e	0.10110675

teacher.model.3.bias f4 [25]
0	0xbaffe99c	-0.0019524577
1	0x3e03495a	0.1282095
2	0xbd037d9d	-0.032102216
3	0x3cb01663	0.02149505
4	0xbcada10c	-0.021194957
5	0x3c9beb8b	0.019033214
6	0x3c1a5ca7	0.009421504
7	0x3dc41a05	0.09575275
8	0x3c77eedb	0.015132631
9	0xbc7d3c3a	-0.015456254
10	0x3d921e6c	0.07134709
11	0x3e165fef	0.14685033
12	0x3c18ba0a	0.009321699
13	0x3e1b0dd1	0.1514199
14	0x3d8fc9f1	0.07020939
15	0xbc6c9025	-0.014438664
16	0x3dfd3b26	0.12364797
17	0xbe178155	-0.1479543
18	0x3d08ff59	0.033446644
19	0x3dc8252b	0.09772714
20	0xbd94d412	-0.07267012
21	0xbe4d4441	-0.20045568
22	0xbd019138	-0.031632632
23	0xbe3e6a06	-0.18595132
24	0x3e05ba25	0.1305929

teacher.model.6.weight f4 [15, 25]
0	0x3df063df	0.11737799
1	0xbe9a83aa	-0.30178577
2	0xbe1995f3	-0.14998607
3	0x3d2d503d	0.04231285
4	0x3eca6d07	0.39536306
5	0xbe8c986b	-0.27460036
6	0xbe15413f	-0.1457567
7	0x3dd5857c	0.10425851
8	0x3d5b6d8b	0.053571265
9	0xbe8b1c8e	-0.27170223
10	0xbcabef10	-0.020988017
11	0xbe858559	-0.260783
12	0x3dd7b716	0.10532968
13	0xbe700748	-0.23440278
14	0xbdfb83aa	-0.12280972
15	0xbe450b87	-0.19242679
16	0x3d97b2ac	0.07407126
17	0x3f1350c7	0.5754513
18	0x3e12b858	0.14328134
19	0xbc3fdc26	-0.011710202
20	0xbdb73fa4	-0.08947685
21	0x3ea1c2ca	0.31593925
22	0xbc806c30	-0.015676588
23	0x3ec9c503	0.3940812
24	0xbe14f6b0	-0.14547229
25	0xbe52f252	-0.2060025
26	0x3e245dd2	0.16051415
27	0x3e9f77b4	0.31146014
28	0x3e00c095	0.12573464
29	0xbe5365b1	-0.20644261
30	0x3d0b60f9	0.034028027
31	0x3e0b6250	0.13611722
32	0x3cadf546	0.02123512
33	0xbdd6b47a	-0.10483642
34	0x3e2e77eb	0.17037933
35	0x3e229839	0.15878381
36	0x3dc6fc44	0.097160846
37	0xbe089be2	-0.13340715
38	0x3e39af34	0.18133241
39	0x3d115670	0.035482824
40	0x3dd29a5b	0.10283347
41	0x3df1d1a8	0.11807567
42	0xbe12c194	-0.14331657
43	0xbe515d69	-0.2044579
44	0xbc5c6a88	-0.013453133
45	0x3ead8e41	0.33897594
46	0x3c2ff90d	0.010740531
47	0x3e497b59	0.1967596
48	0xbe521163	-0.20514445
49	0x3dddefc3	0.108367465
50	0x3e94be1e	0.29051298
51	0xbe5b0652	-0.2138913
52	0xbe8e6e26	-0.27818412
53	0x3e3dcc2e	0.1853492
54	0x3eba1210	0.36341906
55	0xbe386ca7	-0.18010198
56	0xbe8d05df	-0.27543542
57	0x3e5dd690	0.2166388
58	0x3e3d60ff	0.18494032
59	0x3d0c4778	0.034247845
60	0xbe88f82d	-0.26751843
61	0xbe7aabd8	-0.24479616
62	0x3eb689d5	0.35652032
63	0xbe86dfc6	-0.263426
64	0x3db2c396	0.08728711
65	0xbe040080	-0.12890816
66	0xbe18efbe	-0.14935204
67	0x3f3287b1	0.697383
68	0x3eaa30fa	0.3324049
69	0xbde64df9	-0.11245341
70	0x3d7c26e6	0.061560534
71	0x3e50f0f9	0.20404424
72	0xbe47d799	-0.19515838
73	0x3ef00bd5	0.46884027
74	0xbd295aea	-0.041346468
75	0x3e5843db	0.21119635
76	0xbddc6430	-0.10761297
77	0xbdc6c440	-0.097054005
78	0xbc7fd9b9	-0.015615874
79	0x3ebb17f3	0.3654171
80	0xbd66813f	-0.056275602
81	0xbdadd2f9	-0.084875055
82	0xbd00fba4	-0.031489983
83	0x3e746252	0.23865631
84	0xbe3f046d	-0.18654032
85	0xbde0f4bb	-0.10984179
86	0xbeb03527	-0.34415552
87	0x3ddafb94	0.10692516
88	0xbdc5569e	-0.096356615
89	0xbdd69f89	-0.10479648
90	0xbb0eaba5	-0.0021769789
91	0xbd1e5b81	-0.038661484
92	0x3f2e6ed0	0.68137836
93	0x3ed2b040	0.41150093
94	0xbe06c31c	-0.13160366
95	0xbe88330b	-0.26601443
96	0x3ea2b231	0.31776574
97	0xbd5bee98	-0.053694338
98	0x3ecfbf16	0.40575475
99	0xbc671d91	-0.01410617
100	0x3e66377c	0.22482103
101	0xbd97c7ff	-0.07411193
102	0xbd39aec2	-0.045332678
103	0x3e61ed50	0.22063184
104	0x3ea7c744	0.32769215
105	0xbade7f24	-0.0016975147
106	0xbe8dd26c	-0.27699602
107	0x3dbc79a4	0.092028886
108	0x3dac97a9	0.084273644
109	0xbe1d8e4f	-0.15386318
110	0xbe16f2ae	-0.14741012
111	0xbea70404	-0.3262025
112	0x3d346e07	0.044050243
113	0xbdccb8ca	-0.09996183
114	0xbe841bd1	-0.25802472
115	0xbe7693f5	-0.24079879
116	0xbe8521c7	-0.26002333
117	0x3ea00569	0.31254128
118	0x3e458a8a	0.1929113
119	0xbe60ebd4	-0.21964961
120	0xbe80c3ef	-0.25149485
121	0x3ebc9983	0.3683587
122	0x3d57655c	0.0525869
123	0x3eb3cb3f	0.35116002
124	0xbe7ce4fe	-0.24696729
125	0x3e6958df	0.22787808
126	0xbdd89faf	-0.10577332
127	0xbe7b8652	-0.24562958
128	0x3e4b942f	0.19880746
129	0x3ec1dfca	0.3786605
130	0xbd772cbc	-0.060345396
131	0xbe6a6560	-0.22890234
132	0x3e23b0a9	0.15985359
133	0x3d1fb7fb	0.038993817
134	0x3d121f7e	0.035674565
135	0x3da310d5	0.07962195
136	0xbdfd4f1d	-0.12368605
137	0x3e89c5df	0.26908776
138	0x3bca5853	0.00617508
139	0x3ccd7a96	0.025082868
140	0xbe119ede	-0.1422076
141	0xbde48dce	-0.111598596
142	0x3f1fda05	0.62442046
143	0x3d8ea3a0	0.06964803
144	0xbd1c3a5d	-0.038141597
145	0xbd6a7b3c	-0.05724643
146	0x3e79252e	0.24330589
147	0xbe1e497f	-0.15457724
148	0x3e9da55b	0.3079022
149	0xbcdca905	-0.026936064
150	0xbe0ae5c4	-0.13564211
151	0x3e15c24f	0.14624904
152	0x3c91b930	0.0177885
153	0x3df4e0de	0.119569525
154	0xbe162427	-0.14662229
155	0x3eab07cf	0.33404395
156	0x3e6074ec	0.21919602
157	0x3e6d70d9	0.23187579
158	0xbe20f46d	-0.15718241
159	0x3e6ce585	0.2313443
160	0x3e846a52	0.25862366
161	0x3e3a5066	0.18194732
162	0xbe886c19	-0.26644972
163	0x3eb00560	0.343791
164	0x3e59207c	0.21203798
165	0x3e6cbeca	0.23119655
166	0x3df80b6d	0.12111554
167	0xbe5bc24d	-0.21460839
168	0xbe828baa	-0.2549718
169	0x3bf1251a	0.007359159
170	0x3e851bea	0.2599786
171	0xbdc7fde9	-0.097652264
172	0x3e27ed14	0.16399032
173	0xbe07f496	-0.13276896
174	0x3e6aa6aa	0.2291514
175	0x3ea88ce9	0.32920006
176	0xbd955897	-0.07292288
177	0xbd81655d	-0.06318162
178	0x3d861865	0.06547622
179	0x3ed99d08	0.42502618
180	0xbceabc8e	-0.028654363
181	0xbdf0cf48	-0.11758286
182	0x3e4318ce	0.19052431
183	0x3e05e457	0.13075386
184	0xbcae1dd6	-0.021254461
185	0xbd1202e4	-0.035647288
186	0xbdb7e9dc	-0.08980152
187	0x3eadfa73	0.3398014
188	0xbe551e55	-0.20812352
189	0x3db60c96	0.08889119
190	0xbdeecd1d	-0.11660216
191	0xbe52bcd6	-0.20579848
192	0x3ef715ea	0.48258907
193	0x3e3bc6d5	0.18337567
194	0xbe1a0463	-0.15040736
195	0xbe2540ac	-0.16137952
196	0x3e6b6409	0.22987379
197	0xbe5191d1	-0.20465781
198	0x3eb0cac2	0.34529692
199	0xbdc46921	-0.09590364
200	0xbd6499cc	-0.055810735
201	0xbce5de87	-0.02806021
202	0xbe106c22	-0.1410375
203	0x3e597aa9	0.21238197
204	0x3d11686e	0.035499983
205	0xbe501686	-0.20321092
206	0xbe89474e	-0.26812214
207	0x3c14aab1	0.009073899
208	0x3ed6e025	0.41967884
209	0x3db44ee2	0.08804108
210	0xbd78d210	-0.060747206
211	0xbe01e9cb	-0.12686841
212	0x3e75a118	0.23987234
213	0xbe762be1	-0.24040176
214	0x3d8d9ca1	0.0691464
215	0xbdb631bc	-0.08896205
216	0xbe31edcd	-0.1737587
217	0x3ed89252	0.42299134
218	0x3e28d39a	0.1648697
219	0xbe574f48	-0.21026337
220	0xbd8b29da	-0.06795092
221	0x3e49ed0e	0.19719335
222	0xbe2be796	-0.16787562
223	0x3edbb5eb	0.4291223
224	0x3cf57290	0.029961854
225	0xbe2a48d2	-0.16629341
226	0x3e7a9c03	0.24473576
227	0x3d6aa9c9	0.057290826
228	0x3e46ef4c	0.19427222
229	0xbe403805	-0.1877137
230	0x3d8f64b7	0.07001632
231	0x3e1b236e	0.15150234
232	0xbd8367ad	-0.06416259
233	0xbdf6a042	-0.120422855
234	0x3e8b7daf	0.27244326
235	0x3e908bbe	0.28231615
236	0x3e5923c3	0.21205048
237	0xbe8f174d	-0.27947465
238	0x3e3d99a8	0.18515646
239	0xbdf89e4d	-0.121395685
240	0x3e050984	0.12991911
241	0x3e508aa9	0.20365395
242	0xbde56677	-0.11201184
243	0xbe82dfd8	-0.25561404
244	0x3e65d5f4	0.22444898
245	0x3e71c236	0.23609242
246	0xbe821541	-0.2540684
247	0x3e96437e	0.29348367
248	0xbe3a8ef3	-0.18218593
249	0x3e141397	0.14460598
250	0x3dbdd385	0.0926886
251	0xbe85d1f5	-0.26136747
252	0xbd79a0f4	-0.060944512
253	0x3e950951	0.2910867
254	0x3f0459b9	0.51699406
255	0xbe080a28	-0.13285124

teacher.model.6.bias f4 [15]
0	0x3e71566a	0.2356812
1	0x3d986151	0.07440437
2	0x3e110c9c	0.14164966
3	0x3e2c88a2	0.16848996
4	0x3de1ae5a	0.11019583
5	0xbce2865b	-0.027651956
6	0x3d8b4cf4	0.06801787
7	0x3e3cd372	0.18440035
8	0x3ca34c37	0.019933803
9	0x3e16454c	0.14674872
10	0x3dd14199	0.1021759
11	0x3db27790	0.08714211
12	0x3dde49fb	0.108539544
13	0x3d6fe498	0.058567613
14	0x3ca504a7	0.02014382

teacher.model.9.weight f4 [1, 15]
0	0xbebf4854	-0.3735987
1	0x3e36b66c	0.17843026
2	0xbe9653f1	-0.29360917
3	0xbe97cd43	-0.2964879
4	0xbf023fc3	-0.5087854
5	0xbef913b7	-0.48647854
6	0x3e0f46d6	0.13991866
7	0xbe93fc2b	-0.28903326
8	0xbf09bea2	-0.5380651
9	0x3e096ecb	0.1342117
10	0xbed0b06b	-0.40759596
11	0x3e3a5edf	0.18200253
12	0xbeb36b76	-0.35042924
13	0x3e37d17e	0.17951009
14	0x3e6ccce0	0.23125029
