pretrained/new_adult_consistency_loss2.ckpt (torch, 70826 bytes, 28 tensors)

student.0.weight f4 [40, 52]
0.018656611 -0.69453704 -0.030638669 0.07101129 -0.0023963412 0.11795467 0.08897329 0.05393537
-0.14690799 0.11696648 0.022066962 -0.06727524 -0.029249657 0.013757051 0.023202376 -0.020661607
0.025728228 -0.0042017675 0.027561659 0.045604557 -0.003742087 0.0012714668 0.03110769 0.08681869
0.066119425 0.00042782113 0.0031392584 0.033630583 0.021673435 0.018074287 -0.006354568 -0.032325037
0.0058988403 0.0066555664 -0.1063849 -0.0068227407 -0.007869439 -0.2630501 0.08620876 0.04196342
0.010063 -0.06953046 0.0018069936 0.052207064 0.001209819 -0.019232942 0.17296961 -0.013741611
-0.04538369 -9.629162e-05 -0.017221833 -0.026378121 0.016204458 -0.4347832 -0.12123336 0.057798043
0.4150021 0.10011332 -0.029248232 -0.12402935 -0.11572705 0.073325016 0.06516447 -0.014385393
-0.06648207 0.117778584 -0.052317917 0.06847694 0.07955294 -0.075127825 -0.15020934 0.122326046
-0.064298846 -0.072398335 0.17510052 0.34250584 0.02694691 -0.005225576 -0.0026749421 0.046914976
0.035263356 0.0282722 0.020312412 -0.014083304 0.08598409 0.27233776 0.03127786 -0.09242975
0.019886378 0.013556875 -0.021201488 0.031069325 -0.0040212157 -0.09910873 0.007985778 -0.078718536
-0.024587847 0.0033549818 -0.26893917 -0.03746157 0.123968676 -0.006584148 0.083679475 -0.27166513
-0.27315065 -0.14147355 -0.0853691 0.05299987 -0.2774739 -0.082668185 0.06971793 -0.048473395
-0.14298639 0.052281376 -0.07950485 0.04133669 0.053245246 -0.013799446 -0.11923842 0.038437378
0.16579466 0.015981639 -0.21686281 0.16036725 -0.020958861 -0.012733431 0.05007007 0.0074413214
0.01519847 -0.0066624973 -0.060549628 0.053900722 -0.040409476 -0.012008932 0.23354954 0.102714024
-0.06671486 0.061149444 -0.07907588 -0.21256371 0.061771147 0.08929987 -0.066461004 -0.048562825
-0.15145881 -0.023245063 0.027834496 -0.023842668 0.016431745 -0.14867546 0.040011343 0.08446581
0.081728734 -0.013317105 -0.06744605 -0.03430443 -0.28627902 0.12616444 -0.29994714 0.14999694
0.16146035 0.14043331 0.020537332 0.20230916 0.022514533 -0.11517931 -0.03675667 0.12169699
0.0852596 -0.19170117 0.12204096 0.110975645 0.0759037 -0.027892174 -0.08710735 0.098223135
0.096353434 0.12119191 0.055817403 0.14234278 0.02943168 -0.02538643 0.10241912 0.04375535
0.049446747 -0.11629319 -0.011784791 0.0019173833 -0.03172129 0.11887199 -0.09589068 0.0820934
-0.05288559 0.061039113 -0.05242792 -0.14214005 0.05516437 0.077714056 0.06677956 -0.09844412
0.015697433 0.0022488232 0.044671945 -0.01132951 -0.030919498 -0.04495532 0.2330369 0.050512336
0.00059482263 0.95010453 -0.02319802 -0.01334341 0.00662952 0.0058711017 0.0041603 -0.0068322825
0.23985085 0.00069485523 0.012504754 -0.0016625908 0.0077033276 0.024374284 0.01821393 0.01873419
0.01844357 0.0034218042 0.02500725 0.19956945 0.017668528 0.015863692 0.03743421 0.10465673
0.047940943 0.08633293 0.018934058 0.017409476 -0.0034398981 0.02954727 0.046447907 0.007865804
0.012170845 0.00822039 -0.014695189 0.030353213 0.026692288 0.041306533 0.085245505 0.07242996
0.028349144 -0.11577788 -0.050497927 0.028146291 -0.06462921 0.07753665 0.08837853 0.006304477
00000000: c0d5 983c 2ecd 31bf f2fd fabc 5e6e 913d
00000010: ef0b 1dbb 3892 f13d a137 b63d 56eb 5c3d
00000020: 0c6f 16be 1f8c ef3d c6c5 b43c 9ac7 89bd
00000030: fa9c efbc 4165 613c e912 be3c 8842 a9bc
00000040: 01c4 d23c fbae 89bb fdc8 e13c d8cb 3a3d
00000050: cd3d 75bb 59a7 a63a 8ed5 fe3c ffcd b13d
00000060: 9f69 873d 2e4d e039 04bc 4d3b 39c0 093d
00000070: 7d8c b13c 8710 943c fb39 d0bb 4267 04bd
00000080: 0f4b c13b f016 da3b 54e0 d9bd 4c91 dfbb
00000090: d2ee 00bc 81ae 86be 388e b03d d6e1 2b3d
000000a0: 48df 243c fc65 8ebd a5d8 ec3a 13d7 553d
000000b0: ca92 9e3a 678e 9dbc f21e 313e 7e24 61bc
000000c0: 40e4 39bd 2bf0 c9b8 cd14 8dbc ee16 d8bc
000000d0: 36bf 843c e79b debe 3249 f8bd a4bd 6c3d
000000e0: 287b d43e 3608 cd3d fd99 efbc 1a03 febd
000000f0: 4e02 edbd 6d2b 963d f374 853d b6b0 6bbc
00000100: c027 88bd e635 f13d 504b 56bd a33d 8c3d
00000110: a7ec a23d 9edc 99bd 7ad0 19be 1486 fa3d
00000120: 1daf 83bd 9445 94bd 8d4d 333e ed5c af3e
00000130: c4bf dc3c 4f3b abbb 154e 2fbb eb29 403d
00000140: 4f70 103d 1a9b e73c 3766 a63c a9bd 66bc
00000150: 6d18 b03d db6f 8b3e 371d 003d cf4b bdbd
00000160: c2e8 a23c a81d 5e3c beae adbc 1985 fe3c
00000170: 67c4 83bb 85f9 cabd c8d6 023c 2f37 a1bd
00000180: 746c c9bc 41df 5b3b 65b2 89be 4e71 19bd
00000190: 4ae3 fd3d d6bf d7bb 2560 ab3d b117 8bbe
000001a0: 67da 8bbe 71de 10be ffd5 aebd 6416 593d
000001b0: 0f11 8ebe f04d a9bd 46c8 8e3d 0a8c 46bd
000001c0: 066b 12be ff24 563d 70d3 a2bd a950 293d
000001d0: b017 5a3d 1217 62bc 4633 f4bd 8370 1d3d
000001e0: 13c6 293e edeb 823c 4911 5ebe 5037 243e
000001f0: ebb1 abbc e19f 50bc 4616 4d3d 54d6 f33b
00000200: 0103 793c 1451 dabb e302 78bd 01c7 5c3d
00000210: 6884 25bd 1dc1 44bc 9c27 6f3e bb5b d23d
00000220: cda1 88bd d777 7a3d 89f2 a1bd 4daa 59be
00000230: be03 7d3d dae2 b63d b51c 88bd d0e9 46bd
00000240: 0518 1bbe 6e6c bebc 2b05 e43c b351 c3bc
00000250: de9b 863c 613e 18be efe2 233d 69fc ac3d
00000260: 6561 a73d fd2f 5abc 2821 8abd cd82 0cbd
00000270: 2a93 92be 4031 013e ac92 99be cc98 193e
00000280: dd55 253e c0cd 0f3e e83d a83c 222a 4f3e
00000290: 6670 b83c 21e3 ebbd 298e 16bd 463c f93d
000002a0: 969c ae3d 504d 44be 9cf0 f93d 3347 e33d
000002b0: 6673 9b3d 217e e4bc 5765 b2bd 3629 c93d
000002c0: f354 c53d 7733 f83d caa0 643d 4ec2 113e
000002d0: b51a f13c 34f7 cfbc 1ec1 d13d cf38 333d
000002e0: ac88 4a3d 202b eebd ff14 41bc b550 fb3a
000002f0: 2fee 01bd 2873 f33d 5562 c4bd 9620 a83d
00000300: 8f9e 58bd 2604 7a3d a9be 56bd 298d 11be
00000310: 09f4 613d 8c28 9f3d b9c3 883d 129d c9bd
00000320: e797 803c fe60 133b eef9 363d 699f 39bc
00000330: e34a fdbc 1223 38bd 3aa1 6e3e 06e6 4e3d
00000340: dfed 1b3a 0d3a 733f c609 bebc 519e 5abc
00000350: 723c d93b 5f62 c03b 2053 883b 57e1 dfbb
00000360: 769b 753e f226 363a bde0 4c3c 4aeb d9ba
00000370: 326c fc3b 94ac c73c 6135 953c 7278 993c
00000380: f816 973c 5940 603b 01dc cc3c ef5b 4c3e
00000390: 97bd 903c 93f4 813c 9d54 193d 4556 d63d
000003a0: b95d 443d 52cf b03d 991b 9b3c 519e 8e3c
000003b0: ea6f 61bb 1e0d f23c 2940 3e3d 93df 003c
000003c0: 3968 473c d1ae 063c 17c4 70bc 4da7 f83c
000003d0: c9a9 da3c 0a31 293d 3295 ae3d 2956 943d
000003e0: 773c e83c f41c edbd ead6 4ebd 0d93 e63c
000003f0: 525c 84bd 89cb 9e3d ceff b43d c995 ce3b

student.0.bias f4 [40]
-0.5825245 -0.37846738 -0.31036848 -0.420956 -0.59562904 -0.2989024 -0.2160932 -0.53913695
-0.4611347 -0.6903463 -0.522085 -0.00042780273 -0.5452726 -0.70322764 -0.28050658 -0.42811123
-0.22717717 -0.53989106 -0.43296468 -0.4572143 -0.33151102 -0.13734959 -0.5229668 -0.6254254
-0.26003656 -0.25926214 -0.49292436 -0.23545909 -0.48742548 -0.16803716 -0.56378084 -0.7097018
-0.65902895 -0.61997634 -0.39484742 -0.17598933 -0.28112116 -0.39507344 -0.55891913 -0.52327144
00000000: 5320 15bf 7ac6 c1be 9ee8 9ebe 8b87 d7be
00000010: 257b 18bf bc09 99be 8947 5dbe e104 0abf
00000020: d919 ecbe 89ba 30bf 5da7 05bf b64a e0b9
00000030: fc96 0bbf ba06 34bf 8f9e 8fbe 6531 dbbe
00000040: 22a1 68be 4d36 0abf 8cad ddbe fe17 eabe
00000050: d0bb a9be 5fa5 0cbe 27e1 05bf e11b 20bf
00000060: 8323 85be 02be 84be 9560 fcbe 301c 71be
00000070: d58f f9be ef11 2cbe f153 10bf 04af 35bf
00000080: 1fb6 28bf c5b6 1ebf 7129 cabe 8c36 34be
00000090: 1def 8fbe 1147 cabe 5315 0fbf 1ef5 05bf

student.3.weight f4 [25, 40]
-0.23999824 -0.59999686 0.02673375 0.0034952215 -0.9847097 -0.005067307 0.051251985 -0.52523005
-0.03898784 -1.0322437 -0.06553283 0.050565377 -0.26572534 -0.22542654 -0.032165118 -0.0371119
-0.006838505 -0.72719437 -0.5804201 -0.0039711036 -0.038065407 0.013334578 -0.075411074 -1.0456781
-0.037630945 -0.01795596 -0.5939626 0.014396934 0.060376722 0.011120761 0.006667205 -0.22088791
-0.3508297 0.13946629 -0.01430412 -0.0019115588 -0.014609413 -0.16372505 -0.44113204 -0.061980225
0.34358314 -0.04487877 0.09814591 -0.5424857 0.034739774 0.09091108 0.036575757 0.007119313
0.5190574 0.06704141 0.3104449 0.018477056 -0.43853605 -0.20135465 0.08608571 -0.025977898
0.07779583 0.026481923 -0.33608148 0.11991016 0.11528975 0.035983313 -0.13706595 0.017549075
0.0888751 0.15678589 -0.6184513 0.11047135 -0.32664338 0.027772583 0.17244406 -0.06779355
-0.009781663 0.053639892 0.2893157 0.060174912 0.071748376 -0.35955432 -0.039627396 0.120359465
-0.07544672 -0.09375675 0.0015038094 -0.034368068 -1.0606916 -0.050518848 0.048706017 -0.0098006725
0.37972257 -1.1227701 0.11203134 0.104696974 -0.21306112 -0.3005451 0.0051696566 -0.041168712
-0.032635845 -0.6012336 0.006499024 0.1121124 0.08672492 0.20517069 -0.19397789 -1.1653563
-0.03701986 0.056756135 -0.6947509 0.07571296 0.024933213 0.022792593 0.08260952 -0.30430028
-0.049572304 -0.17005919 0.045563366 0.050877586 0.0694218 0.031482883 -0.21485707 -0.018370366
-0.29801625 -0.08105701 0.027254537 -0.0023119187 -0.97490114 -0.002884086 0.06528348 -0.48770294
0.0060229725 -0.98773515 -0.009124175 0.04839958 -0.24018773 -0.0018151283 -0.02408171 -0.00038124825
-0.0035959582 -0.5850719 -0.4549348 -0.0075279274 -0.006541057 -0.0009504614 -0.038378086 -1.0765221
-0.027940925 0.0036480103 0.006120489 0.060535654 0.03185076 0.020177953 0.12642954 -0.30356067
-0.34304896 -0.1052481 -0.01703671 0.054137617 0.03296372 0.014528828 -0.4782893 -0.0136357155
0.018537024 -0.19348553 -0.056439463 -0.047919877 -0.019570904 0.06120496 -0.08881394 -0.051671047
-0.29741323 -0.019162918 -0.29082438 0.015756486 -0.0015055432 0.06249312 -0.53189486 -0.07292571
-0.031792272 -0.029662637 -0.18593557 0.055811755 0.06493216 -0.079178736 0.014724044 -0.038914543
-0.5235783 -0.4331807 0.0006340614 0.063817896 -0.0011413175 -0.3539376 -0.57288015 0.03189287
-0.024856301 0.024272818 -0.30035695 0.07573582 -0.3800773 -0.06573764 -0.117057145 -0.09183042
-0.0039364304 0.05185416 -0.2299177 0.022913076 -0.028424969 -0.3511467 -0.39555305 0.047985204
-0.13674444 0.0043654395 -0.10124775 -0.059741177 -0.11056125 0.04981014 -0.35867387 0.03957961
-0.22375672 -0.0051467195 -0.004825726 -0.4116349 -0.16564162 -0.26382878 0.057607483 0.029959418
-0.20433764 -0.45920733 -0.00901857 -0.15397982 0.1908475 -0.0431798 0.052445322 0.16166887
0.08253004 0.14736192 -0.36273652 -0.46726978 -0.11896336 0.022664918 0.013252406 -0.24726932
-0.046406962 -0.073785 -0.35963315 0.072774135 -0.027972037 -0.40555304 0.060025778 -0.01319948
-0.42030716 -0.022293743 -0.580694 0.076308645 -0.10312824 0.055412848 -0.34386915 -0.0034200582
00000000: 19c2 75be 6599 19bf bd00 db3c 1610 653b
00000010: ef15 7cbf a70b a6bb 9aed 513d 7a75 06bf
00000020: b7b1 1fbd 9020 84bf 1436 86bd a41d 4f3d
00000030: 270d 88be 37d6 66be 92bf 03bd a602 18bd
00000040: 8a15 e0bb 6929 3abf 6996 14bf 0820 82bb
00000050: 79ea 1bbd 4679 5a3c 1f71 9abd c8d8 85bf
00000060: e822 1abd 6118 93bc ef0d 18bf 1ee1 6b3c
00000070: 954d 773d da33 363c 9278 da3b 7130 62be
00000080: f39f b3be 40d0 0e3e d45b 6abc 458d faba
00000090: 525c 6fbc 8aa7 27be 0fdc e1be fade 7dbd
000000a0: 21ea af3e cdd2 37bd b900 c93d 58e0 0abf
000000b0: 4b4b 0e3d 972f ba3d 76d0 153d 2049 e93b
000000c0: f2e0 043f 024d 893d a2f2 9e3e 325d 973c
000000d0: cc87 e0be ea2f 4ebe b44d b03d 9acf d4bc
000000e0: 6c53 9f3d 9ef0 d83c df12 acbe 7593 f53d
000000f0: 081d ec3d 3d63 133d 045b 0cbe 14c3 8f3c
00000100: 2604 b63d 7b8c 203e d352 1ebf ce3e e23d
00000110: cd3d a7be 5483 e33c 2d95 303e 58d7 8abd
00000120: 4543 20bc 81b5 5b3d 3021 943e f879 763d
00000130: d0f0 923d 8117 b8be 5650 22bd 067f f63d
00000140: cf83 9abd 8a03 c0bd 781b c53a 88c5 0cbd
00000150: bec4 87bf daec 4ebd f67f 473d 0093 20bc
00000160: ff6a c23e eeb6 8fbf b070 e53d 5e6b d63d
00000170: b22c 5abe 0ce1 99be 3966 a93b 86a0 28bd
00000180: 2aad 05bd 72ea 19bf c4f5 d43b 309b e53d
00000190: d69c b13d 4418 523e 24a2 46be 652a 95bf
000001a0: 23a2 17bd 1f79 683d 32db 31bf 650f 9b3d
000001b0: bd40 cc3c 88b7 ba3c 2e2f a93d 3fcd 9bbe
000001c0: 540c 4bbd ff23 2ebe a7a0 3a3d 0465 503d
000001d0: 042d 8e3d 32f4 003d 7e03 5cbe 737d 96bc
000001e0: 9695 98be 3801 a6bd e844 df3c 8f83 17bb
000001f0: 1f93 79bf ef02 3dbb 58b3 853d 33b4 f9be
00000200: 5b5c c53b 36dc 7cbf 907d 15bc a33e 463d
00000210: c6f3 75be 99e9 edba 0247 c5bc 46e2 c7b9
00000220: 2baa 6bbb 46c7 15bf 37ed e8be d5ac f6bb
00000230: 5d56 d6bb 6328 79ba 5732 1dbd 7acb 89bf
00000240: 5ee4 e4bc 7513 6f3b 628e c83b 3cf4 773d
00000250: f175 023d 3c4c a53c bf76 013e 4e6c 9bbe
00000260: 1da4 afbe 518c d7bd 9290 8bbc 68bf 5d3d
00000270: f704 073d 520a 6e3c 56e2 f4be 5668 5fbc
00000280: f5da 973c 1221 46be 112d 67bd a247 44bd
00000290: 2953 a0bc 0db2 7a3d 15e4 b5bd 05a5 53bd
000002a0: 8c46 98be 8dfb 9cbc efe6 94be bf13 813c
000002b0: a655 c5ba c9f8 7f3d 432a 08bf 135a 95bd
000002c0: 9d38 02bd 0fff f2bc e565 3ebe de9a 643d
000002d0: 27fb 843d 7628 a2bd 1e3d 713c db64 1fbd
000002e0: 3a09 06bf dcc9 ddbe 2437 263a f5b2 823d
000002f0: 4398 95ba 4f37 b5be 46a8 12bf 19a2 023d
00000300: 719f cbbc cad7 c63c 63c8 99be 621b 9b3d
00000310: 7e99 c2be 75a1 86bd a8bb efbd 9611 bcbd
00000320: 2cfd 80bb 0765 543d 8c6f 6bbe 34b4 bb3c
00000330: 7bdb e8bc 80c9 b3be ee85 cabe 228c 443d
00000340: bc06 0cbe f60b 8f3b fb5a cfbd 2ab3 74bd
00000350: f06d e2bd b805 4c3d 1aa4 b7be 3b1e 223d
00000360: 7b20 65be d0a5 a8bb 2021 9ebb cfc1 d2be
00000370: f59d 29be 9114 87be d3f5 6b3d 746d f53c
00000380: e33d 51be 391d ebbe a0c2 13bc e3ac 1dbe
00000390: 876d 433e 4ddd 30bd e8d0 563d 868c 253e
000003a0: 8205 a93d 0be6 163e 9ab8 b9be fc3d efbe
000003b0: 10a3 f3bd c7ab b93c 9f20 593c 2b34 7dbe
000003c0: 3a15 3ebd 971c 97bd d621 b8be 9b0a 953d
000003d0: 9d25 e5bc a6a4 cfbe 97dd 753d a242 58bc
000003e0: 8032 d7be 5ea1 b6bc 5da8 14bf b547 9c3d
000003f0: e634 d3bd 95f8 623d 9e0f b0be 0e23 60bb

student.3.bias f4 [25]
0.11027823 -0.1551136 0.0820528 0.110174984 0.14997642 0.06889919 0.12977625 0.07034505
0.11218323 -0.24522756 0.10800839 0.120502055 0.09376176 -0.03773132 0.12611258 0.09653964
0.15543167 0.097639255 0.12049242 0.13938458 0.09186327 -0.07980322 0.078578435 0.09939536
0.087000966
00000000: 8dd9 e13d 19d6 1ebe 4c0b a83d 6ca3 e13d
00000010: 6b93 193e 051b 8d3d 11e4 043e 1111 903d
00000020: 52c0 e53d ef1c 7bbe 8133 dd3d c8c9 f63d
00000030: 2a06 c03d 288c 1abd a823 013e 93b6 c53d
00000040: 7b29 1f3e 17f7 c73d bbc4 f63d d5ba 0e3e
00000050: cf22 bc3d df6f a3bd bbed a03d cb8f cb3d
00000060: 902d b23d

student.6.weight f4 [15, 25]
-0.6731156 -0.76911193 -0.60857403 -1.0405656 0.06265952 -0.055135816 0.1392191 -0.7428855
-0.03760767 -0.3839455 -0.006160826 -0.035506975 0.01673848 -0.41359732 -0.052657746 -0.90546197
0.22447887 -0.951809 -0.51377743 -0.7369073 -0.041606117 -0.6869933 -0.3965235 -0.8909051
-0.6327703 0.29205868 0.050303053 -0.010027859 0.05324514 -0.17809145 -0.41411272 -0.08911982
0.034694187 -0.4095447 -0.06355309 -0.38515452 -0.3049145 -0.4820992 0.0927901 -0.32581007
0.18627511 -0.13731259 0.10878312 0.23053527 0.3377829 -0.5142073 -0.035540465 0.044698346
0.04518952 0.0570952 0.37087724 0.10941066 0.02836658 0.30868432 -0.23802231 -0.54365677
-0.13560052 -0.0404866 -0.50701714 -0.06737565 -0.4899953 -0.4416011 -0.6114609 0.101190746
-0.5683369 0.16341686 -0.276018 0.0070074718 0.2097813 0.3928864 -0.5974343 -0.044506434
0.0613791 0.10143953 0.018240266 -0.64733094 -0.11893027 -0.52712864 -0.40509644 0.28076142
0.12851797 0.13441494 -0.35506707 0.05449876 0.0870135 0.092932135 0.18392739 0.25275946
-0.44541574 0.11030239 -0.52545935 0.4328096 -0.4089975 -0.47591618 -0.4116578 0.1429829
-0.08013661 -0.24426201 -0.40875083 -0.45476627 -0.7981016 -0.39451766 -0.48574975 -0.6670956
0.08208904 0.08692527 0.0684114 -0.6450272 -0.05201859 -0.17258115 0.09804233 0.045206822
0.19426082 -0.325326 0.041719336 -0.720621 0.25704786 -0.65720934 -0.40275052 -0.50659525
-0.047170844 -0.32635036 -0.46953627 -0.54227954 -0.49490643 0.27822736 -0.0046275854 0.032208014
0.108692296 -0.17391248 -0.3840179 -0.0187308 0.013987001 -0.37186268 -0.026307564 -0.26953366
-0.36898607 -0.3951003 0.109334044 -0.37160352 0.16023865 -0.117016524 0.078026496 0.22019462
0.3339008 -0.4562456 0.050289065 -0.012751771 0.10150826 0.04638017 0.2974714 -0.036543895
0.05889625 0.19045529 -0.11059489 -0.38419715 -0.010515889 0.019488966 -0.33583722 -0.0430484
-0.34820864 -0.47357884 -0.4599193 0.16817732 -0.41536224 0.20407051 -0.17033747 0.1542588
0.18104093 0.3892826 -0.49487683 0.07779328 0.073106006 0.0048229424 0.03806969 -0.6692516
-0.2430918 -0.32534066 -0.4803299 0.16300218 0.044171877 0.21173252 -0.29620904 0.16326357
0.02728012 0.04062294 0.14380653 0.23146163 -0.3461927 0.13370578 -0.39618152 0.22913116
-0.5326874 -0.54262286 -0.5328537 0.1439289 -0.13665819 -0.36997473 -0.38215873 -0.34224126
0.3564891 0.005405627 0.09621575 0.1823178 -0.19394542 -0.49831653 -0.082711875 -0.019828461
-0.5203574 -0.07425565 -0.46794102 -0.39875245 -0.54041404 0.19737904 -0.3903495 0.19759329
-0.14622317 0.0032986787 0.20873547 0.21370211 -0.5610342 -0.025273012 0.07989469 0.02517955
-0.0021449556 -0.7319849 -0.3964074 -0.71970206 -0.8904412 0.16209611 0.07805551 0.17780179
-0.8027784 -0.0013386956 -0.1453212 0.019603085 0.06547823 -0.051222555 -0.4559518 -0.080742456
-0.93380916 0.26006243 -0.9785244 -0.56631213 -0.64772046 -0.04104972 -0.41416815 -0.5610145
-0.8774107 -0.7547645 -0.6113046 -0.16785584 -0.38766474 -0.3633367 0.22967137 0.06728196
00000000: 4e51 2cbf 85e4 44bf 82cb 1bbf 4131 85bf
00000010: a253 803d 18d6 61bd 748f 0e3e be2d 3ebf
00000020: 800a 1abd 8194 c4be c1e0 c9bb c36f 11bd
00000030: 231f 893c 07c3 d3be a6af 57bd 5bcc 67bf
00000040: cadd 653e c1a9 73bf eb86 03bf f5a5 3cbf
00000050: 2d6b 2abd cbde 2fbf 2105 cbbe 5b12 64bf
00000060: 3cfd 21bf b788 953e 930a 4e3d e44b 24bc
00000070: 9317 5a3d 9b5d 36be 9506 d4be 7484 b6bd
00000080: 7e1b 0e3d d8af d1be 1f28 82bd f932 c5be
00000090: c11d 9cbe b5d5 f6be bc08 be3d 94d0 a6be
000000a0: e7be 3e3e ac9b 0cbe afc9 de3d 7011 6c3e
000000b0: e1f1 ac3e 17a3 03bf e192 11bd 9d15 373d
000000c0: a518 393d a8dc 693d 9fe3 bd3e b212 e03d
000000d0: 0861 e83c df0b 9e3e 1fbc 73be 172d 0bbf
000000e0: ddda 0abe 47d5 25bd e0cb 01bf 3ffc 89bd
000000f0: aae0 fabe 8a19 e2be b488 1cbf 183d cf3d
00000100: 877e 11bf c056 273e 3b52 8dbe ef9e e53b
00000110: e9d0 563e 6828 c93e 74f1 18bf 614c 36bd
00000120: a768 7b3d 87bf cf3d 9c6c 953c 7bb7 25bf
00000130: b791 f3bd e7f1 06bf cd68 cfbe f6bf 8f3e
00000140: 379a 033e 12a4 093e 5acb b5be 173a 5f3d
00000150: 2234 b23d 3453 be3d 7657 3c3e b069 813e
00000160: 880d e4be 38e6 e13d 8184 06bf 3899 dd3e
00000170: 1f68 d1be 49ab f3be d0c4 d2be 1c6a 123e
00000180: aa1e a4bd d21f 7abe ca47 d1be 20d7 e8be
00000190: 6350 4cbf 38fe c9be 31b4 f8be c7c6 2abf
000001a0: 4c1e a83d e005 b23d 471b 8c3d 8120 25bf
000001b0: 7211 55bd 1db9 30be 6bca c83d ca2a 393d
000001c0: 4fec 463e 2191 a6be e5e1 2a3d 9e7a 38bf
000001d0: c79b 833e df3e 28bf 5135 cebe 3ab0 01bf
000001e0: 3736 41bd 6517 a7be 0f67 f0be d5d2 0abf
000001f0: 6064 fdbe d173 8e3e 00a3 97bb 8dec 033d
00000200: 119a de3d 1d16 32be ff9d c4be 5671 99bc
00000210: bc29 653c c964 bebe f682 d7bc 5100 8abe
00000220: beeb bcbe 964a cabe 87ea df3d d142 bebe
00000230: 9a15 243e 5ca6 efbd 5bcc 9f3d b37a 613e
00000240: 0cf5 aa3e 0699 e9be e8fb 4d3d ceec 50bc
00000250: 90e3 cf3d 22f9 3d3d 2c4e 983e 0daf 15bd
00000260: 323d 713d b606 433e 937f e2bd 7db5 c4be
00000270: d64a 2cbc 53a7 9f3c dbf2 abbe 8553 30bd
00000280: 6748 b2be ed78 f2be 8b7a ebbe ad36 2c3e
00000290: 5caa d4be dcf7 503e f26c 2ebe 05f6 1d3e
000002a0: cb62 393e 0d50 c73e 7f60 fdbe 1552 9f3d
000002b0: 9ab8 953d c609 9e3b f7ee 1b3d 1354 2bbf
000002c0: 0fed 78be 0d93 a6be cded f5be 0bea 263e
000002d0: 92ed 343d 69d0 583e b6a8 97be 912e 273e
000002e0: 8f7a df3c 3d64 263d 0542 133e 4704 6d3e
000002f0: 2b40 b1be 2bea 083e 4ed8 cabe 5ca1 6a3e
00000300: 345e 08bf 55e9 0abf 1a69 08bf 1962 133e
00000310: 20f0 0bbe 546d bdbe 4faa c3be 3f3a afbe
00000320: bd85 b63e b021 b13b c30c c53d 84b1 3a3e
00000330: a199 46be 5823 ffbe d864 a9bd 4c6f a2bc
00000340: 2436 05bf 5913 98bd f795 efbe 4829 ccbe
00000350: 9358 0abf bb1d 4a3e e4db c7be e555 4a3e
00000360: 87bb 15be a52e 583b c0be 553e bad4 5a3e
00000370: f09f 0fbf 5909 cfbc d49f a33d 5845 ce3c
00000380: 6292 0cbb 5d63 3bbf e9f5 cabe 653e 38bf
00000390: f4f3 63bf 86fc 253e 91db 9f3d ac11 363e
000003a0: e382 4dbf 2c77 afba 15cf 14be a696 a03c
000003b0: 7319 863d bece 51bd 8472 e9be 4d5c a5bd
000003c0: 1e0e 6fbf e726 853e 9380 7abf d5f9 10bf
000003d0: 02d1 25bf c023 28bd d90d d4be a59e 0fbf
000003e0: fd9d 60bf 3f38 41bf 757e 1cbf 67e2 2bbe
000003f0: fe7b c6be 4507 babe f92e 6b3e 20cb 893d

student.6.bias f4 [15]
0.27265257 0.14990553 0.21184169 0.3546928 0.29219714 0.13558151 0.16457473 0.31650794
0.19475463 0.27737674 0.2732164 0.29800224 0.32988498 0.2543695 0.17303672
00000000: 1e99 8b3e d680 193e 07ed 583e 4b9a b53e
00000010: dd9a 953e e1d5 0a3e 4786 283e 540d a23e
00000020: c26d 473e 5304 8e3e 05e3 8b3e c093 983e
00000030: afe6 a83e b83c 823e 8a30 313e

student.9.weight f4 [1, 15]
0.9206415 -0.34532824 -0.29323325 0.4211418 0.65645415 -0.37272134 -0.28588438 0.48249102
-0.33544856 0.82893324 0.50407577 0.56115013 0.46528202 0.674654 -0.25821796
00000000: 29af 6b3f ddce b0be ab22 96be e69f d73e
00000010: 610d 283f 55d5 bebe 705f 92be 1009 f73e
00000020: eabf abbe f834 543f 1c0b 013f 89a7 0f3f
00000030: 7239 ee3e 20b6 2c3f 2535 84be

teacher.model.0.weight f4 [40, 52]
0.018490227 -0.6945957 -0.03084289 0.070815645 -0.0023866314 0.117658585 0.08910538 0.054010738
-0.14700174 0.11726661 0.022176968 -0.06723432 -0.029311795 0.013858784 0.023268864 -0.020601042
0.026004326 -0.0045056916 0.027586604 0.045615066 -0.0037415042 0.0012302632 0.031117508 0.08682398
0.06613626 0.00028673 0.0030283483 0.03376993 0.021566309 0.0180244 -0.0064384607 -0.032405544
0.0059339423 0.0066088154 -0.10647166 -0.0068293386 -0.008127508 -0.2631458 0.086267196 0.041939534
0.0100401165 -0.06962957 0.001724041 0.052299846 0.0012000452 -0.019317929 0.17301607 -0.01373989
-0.045423105 2.138755e-05 -0.017237054 -0.026238387 0.0156816 -0.43507698 -0.121533565 0.057733823
0.4154874 0.09977114 -0.028704619 -0.12457958 -0.11603296 0.07321067 0.065615945 -0.014524587
-0.06672679 0.11765321 -0.052922208 0.068593204 0.08010677 -0.075373776 -0.1506686 0.12175294
-0.064552255 -0.07298727 0.17491344 0.34216824 0.02681144 -0.0053364974 -0.00278606 0.046865482
0.035612803 0.028169453 0.0201537 -0.014041458 0.0859081 0.27221698 0.03106117 -0.092705235
0.019764677 0.013809744 -0.0213985 0.031177068 -0.0041166293 -0.09916959 0.008009204 -0.07931513
-0.02476946 0.0034830712 -0.26949438 -0.037778135 0.12388576 -0.006976668 0.08393923 -0.2711122
-0.27299497 -0.14132647 -0.08511436 0.053024273 -0.27754158 -0.082434766 0.069507316 -0.048692368
-0.14315228 0.052271497 -0.07961138 0.041419443 0.053220905 -0.013785971 -0.11921678 0.038593292
0.16571388 0.016145062 -0.21688631 0.16039057 -0.021086162 -0.013119715 0.05008003 0.007556193
0.015345551 -0.006661342 -0.06056941 0.05392324 -0.040438015 -0.011774633 0.23354475 0.102514125
-0.06675374 0.061114937 -0.0796482 -0.21275318 0.0622426 0.089092046 -0.0661811 -0.04874363
-0.1515049 -0.023319136 0.027796287 -0.02388149 0.016353687 -0.14862835 0.04024024 0.08468123
0.08175061 -0.013283299 -0.06767331 -0.034213822 -0.28653017 0.12598687 -0.29986817 0.14995152
0.16156009 0.14037184 0.020834906 0.20237902 0.022413975 -0.11535137 -0.03669906 0.12170595
0.08514729 -0.19199654 0.1217784 0.110806145 0.07616524 -0.028010454 -0.08714988 0.09794594
0.09645011 0.121339425 0.05575756 0.14224382 0.02949982 -0.025547598 0.10232836 0.043663412
0.049557548 -0.11648389 -0.011790725 0.0018165094 -0.031851623 0.11884991 -0.09614202 0.08247993
-0.05326358 0.06093514 -0.052564725 -0.14198232 0.055170145 0.07791287 0.06680528 -0.098662525
0.015680011 0.0021841226 0.04479745 -0.011363904 -0.03091289 -0.044971522 0.2329599 0.050856754
0.00095964444 0.9503519 -0.023240121 -0.013444221 0.006828298 0.0060716355 0.0042565563 -0.0069048526
0.2397736 0.0006138516 0.012327356 -0.0016432464 0.0074703386 0.02420438 0.018122196 0.019528355
0.018077655 0.0031388206 0.025021745 0.1995087 0.017757196 0.01596965 0.03726169 0.10437694
0.048041783 0.08623277 0.018923458 0.01731421 -0.0034685703 0.029496005 0.046365257 0.007681622
0.011830465 0.0080241235 -0.014877768 0.03034973 0.026569169 0.04116347 0.08548833 0.07222717
0.028299948 -0.1156673 -0.05074134 0.028124591 -0.064679995 0.07798564 0.08827317 0.0062825396
00000000: d178 973c 06d1 31bf 3aaa fcbc cb07 913d
00000010: 0869 1cbb fcf6 f03d e27c b63d 5d3a 5d3d
00000020: a087 16be 7a29 f03d 79ac b53c 26b2 89bd
00000030: 4a1f f0bc f40f 633c 589e be3c 84c3 a8bc
00000040: 0607 d53c 7ba4 93bb 4dfd e13c ddd6 3a3d
00000050: 0634 75bb c840 a13a 25ea fe3c c5d0 b13d
00000060: 7372 873d 4054 9639 4177 463b 5752 0a3d
00000070: d4ab b03c e8a7 933c b9f9 d2bb adbb 04bd
00000080: 8471 c23b c38e d83b d00d dabd a5c8 dfbb
00000090: 3d29 05bc 0cbb 86be dbac b03d cac8 2b3d
000000a0: 4d7f 243c f399 8ebd 37f9 e13a 5d38 563d
000000b0: d64a 9d3a a240 9ebc 202b 313e 471d 61bc
000000c0: 940d 3abd 6a69 b337 b934 8dbc e3f1 d6bc
000000d0: b376 803c 69c2 debe 97e6 f8bd 4d7a 6c3d
000000e0: c4ba d43e d054 cc3d f325 ebbc 9423 ffbd
000000f0: b0a2 edbd 7aef 953d a761 863d 89f8 6dbc
00000100: 0ea8 88bd 2bf4 f03d f5c4 58bd 987a 8c3d
00000110: 050f a43d 915d 9abd df48 1abe 9b59 f93d
00000120: f933 84bd 5a7a 95bd 821c 333e ad30 af3e
00000130: aaa3 db3c c9dd aebb 5596 36bb 05f6 3f3d
00000140: bbde 113d a0c3 e63c 5f19 a53c 250e 66bc
00000150: 96f0 af3d 0660 8b3e ff73 fe3c 3edc bdbd
00000160: 88e9 a13c 4442 623c e84b afbc 0d67 ff3c
00000170: cae4 86bb 6d19 cbbd 0939 033c f96f a2bd
00000180: 53e9 cabc 3d44 643b 2bfb 89be 3fbd 1abd
00000190: d1b7 fd3d 889c e4bb 55e8 ab3d 38cf 8abe
000001a0: ffc5 8bbe e3b7 10be 7050 aebd fb2f 593d
000001b0: ee19 8ebe 8fd3 a8bd da59 8e3d a671 47bd
000001c0: 8396 12be a31a 563d 4b0b a3bd 6fa7 293d
000001d0: 2afe 593d 8ede 61bc ed27 f4bd 0014 1e3d
000001e0: e6b0 293e a642 843c 7217 5ebe 6d3d 243e
000001f0: e3bc acbc 13f4 56bc b820 4d3d f199 f73b
00000200: e86b 7b3c 6347 dabb a117 78bd 9ede 5c3d
00000210: 55a2 25bd 64ea 40bc 5b26 6f3e edf2 d13d
00000220: 2fb6 88bd a853 7a3d 981e a3bd f8db 59be
00000230: 19f2 7e3d e475 b63d f589 87bd 67a7 47bd
00000240: 1a24 1bbe c607 bfbc 0ab5 e33c 1da3 c3bc
00000250: 2bf8 853c 0832 18be f3d2 243d 5a6d ad3d
00000260: dd6c a73d 32a2 59bc 4e98 8abd cb23 0cbd
00000270: 15b4 92be b402 013e 5288 99be e48c 193e
00000280: 0270 253e a3bd 0f3e f7ad aa3c 723c 4f3e
00000290: 839d b73c 573d ecbd c151 16bd f840 f93d
000002a0: b461 ae3d be9a 44be f466 f93d 55ee e23d
000002b0: 85fc 9b3d 2e76 e5bc a37b b2bd e297 c83d
000002c0: a387 c53d ce80 f83d 0a62 643d 5da8 113e
000002d0: 9ba9 f13c 3249 d1bc 8891 d13d 68d8 323d
000002e0: dbfc 4a3d 1b8f eebd e32d 41bc f117 ee3a
000002f0: d976 02bd 9567 f33d 1be6 c4bd 3deb a83d
00000300: e92a 5abd 2097 793d 1c4e 57bd d063 11be
00000310: 17fa 613d c890 9f3d 35d1 883d 940f cabd
00000320: 5e73 803c 7f23 0f3b 887d 373d ab2f 3abc
00000330: 073d fdbc 0f34 38bd 0a8d 6e3e 2c4f 503d
00000340: a690 7b3a 434a 733f 1162 bebc 2645 5cbc
00000350: eabf df3b 92f4 c63b 957a 8b3b 1a42 e2bb
00000360: 3687 753e e2ea 203a aef8 493c 3362 d7ba
00000370: bec9 f43b 4448 c63c 0075 943c eef9 9f3c
00000380: 9717 943c acb4 4d3b 67fa cc3c 024c 4c3e
00000390: 8a77 913c c9d2 823c b79f 183d 94c3 d53d
000003a0: 76c7 443d ce9a b03d 5e05 9b3c 88d6 8d3c
000003b0: f450 63bb 9ba1 f13c 7fe9 3d3d 1eb6 fb3b
000003c0: 91d4 413c 9d77 033c e2c1 73bc ff9f f83c
000003d0: 96a7 d93c 079b 283d 8114 af3d d7eb 933d
000003e0: 4bd5 e73c fae2 ecbd 27d6 4fbd 8b65 e63c
000003f0: f276 84bd efb6 9f3d 90c8 b43d c3dd cd3b

teacher.model.0.bias f4 [40]
-0.5823243 -0.3778203 -0.31030247 -0.42071584 -0.5953323 -0.29901975 -0.21620496 -0.5392406
-0.46075952 -0.6905187 -0.52237356 -0.000665688 -0.5451482 -0.70351154 -0.28040573 -0.42811614
-0.22712909 -0.5397716 -0.43281087 -0.4576023 -0.33183882 -0.13741376 -0.5226517 -0.625324
-0.25996947 -0.25912696 -0.49284747 -0.2352576 -0.48767728 -0.16795193 -0.56400216 -0.70900047
-0.65882427 -0.6201956 -0.39494872 -0.17601049 -0.28124106 -0.39547467 -0.558701 -0.5231451
00000000: 3513 15bf aa71 c1be f7df 9ebe 1168 d7be
00000010: b367 18bf 1e19 99be d564 5dbe ac0b 0abf
00000020: ace8 ebbe d5c5 30bf 46ba 05bf 9181 2eba
00000030: d58e 0bbf 5519 34bf 5791 8fbe 0a32 dbbe
00000040: 8794 68be 792e 0abf 6399 ddbe d94a eabe
00000050: c7e6 a9be 31b6 0cbe 80cc 05bf 3c15 20bf
00000060: b81a 85be 4aac 84be 8156 fcbe 5ee7 70be
00000070: d6b0 f9be 97fb 2bbe 7262 10bf 0e81 35bf
00000080: b5a8 28bf 24c5 1ebf b836 cabe 183c 34be
00000090: d4fe 8fbe a87b cabe 0707 0fbf d6ec 05bf

teacher.model.3.weight f4 [25, 40]
-0.24000312 -0.6000639 0.026548913 0.0036607638 -0.98491174 -0.005238536 0.051474415 -0.5249425
-0.039138827 -1.032231 -0.0657328 0.050462876 -0.26579076 -0.22514348 -0.03219972 -0.037817575
-0.006924296 -0.72719705 -0.5801646 -0.0041237297 -0.038195148 0.013098577 -0.07519441 -1.0456692
-0.03778859 -0.018051958 -0.5938211 0.014355083 0.060516413 0.011568658 0.006757393 -0.22097576
-0.35102162 0.13946874 -0.014091477 -0.0020483145 -0.014739238 -0.16336262 -0.44124278 -0.06210287
0.34370106 -0.044512384 0.098209396 -0.5422684 0.03471397 0.09090925 0.036055025 0.007158831
0.51936865 0.06710035 0.31037825 0.018514512 -0.43852717 -0.20123202 0.08634857 -0.025886014
0.07762251 0.026175914 -0.33612746 0.11956021 0.11523867 0.035878398 -0.13726737 0.017566128
0.08888635 0.15709026 -0.6182384 0.11035396 -0.32657754 0.027483786 0.17244543 -0.06776415
-0.009548652 0.053717643 0.2896598 0.059659418 0.07158224 -0.35907233 -0.039395433 0.12039235
-0.07561239 -0.09405688 0.0013024127 -0.034564212 -1.0606803 -0.05042067 0.04865978 -0.010086878
0.3798399 -1.1228075 0.11208872 0.10462758 -0.21290669 -0.30048394 0.004949456 -0.04175804
-0.032748938 -0.6011014 0.006260006 0.11177638 0.08684374 0.20477389 -0.19393194 -1.1651467
-0.037232198 0.056385655 -0.69479614 0.075723216 0.024775535 0.022746658 0.08266456 -0.304644
-0.049578644 -0.1703125 0.04541065 0.05085117 0.06971742 0.031243442 -0.21492074 -0.018523559
-0.29797775 -0.08142 0.027156759 -0.002263125 -0.97503597 -0.0032339254 0.06540244 -0.48776534
0.005996503 -0.98776466 -0.009223722 0.048183955 -0.24029282 -0.001827036 -0.023933074 -0.000675274
-0.003977478 -0.5852509 -0.4548386 -0.0074665486 -0.0067580827 -0.00090854126 -0.038561434 -1.0763929
-0.027759835 0.0036247466 0.005638081 0.060726386 0.031787224 0.020239132 0.12626676 -0.30351087
-0.34308782 -0.10474508 -0.016580192 0.053905237 0.032943152 0.014662066 -0.47855234 -0.013592988
0.01864279 -0.19334179 -0.056170113 -0.047579244 -0.019318879 0.06191383 -0.08854682 -0.05140406
-0.29771218 -0.018873623 -0.29048628 0.016067486 -0.001180572 0.06280858 -0.53164977 -0.07304456
-0.031742513 -0.029133823 -0.18568431 0.0561661 0.06529519 -0.079148695 0.01500678 -0.038720936
-0.5237828 -0.43329656 0.00080775353 0.0639838 -0.0010561662 -0.35385945 -0.5724014 0.03212143
-0.024775168 0.024213837 -0.300006 0.075931594 -0.3798116 -0.06516281 -0.11682635 -0.09167967
-0.0039702803 0.05173331 -0.22997275 0.022810632 -0.028741777 -0.35099876 -0.39553317 0.048148822
-0.1366218 0.0043617343 -0.101357885 -0.060002185 -0.11060155 0.049879823 -0.358707 0.03938732
-0.22406933 -0.005334206 -0.004821161 -0.41165105 -0.1656783 -0.26407766 0.057310812 0.029652996
-0.20445827 -0.45919818 -0.0089939665 -0.15421844 0.1905514 -0.04354651 0.05278089 0.16161989
0.08228581 0.147137 -0.36225766 -0.467375 -0.11930658 0.022716725 0.013282466 -0.24746707
-0.046475686 -0.073737025 -0.35956773 0.07288195 -0.02824354 -0.40527692 0.059934527 -0.013228394
-0.42046636 -0.022397308 -0.58075297 0.07632666 -0.103213266 0.0558167 -0.34394544 -0.0036220578
00000000: 61c3 75be ca9d 19bf 1b7d d93c 6de9 6f3b
00000010: 2d23 7cbf 06a8 abbb d6d6 523d a262 06bf
00000020: 0950 20bd 2520 84bf eb9e 86bd 29b2 4e3d
00000030: ba15 88be 038c 66be dbe3 03bd 9ae6 1abd
00000040: 34e5 e2bb 9629 3abf ab85 14bf 5a20 87bb
00000050: 8472 1cbd 6a9b 563c 87ff 99bd 7dd8 85bf
00000060: 35c8 1abd b3e1 93bc a904 18bf 9531 6b3c
00000070: 0fe0 773d 788a 3d3c 1f6d dd3b 7847 62be
00000080: 1bb9 b3be e5d0 0e3e f0df 66bc 043d 06bb
00000090: d87c 71bc 8848 27be 93ea e1be 945f 7ebd
000000a0: 96f9 af3e 9e52 36bd 0222 c93d 1ad2 0abf
000000b0: 3c30 0e3d a12e ba3d 6fae 133d a194 ea3b
000000c0: 58f5 043f e96b 893d e6e9 9e3e bfab 973c
000000d0: a286 e0be c40f 4ebe 85d7 b03d e80e d4bc
000000e0: 8df8 9e3d df6e d63c e618 acbe fcdb f43d
000000f0: 4002 ec3d 3af5 123d d18f 0cbe d7e6 8f3c
00000100: 0c0a b63d 45dc 203e df44 1ebf 4201 e23d
00000110: 2c35 a7be ad25 e13c 8995 303e eec7 8abd
00000120: f371 1cbc 0807 5c3d 4a4e 943e 6f5d 743d
00000130: b699 923d 54d8 b7be 1b5d 21bd 4490 f63d
00000140: abda 9abd e5a0 c0bd b8b5 aa3a 3493 0dbd
00000150: 5fc4 87bf e885 4ebd 7a4f 473d 6f43 25bc
00000160: 607a c23e 28b8 8fbf c58e e53d fc46 d63d
00000170: 3604 5abe 08d9 99be 0c2f a23b 7b0a 2bbd
00000180: c023 06bd c8e1 19bf bd20 cd3b 04eb e43d
00000190: 21db b13d 3fb0 513e 1896 46be 8723 95bf
000001a0: ca80 18bd a5f4 663d 29de 31bf c614 9b3d
000001b0: 10f6 ca3c 3357 ba3c 094c a93d 4cfa 9bbe
000001c0: fa12 4bbd 6666 2ebe 8500 3a3d 5149 503d
000001d0: 02c8 8e3d 3ff2 ff3c 2f14 5cbe b8be 97bc
000001e0: 8a90 98be 87bf a6bd da77 de3c f050 14bb
000001f0: f59b 79bf 44f0 53bb b7f1 853d 61bc f9be
00000200: 507e c43b 25de 7cbf 181f 17bc 8a5c 453d
00000210: 520f 76be 2879 efba 4b0f c4bc df04 31ba
00000220: 8155 82bb 01d3 15bf 9be0 e8be f3a9 f4bb
00000230: e872 ddbb 2c2b 6eba 98f2 1dbd 3ec7 89bf
00000240: 9868 e3bc 288d 6d3b a7bf b83b 3bbc 783d
00000250: 5233 023d 89cc a53c 134c 013e c765 9bbe
00000260: 35a9 afbe 9784 d6bd 2fd3 87bc bdcb 5c3d
00000270: 66ef 063d 2939 703c d004 f5be 20b5 5ebc
00000280: c4b8 983c 64fb 45be a212 66bd 74e2 42bd
00000290: a042 9ebc 5b99 7d3d 0958 b5bd 108d 52bd
000002a0: bb6d 98be db9c 9abc 9eba 94be f69f 833c
000002b0: 6cbd 9aba c9a1 803d 331a 08bf 6398 95bd
000002c0: 7004 02bd 0eaa eebc 0724 3ebe 6d0e 663d
000002d0: 7cb9 853d b618 a2bd ffde 753c d899 1ebd
000002e0: a116 06bf 0cd9 ddbe 6cbf 533a f009 833d
000002f0: 0f6f 8aba 112d b5be e688 12bf c391 033d
00000300: 4bf5 cabc 195c c63c 639a 99be 0682 9b3d
00000310: ab76 c2be 1474 85bd a742 efbd 8dc2 bbbd
00000320: 2019 82bb 4fe6 533d fa7d 6bbe 5ddd ba3c
00000330: e073 ebbc 1cb6 b3be 5383 cabe b337 453d
00000340: 96e6 0bbe e1ec 8e3b b994 cfbd dac4 75bd
00000350: 1183 e2bd c94e 4c3d 72a8 b7be 9954 213d
00000360: 6e72 65be 90ca aebb d4fa 9dbb edc3 d2be
00000370: 93a7 29be 3035 87be bebe 6a3d d7ea f23c
00000380: 825d 51be 061c ebbe 6e5b 13bc 70eb 1dbe
00000390: e81f 433e d35d 32bd c630 583d af7f 253e
000003a0: 7685 a83d 15ab 163e d679 b9be c74b efbe
000003b0: 0257 f4bd 6d18 ba3c b39e 593c 0268 7dbe
000003c0: 4a5d 3ebd 7003 97bd 4319 b8be 2243 953d
000003d0: ff5e e7bc 7580 cfbe e87d 753d e8bb 58bc
000003e0: 5e47 d7be 8f7a b7bc 3aac 14bf 2751 9c3d
000003f0: 7a61 d3bd 0da0 643d 9e19 b0be 0c60 6dbb

teacher.model.3.bias f4 [25]
0.110191405 -0.15516192 0.08151544 0.109786294 0.15059453 0.068796724 0.12981473 0.069970466
0.11259225 -0.24559003 0.10786897 0.12072846 0.09386332 -0.03781642 0.1258759 0.096470386
0.15541156 0.097145095 0.120298 0.13932367 0.09198945 -0.08033422 0.07841503 0.098859765
0.08661279
00000000: 08ac e13d c4e2 1ebe 91f1 a63d a3d7 e03d
00000010: 7435 1a3e 4ce5 8c3d 27ee 043e ad4c 8f3d
00000020: c496 e63d f47b 7bbe 68ea dc3d 7c40 f73d
00000030: 6a3b c03d 64e5 1abd 9de5 003e 4492 c53d
00000040: 3524 1f3e 02f4 c63d cc5e f63d ddaa 0e3e
00000050: f764 bc3d 4486 a4bd 0f98 a03d fd76 ca3d
00000060: 0c62 b13d

teacher.model.6.weight f4 [15, 25]
-0.67299294 -0.76894397 -0.60818076 -1.0403461 0.0631216 -0.055265937 0.13943468 -0.7427203
-0.037553005 -0.383837 -0.006031504 -0.035537485 0.016700257 -0.41361678 -0.052488413 -0.9054309
0.22462763 -0.95162404 -0.51362514 -0.7367382 -0.041688353 -0.68658775 -0.3963617 -0.8904477
-0.63242126 0.29210815 0.050196346 -0.010182329 0.053059656 -0.17834423 -0.4140242 -0.08898945
0.034524173 -0.4097767 -0.063521 -0.38522747 -0.30478552 -0.48221186 0.09297929 -0.32555056
0.1864956 -0.13706633 0.10860225 0.23064876 0.33811602 -0.5143487 -0.035836417 0.04446865
0.044929635 0.056992557 0.3707425 0.1095394 0.028101575 0.30858338 -0.23850651 -0.54362965
-0.13571876 -0.040924627 -0.50766385 -0.06733445 -0.4899325 -0.44177917 -0.6117706 0.10138025
-0.5682019 0.16339101 -0.27619347 0.007050849 0.20981558 0.3930272 -0.5976233 -0.04481237
0.06112048 0.101147085 0.01803484 -0.6473419 -0.11926622 -0.52711236 -0.40495208 0.2811761
0.1282779 0.13433766 -0.35505664 0.05458928 0.08703013 0.09291903 0.18399797 0.25273138
-0.44566518 0.11034617 -0.5255187 0.43262646 -0.40907162 -0.47592065 -0.4119532 0.14270115
-0.080173984 -0.24423419 -0.4083655 -0.45507428 -0.79830027 -0.39441696 -0.485547 -0.66681594
0.08254726 0.08691478 0.068499066 -0.6450598 -0.051845852 -0.17246053 0.0979625 0.045328446
0.19410571 -0.32528725 0.0416817 -0.72060734 0.2568929 -0.6567852 -0.40286866 -0.5066118
-0.047259502 -0.32621557 -0.46969986 -0.541937 -0.49473053 0.2779857 -0.004529864 0.03190766
0.10865546 -0.17433882 -0.38392615 -0.018539311 0.013576093 -0.37235683 -0.02637746 -0.26955864
-0.36903635 -0.39535144 0.1094526 -0.3715567 0.16024756 -0.117033266 0.07791442 0.22001486
0.33400986 -0.45662737 0.04990041 -0.012950023 0.10113313 0.046120044 0.29735875 -0.03646869
0.058598697 0.1902362 -0.11103986 -0.3841926 -0.010469065 0.01896156 -0.33633354 -0.042906657
-0.34803715 -0.4735254 -0.46027693 0.16834685 -0.41513216 0.20419304 -0.17040783 0.15403326
0.1811223 0.38936767 -0.4947239 0.077489376 0.07286725 0.004563334 0.037661318 -0.6692766
-0.24307612 -0.3250079 -0.48000184 0.1633181 0.044299886 0.21171077 -0.29591188 0.16343375
0.027489493 0.040568806 0.14390908 0.23164591 -0.34630302 0.13375556 -0.39632368 0.22903669
-0.53243977 -0.54250646 -0.53284675 0.14390033 -0.1362351 -0.3698016 -0.38176242 -0.34198567
0.35631803 0.005347568 0.09572716 0.18202305 -0.19439194 -0.49795258 -0.08252968 -0.020280108
-0.5204338 -0.074140444 -0.46786743 -0.39857087 -0.54051304 0.19743027 -0.39035735 0.19751017
-0.14629678 0.0031604364 0.20863135 0.2139382 -0.56105983 -0.025602246 0.07953732 0.024751643
-0.0024754582 -0.73165226 -0.39606526 -0.71929413 -0.8901167 0.16275135 0.0782513 0.17802048
-0.80246925 -0.001099828 -0.14519139 0.019650133 0.065782465 -0.051007368 -0.45591265 -0.0806095
-0.9336597 0.26004946 -0.9782287 -0.5661625 -0.6476075 -0.041075632 -0.4137574 -0.5607986
-0.87712866 -0.75440156 -0.6111955 -0.16780008 -0.38746908 -0.36303374 0.23011857 0.06719186
00000000: 4449 2cbf 83d9 44bf bcb1 1bbf 102a 85bf
00000010: e645 813d 895e 62bd f7c7 0e3e eb22 3ebf
00000020: 2ed1 19bd 4986 c4be eca3 c5bb c18f 11bd
00000030: face 883c 94c5 d3be 17fe 56bd 52ca 67bf
00000040: c904 663e a29d 73bf f07c 03bf e09a 3cbf
00000050: 68c1 2abd 37c4 2fbf ecef cabe 61f4 63bf
00000060: 5ce6 21bf 338f 953e af9a 4d3d c9d3 26bc
00000070: 1555 593d df9f 36be fbfa d3be 1a40 b6bd
00000080: 3869 0d3d 40ce d1be 4c17 82bd 893c c5be
00000090: d90c 9cbe 79e4 f6be ed6b be3d 90ae a6be
000000a0: b4f8 3e3e 1e5b 0cbe db6a de3d 302f 6c3e
000000b0: 8b1d ad3e 5bac 03bf 35c9 12bd c224 363d
000000c0: 2308 383d 0771 693d f6d1 bd3e 3156 e03d
000000d0: 4635 e63c a4fe 9d3e 0d3b 74be 502b 0bbf
000000e0: dcf9 0abe 95a0 27bd 42f6 01bf a5e6 89bd
000000f0: 6fd8 fabe e130 e2be ff9c 1cbf 73a0 cf3d
00000100: ae75 11bf f94f 273e 3b69 8dbe cf0a e73b
00000110: e5d9 563e dc3a c93e d7fd 18bf 2d8d 37bd
00000120: 7859 7a3d 3426 cf3d cdbd 933c 33b8 25bf
00000130: d941 f4bd d6f0 06bf e155 cfbe 50f6 8f3e
00000140: 485b 033e d08f 093e fcc9 b5be 0299 5f3d
00000150: da3c b23d 554c be3d f769 3c3e 0266 813e
00000160: 3a2e e4be 2cfd e13d 6588 06bf 3781 dd3e
00000170: d671 d1be dfab f3be 88eb d2be 4020 123e
00000180: 4232 a4bd 8718 7abe 4815 d1be 7fff e8be
00000190: 685d 4cbf 05f1 c9be 9e99 f8be 73b4 2abf
000001a0: 8a0e a93d 6000 b23d 3d49 8c3d a422 25bf
000001b0: 515c 54bd 7e99 30be 90a0 c83d 52aa 393d
000001c0: a6c3 463e 0d8c a6be 6eba 2a3d b979 38bf
000001d0: 7787 833e 1323 28bf cd44 cebe 50b1 01bf
000001e0: 2e93 41bd ba05 a7be 807c f0be 62bc 0abf
000001f0: 524d fdbe 2454 8e3e 416f 94bb 9bb1 023d
00000200: c186 de3d e085 32be f891 c4be c1df 97bc
00000210: 436e 5e3c 8ea5 bebe 8b15 d8bc 9703 8abe
00000220: 55f2 bcbe 816b cabe af28 e03d ae3c bebe
00000230: f017 243e 23af efbd 9891 9f3d 934b 613e
00000240: 5703 ab3e 10cb e9be 5f64 4c3d 552c 54bc
00000250: e31e cf3d 5fe8 3c3d 683f 983e 3160 15bd
00000260: 3005 703d 47cd 423e de68 e3bd e4b4 c4be
00000270: 7186 2bbc 4655 9b3c e933 acbe e4be 2fbd
00000280: ed31 b2be ec71 f2be 6ba9 ebbe 1e63 2c3e
00000290: 348c d4be fb17 513e 647f 2ebe e5ba 1d3e
000002a0: 2078 393e 335b c73e 734c fdbe c0b2 9e3d
000002b0: 6d3b 953d 0588 953b c142 1a3d b655 2bbf
000002c0: f2e8 78be 6f67 a6be cdc2 f5be dc3c 273e
000002d0: cc73 353d b5ca 583e c381 97be 2d5b 273e
000002e0: a531 e13c 7a2b 263d e75c 133e 9634 6d3e
000002f0: a14e b1be 38f7 083e f0ea cabe 9888 6a3e
00000300: f94d 08bf b4e1 0abf a568 08bf 9c5a 133e
00000310: 3781 0bbe a356 bdbe 5d76 c3be bf18 afbe
00000320: 516f b63e a73a af3b 9a0c c43d 4064 3a3e
00000330: ae0e 47be a4f3 febe 5205 a9bd 7822 a6bc
00000340: 263b 05bf f2d6 97bd 528c efbe 7b11 ccbe
00000350: 105f 0abf 292b 4a3e ebdc c7be 1b40 4a3e
00000360: d3ce 15be 531f 4f3b 75a3 553e 9e12 5b3e
00000370: 9ea1 0fbf cdbb d1bc 76e4 a23d f5c3 ca3c
00000380: 4c3b 22bb 904d 3bbf 11c9 cabe a923 38bf
00000390: b0de 63bf 4aa8 263e 3842 a03d 004b 363e
000003a0: a06e 4dbf 1b28 90ba 0dad 14be 51f9 a03c
000003b0: f5b8 863d 1aed 50bd 626d e9be 9816 a5bd
000003c0: 5204 6fbf 3425 853e 326d 7abf 07f0 10bf
000003d0: 9bc9 25bf ec3e 28bd 03d8 d3be 7f90 0fbf
000003e0: 818b 60bf 7620 41bf 4f77 1cbf c9d3 2bbe
000003f0: 5962 c6be 8fdf b9be 34a4 6b3e e39b 893d

teacher.model.6.bias f4 [15]
0.2731065 0.1495323 0.21133336 0.35479787 0.29244888 0.13508828 0.16420922 0.31701124
0.19435315 0.2778895 0.2737639 0.29848498 0.33029857 0.25472325 0.17240821
00000000: 9dd4 8b3e ff1e 193e c667 583e 11a8 b53e
00000010: dcbb 953e 9554 0a3e 7626 283e 4c4f a23e
00000020: 8304 473e 8847 8e3e c82a 8c3e 06d3 983e
00000030: e51c a93e 166b 823e c78b 303e

teacher.model.9.weight f4 [1, 15]
0.9209053 -0.3451688 -0.29299736 0.42129195 0.6566059 -0.37242022 -0.28559095 0.48285216
-0.33504477 0.8292004 0.50449663 0.5614801 0.46556997 0.67488587 -0.25778663
00000000: 73c0 6b3f f7b9 b0be c003 96be 94b3 d73e
00000010: 5317 283f ddad bebe fa38 92be 6638 f73e
00000020: fd8a abbe 7a46 543f b126 013f 29bd 0f3f
00000030: 305f ee3e 52c5 2c3f 9cfc 83be

exp_avg f4 [40, 52]
-0.0023376415 -0.0008062471 -0.0029988454 -0.0026717624 0.0001049626 -0.004058525 0.002281956 0.0012459557
-0.00045695904 0.0040628985 0.0013676325 0.0003367301 -0.00018970817 0.0013805125 0.0011009678 0.0006771809
0.0047389464 -0.0101148095 0.00032061245 3.184876e-05 6.3418647e-06 -0.00025741186 1.8268762e-05 1.0432564e-05
0.0001246382 -0.00010267307 -0.00027090515 0.0014448372 -0.0009752821 -0.00045257376 -2.4469033e-05 -0.0018590398
0.00034180802 -4.394518e-05 -0.0004984393 -7.319328e-05 -0.0035373804 -0.00055910286 0.00091421086 -0.00040288863
-0.00028352527 -0.00042726423 -8.76454e-05 0.0012510873 -5.0290404e-05 -0.0017942267 0.0010212866 1.7715205e-05
-0.00033549068 0.0012636712 -0.00027097875 0.0017149596 -0.0055001075 -0.0024990474 -0.0027671661 -0.0005832012
0.0035353538 -0.0035553647 0.0049234605 -0.0012703525 -0.0021966635 -0.0012148942 0.0062046736 -0.0008628144
-0.00053496286 -0.0016547134 -0.0038563996 0.0014940639 0.006727754 -0.00091959187 -0.0013918794 -0.00055517035
-0.0008350653 -0.0011267288 -0.00011653031 -0.00020077871 -0.0006306967 -0.00025045493 -0.0006080375 -0.00019260857
0.005055603 -0.00061166007 -6.1414015e-05 0.0006161134 -0.0008745801 -0.00011539247 -0.004054587 -0.002169255
-0.001222379 0.0024341382 -0.0022950775 0.0013109692 -0.0011304918 -0.0003784099 0.00019204887 -0.00064382283
-0.00028029975 0.0015003479 -0.0019979235 -0.00031389284 -0.0011640536 -0.0034024974 0.0025321525 0.004457966
0.001195037 0.0011943992 0.0015490426 0.00015693196 -0.0003868283 0.0017149956 -0.0013484743 -0.0012752848
-0.0004952744 -0.00010572147 -0.0007123711 0.0005799776 -0.00023410772 9.754073e-05 5.6667355e-05 0.0012038522
-0.0008483463 0.0019604182 -4.6434172e-05 2.7883882e-05 -0.0007895643 -0.0018534288 7.229497e-06 0.00013030971
0.000945503 4.6679706e-06 -2.8667033e-05 0.00019922206 -4.0849554e-05 0.0018732706 -3.0894998e-06 -0.0019074823
-5.5573604e-05 -2.918602e-05 -0.0015906381 -0.001063607 0.004261452 -0.0011753228 0.0023287986 -0.0016552268
-7.11078e-05 -0.00019870975 -3.172204e-05 -0.00018280279 -0.00021894005 0.0002438165 0.0020981557 0.0006079469
0.00017374553 0.00021402049 -0.0017471188 0.0006029652 -0.001905806 -0.0018300719 0.0004241855 -0.00037501892
0.0006374032 -0.00047971692 0.0017093361 0.0006410221 -0.0011733461 -0.00048630702 0.00020383176 8.6359796e-05
-0.0006314085 -0.001529262 -0.0030462015 -0.0017292739 0.0021666512 -0.00038339084 -0.00026347648 -0.0013304942
0.00066547806 0.0014337003 -3.4780634e-05 -0.00012586784 0.00064861734 -6.563413e-05 -0.00090082135 -0.00096442073
0.00086866296 -0.00016570454 -1.8789706e-05 -0.00052501116 -0.0003081936 -1.7981196e-05 -0.00062609557 0.003496727
-0.0026892445 -0.00097603304 -0.0010794669 0.0012623753 7.780315e-05 0.0017178531 0.00024544328 -0.00016254303
-8.4255094e-05 -0.00027690682 0.0010438152 -0.00014259531 2.7510949e-05 -5.8945894e-05 -0.0005132349 0.0014788558
0.010874463 0.005689777 -0.0013668132 -0.002668361 0.0052763587 0.005963739 0.001976672 -0.0018189935
-0.0024619172 -0.0023873735 -0.0061920797 0.00025825278 -0.008429706 -0.0062630787 -0.0039955154 0.031999163
-0.008905893 -0.0011512067 0.0005660175 -5.1072777e-05 0.0022769042 0.0030109906 -0.0001514061 -0.00035231293
0.00023833706 -0.00027440634 -0.0003406551 -0.0005312676 -0.0007822157 -0.00081871427 -7.273609e-05 -0.0029983758
-0.00853289 -0.00013399063 -0.0013816619 -0.00012440997 -0.0046269274 -0.0038303738 0.0076790815 -0.0064723846
-0.00094039354 0.0033073493 -0.00028585483 -0.000469931 -0.00036145205 0.013011319 -0.002665421 -0.00023912915
00000000: 1e33 19bb 545a 53ba 4788 44bb bc18 2fbb
00000010: 5e1f dc38 60fd 84bb de8c 153b 564f a33a
00000020: 0194 efb9 1022 853b 2242 b33a 268b b039
00000030: 66ec 46b9 50f2 b43a 594e 903a d784 313a
00000040: 2a49 9b3b 96b8 25bc e017 a839 5895 0538
00000050: 34cc d436 3cf5 86b9 de3f 9937 8507 2f37
00000060: 50b1 0239 2f52 d7b8 4608 8eb9 b160 bd3a
00000070: 13aa 7fba 6c47 edb9 d942 cdb7 06ab f3ba
00000080: b234 b339 c751 38b8 b2a9 02ba 587f 99b8
00000090: 65d3 67bb c290 12ba a7a7 6f3a cc3a d3b9
000000a0: 1ea6 94b9 6f02 e0b9 44ce b7b8 86fb a33a
000000b0: e9ee 52b8 422c ebba b1dc 853a 1d9b 9437
000000c0: cce4 afb9 c5a1 a53a 2712 8eb9 7fc8 e03a
000000d0: 3f3a b4bb 0fc7 23bb 5859 35bb f8e1 18ba
000000e0: 65b1 673b 1f01 69bb fb54 a13b f581 a6ba
000000f0: e6f5 0fbb 163d 9fba 9350 cb3b 7f2e 62ba
00000100: c03c 0cba f8e2 d8ba a6bb 7cbb 77d4 c33a
00000110: 7e74 dc3b c410 71ba b96f b6ba da88 11ba
00000120: 49e8 5aba bfae 93ba bc61 f4b8 2088 52b9
00000130: 5755 25ba 7e4f 83b9 b564 1fba f8f6 49b9
00000140: 79a9 a53b d057 20ba 66cb 80b8 ac82 213a
00000150: 1444 65ba dcfe f1b8 57dc 84bb 0f2a 0ebb
00000160: 3c38 a0ba 1086 1f3b 0369 16bb d4d4 ab3a
00000170: 032d 94ba 5165 c6b9 ba60 4939 38c6 28ba
00000180: 32f5 92b9 52a7 c43a 98ef 02bb fc91 a4b9
00000190: 2893 98ba 6ffc 5ebb 78f2 253b 2114 923b
000001a0: caa2 9c3a 638d 9c3a 3f09 cb3a 1a8e 2439
000001b0: 37cf cab9 b4c9 e03a 4abf b0ba 7527 a7ba
000001c0: 4dd5 01ba c8b6 ddb8 6abe 3aba a309 183a
000001d0: d07a 75b9 c88e cc38 1cae 6d38 94ca 9d3a
000001e0: 8e63 5eba 5c7a 003b 50c2 42b8 2ee8 e937
000001f0: c3fa 4eba c0ee f2ba e894 f236 bfa3 0839
00000200: a2db 773a 90a1 9c36 fc79 f0b7 44e6 5039
00000210: e055 2bb8 8888 f53a 3455 4fb6 7c04 faba
00000220: b417 69b8 80d4 f4b7 f57c d0ba bb68 8bba
00000230: a6a3 8b3b 4a0d 9aba c29e 183b 32f4 d8ba
00000240: b61f 95b8 be5c 50b9 480d 05b8 c0ae 3fb9
00000250: 4693 65b9 fea8 7f39 3681 093b a05e 1f3a
00000260: 762f 3639 b06a 6039 94ff e4ba 4f10 1e3a
00000270: 3dcc f9ba 06df efba 3765 de39 309e c4b9
00000280: 6817 273a 8482 fbb9 cd0b e03a 440a 283a
00000290: f6ca 99ba 06f7 feb9 acbb 5539 101c b538
000002a0: 1b85 25ba 8571 c8ba c8a2 47bb cea8 e2ba
000002b0: 60fe 0d3b d901 c9b9 3723 8ab9 fa63 aeba
000002c0: 7a73 2e3a 00eb bb3a 6ce1 11b8 64fb 03b9
000002d0: f907 2a3a 0ea5 89b8 1925 6cba 2ed1 7cba
000002e0: fcb6 633a f9c0 2db9 969e 9db7 e7a0 09ba
000002f0: 0b95 a1b9 53d6 96b7 9020 24ba 5829 653b
00000300: 093e 30bb 78dc 7fba e67c 8dba 4976 a53a
00000310: 402a a338 9629 e13a d7ae 8039 5070 2ab9
00000320: 1cb2 b0b8 ce2d 91b9 a0d0 883a a385 15b9
00000330: 50c7 e637 ac3c 77b8 9c8a 06ba 2bd6 c13a
00000340: ce2a 323c 4f71 ba3b a426 b3ba abdf 2ebb
00000350: 4ee5 ac3b 786b c33b 0e8b 013b 4b6b eeba
00000360: 1e58 21bb 7b75 1cbb eee6 cabb 1a66 8739
00000370: c01c 0abc 833a cdbb d0ec 82bb 8e11 033d
00000380: 06ea 11bc 16e4 96ba cb60 143a fa36 56b8
00000390: 1d38 153b 0a54 453b c4c2 1eb9 a4b6 b8b9
000003a0: 1eea 7939 32de 8fb9 f499 b2b9 c444 0bba
000003b0: 9b0d 4dba fc9e 56ba e489 98b8 6680 44bb
000003c0: 89cd 0bbc d67f 0cb9 e118 b5ba 0c74 02b9
000003d0: 7b9d 97bb 0207 7bbb cea0 fb3b 4c16 d4bb
000003e0: be84 76ba 1dc0 583b c9de 95b9 1261 f6b9
000003f0: 4681 bdb9 6d2d 553c 58ae 2ebb bebe 7ab9
